kinova-ros/kinova_scripts/src/runs/jaco2_ppo_20240708-113131/best_model_episode_50_20240708-113131/critic_20240708-113131.pth (torch, 152975 bytes, 5 tensors)

fc1.weight f4 [256, 17]
0	0x3e64b104	0.22333151
1	0x3df9b58b	0.1219283
2	0x3c2b8203	0.010468009
3	0xbe1c4191	-0.15259387
4	0x3d8e2293	0.06940188
5	0x3df450cb	0.119294725
6	0xbe4f6987	-0.20255099
7	0x3d2d322e	0.042284183
8	0xbe34c8c0	-0.17654705
9	0x3e4b7d9d	0.19872136
10	0xbe103b61	-0.14085151
11	0xbe2577f3	-0.16159038
12	0x3e6839fd	0.22678371
13	0x3b8eadc0	0.0043542087
14	0xbe64f491	-0.2235892
15	0xbd933695	-0.07188145
16	0xbe251eb3	-0.16124992
17	0x3c34c632	0.011033582
18	0x3e003f36	0.12524113
19	0xbe23b384	-0.15986449
20	0x3d4474b4	0.04796286
21	0x3d339021	0.043838624
22	0xbde92b75	-0.11385242
23	0xbc26ee1f	-0.010188608
24	0xbe519f54	-0.20470935
25	0xbdd3707d	-0.1032419
26	0x3c5246b2	0.012834238
27	0xbe0fc1d1	-0.14038779
28	0xbe32493e	-0.17410752
29	0x3e19046c	0.14943093
30	0xbd44d525	-0.048054833
31	0x3de363a1	0.11102987
32	0x3e466fcc	0.19378585
33	0xbe17ba82	-0.14817241
34	0x3e455820	0.19271898
35	0xbe696836	-0.2279366
36	0x3e6aeb2e	0.22941276
37	0xbdd559b6	-0.10417502
38	0x3d8ac880	0.067765236
39	0x3e07151a	0.13191643
40	0x3e4d24e5	0.20033605
41	0x3e275863	0.1634231
42	0xbe3703ba	-0.17872515
43	0xbe0f79fc	-0.14011377
44	0x3db1f05a	0.086884215
45	0xbe58e47f	-0.21180914
46	0xbe0b3298	-0.13593519
47	0x3c0fc5f8	0.008775227
48	0x3e6ba4ce	0.23012087
49	0xbd80a975	-0.06282321
50	0x3e45b805	0.19308479
51	0x3e20847a	0.15675536
52	0x3e52685c	0.20547622
53	0x3daa5e61	0.083187826
54	0x3dc72083	0.09722998
55	0xbdca6f59	-0.09884519
56	0x3e5dc44f	0.21656917
57	0x3d02c082	0.03192187
58	0x3e4ea26f	0.20179151
59	0xbe420618	-0.18947637
60	0xbdfe20de	-0.12408613
61	0xbdb8f29f	-0.09030651
62	0x3dd803eb	0.10547622
63	0x3e50cb1c	0.2038998
64	0x3c8f360b	0.017481824
65	0xbd492482	-0.049107082
66	0x3e6c5572	0.2307947
67	0xbe427d9e	-0.18993232
68	0x3e0840dc	0.13305992
69	0xbe6100cb	-0.21972959
70	0xbde10708	-0.10987669
71	0x3da67b20	0.08128953
72	0xbe42bd4e	-0.19017527
73	0xbe01cc8e	-0.12675688
74	0xbd6955f4	-0.056966737
75	0x3d275ed8	0.040861934
76	0x3dd7ca24	0.10536602
77	0xbe2def4c	-0.16985816
78	0x3e265bbe	0.16245934
79	0x3e4e4ca2	0.2014642
80	0xbde0f31c	-0.109838694
81	0x3cd5deb0	0.026107162
82	0xbe017b8e	-0.12644789
83	0x3db16f94	0.0866386
84	0x3d5f0540	0.054448366
85	0xbd75e694	-0.06003435
86	0x3e737d2b	0.23778217
87	0x3e2eb171	0.17059876
88	0x3dab6c33	0.08370247
89	0xbe69c0d3	-0.22827463
90	0x3da40e18	0.08010501
91	0xbdc77770	-0.09739578
92	0xbd47e64d	-0.048803616
93	0x3e691c64	0.22764736
94	0xbd9df013	-0.07711806
95	0xbdeb3b24	-0.114858896
96	0xbdeae5df	-0.11469626
97	0x3d8410cc	0.06448516
98	0xbd0c5297	-0.03425845
99	0xbd1552ac	-0.036455795
100	0xbdeb7037	-0.11496013
101	0xbe331ea7	-0.17492162
102	0xbdc3863a	-0.09547086
103	0x3d8ffd24	0.070307046
104	0xbe261fcc	-0.16223067
105	0xbdfd4928	-0.12367469
106	0xbc7095a0	-0.014684111
107	0x3d95ae84	0.07308677
108	0x3d4b2de8	0.049604326
109	0x3b323300	0.0027191043
110	0xbe6d732c	-0.23188466
111	0x3e6dc02a	0.23217836
112	0x3e018802	0.12649539
113	0x3da38724	0.079847604
114	0x3da2781c	0.07933065
115	0x3bb5d880	0.0055494905
116	0xbc8f29e8	-0.017476037
117	0x3d7ab420	0.061206937
118	0xbe252e5a	-0.16130963
119	0x3e438686	0.19094285
120	0xbe65e127	-0.2244917
121	0xbe3864b8	-0.18007171
122	0x3e1b66de	0.1517596
123	0x3e5262a1	0.20545436
124	0xbde30477	-0.11084836
125	0xbdb7e1a8	-0.089785874
126	0x3e1d9717	0.15389667
127	0x3dd904a9	0.10596592
128	0x3da8e5bc	0.08246943
129	0x3dd1d585	0.10245804
130	0xbe572b68	-0.21012652
131	0xbdaf742f	-0.08567082
132	0xbd9ee1d4	-0.07757917
133	0x3c295ebc	0.010337528
134	0xbd4eecd3	-0.050518822
135	0x3dfb7cc2	0.12279655
136	0xbdf0fb39	-0.11766667
137	0x3e4878fa	0.19577399
138	0x3d439bd8	0.047756046
139	0x3d240750	0.040046036
140	0xbe0b0b36	-0.13578495
141	0xbde95caa	-0.113946274
142	0x3d8d2064	0.06890944
143	0xbc0a3c60	-0.008437246
144	0xbd82815c	-0.063723296
145	0xbe230fe0	-0.15924025
146	0xbe053210	-0.13007379
147	0x3e05777e	0.13033864
148	0x3df49844	0.11943105
149	0xbe569825	-0.20956476
150	0xbe049c9b	-0.12950365
151	0xbd3fbc2c	-0.046810314
152	0xbdb2c7de	-0.08729528
153	0x3df93b83	0.12169554
154	0xbda9650a	-0.08271225
155	0xbe081185	-0.13287933
156	0xbb1ea070	-0.0024204515
157	0x3e72608f	0.23669647
158	0xbe180cfb	-0.14848702
159	0x3e1360db	0.14392416
160	0xbdcfe633	-0.10151329
161	0xbd551753	-0.052024197
162	0x3e6fbe07	0.23412333
163	0x3e075698	0.13216627
164	0xbd7ae255	-0.061251003
165	0x3e40d835	0.18832476
166	0x3d30518a	0.04304651
167	0xbdcea18f	-0.100894086
168	0x3d928bf8	0.07155603
169	0xbd1cea16	-0.03830918
170	0x3d8b99af	0.06816422
171	0xbe1af582	-0.15132716
172	0x3e49664e	0.19667932
173	0xbc6c4fad	-0.014423293
174	0x3d116822	0.0354997
175	0xbd1477fc	-0.03624724
176	0x3aeb5e78	0.0017957231
177	0x3d30fa19	0.04320726
178	0x3e6fc478	0.2341479
179	0x3e3ec48a	0.18629661
180	0xbe41a146	-0.18909177
181	0x3e497576	0.19673714
182	0x3e42f1c6	0.19037542
183	0x3d2668ef	0.040627416
184	0x3de1457b	0.109995805
185	0xbe6c1036	-0.23053059
186	0x3e3c498d	0.18387432
187	0x3d45fec7	0.048338678
188	0x3e27f0b2	0.16400412
189	0xbd0567cd	-0.032569695
190	0xbd9d7157	-0.076876335
191	0xbda1ba70	-0.07896888
192	0x3e148b3c	0.14506239
193	0xbd1647b3	-0.03668947
194	0x3e430e37	0.19048391
195	0x3e032279	0.12806119
196	0xbd3c48a5	-0.045967717
197	0xbe08037b	-0.13282578
198	0xbd2162d9	-0.03940091
199	0xbd07d296	-0.033159815
200	0x3dc1a78e	0.09455787
201	0x3e52b7f8	0.20577991
202	0x3d038d40	0.03211713
203	0x3df87821	0.12132288
204	0x3dea689c	0.11445734
205	0xbe55e7b1	-0.20889165
206	0x3d4a0123	0.04931749
207	0xbe08c593	-0.13356619
208	0x3e0b9433	0.13630752
209	0x3ddd44ed	0.10804162
210	0x3d669ef7	0.056303944
211	0x3e476fbd	0.19476219
212	0xbda369f6	-0.07979195
213	0xbe017f76	-0.12646279
214	0x3dfee0e3	0.124452375
215	0xbe36e69e	-0.17861411
216	0x3dee453e	0.11634301
217	0x3bc81ed0	0.0061071888
218	0x3d5cf40e	0.053943686
219	0x3de4d349	0.11173112
220	0x3d0e38b3	0.03472204
221	0xbe68a9f2	-0.22721079
222	0x3dbce97c	0.09224221
223	0xbe70fae5	-0.23533209
224	0x3e0c747e	0.13716313
225	0x3e0a9fc1	0.13537504
226	0xbd058344	-0.032595888
227	0xbe3acbf2	-0.18241861
228	0xbd4ff1dc	-0.050767764
229	0xbde76575	-0.11298648
230	0x3d818bc8	0.06325489
231	0xbe64103f	-0.22271822
232	0x3e642827	0.22280942
233	0x3d34bccf	0.044125374
234	0x3dcfa3e3	0.10138681
235	0x3e177788	0.14791691
236	0x3e6f603a	0.23376551
237	0xbca37a22	-0.019955698
238	0xbd93dd0d	-0.072198965
239	0xbe39b737	-0.18136297
240	0xbdb4515b	-0.0880458
241	0x3df73571	0.1207074
242	0xbc60e318	-0.013726018
243	0x3da18313	0.078863285
244	0x3e386367	0.18006669
245	0xbce5049c	-0.0279563
246	0xbd9d40ee	-0.076784
247	0xbe800337	-0.25002453
248	0xbe4e74f8	-0.20161808
249	0x3de6cd69	0.11269648
250	0x3e70f21d	0.23529859
251	0xbe30e6a9	-0.1727549
252	0x3e0b003e	0.13574311
253	0x3d69c6fc	0.057074532
254	0xbdaf602f	-0.085632674
255	0x3e068b9e	0.13139197

fc1.bias f4 [256]
0	0xbe6e4e04	-0.23271948
1	0x3ce3fefe	0.02783155
2	0x3dc31eaa	0.09527333
3	0x3d321175	0.04347368
4	0x3df40e4c	0.119167894
5	0x3e4c1c41	0.19932653
6	0x3e356e42	0.17717841
7	0x3e2d812d	0.16943808
8	0x3e37f970	0.17966247
9	0xbe632d55	-0.22185262
10	0xbe0d0018	-0.13769567
11	0xbe4e1607	-0.2012559
12	0xbdd4028d	-0.10352049
13	0x3dde8b8d	0.10866461
14	0xbe4f84af	-0.20265459
15	0x3e7770fe	0.24164197
16	0xbdc93581	-0.09824658
17	0x3e53901f	0.20660447
18	0xbe6ef748	-0.23336518
19	0xbe1801fa	-0.14844504
20	0xbe20d05c	-0.15704483
21	0x3db6bf38	0.08923191
22	0xbe1de5a8	-0.15419638
23	0xbde7dffe	-0.1132202
24	0xbc89a38f	-0.016801624
25	0xbd0a667c	-0.033789143
26	0x3df05143	0.117342494
27	0x3ca27d30	0.019835085
28	0xbe6f4436	-0.23365864
29	0x3d878260	0.06616664
30	0x3e1fd5bf	0.15608881
31	0x3c7e1c73	0.0155097125
32	0x3db0b626	0.08628492
33	0x3c36932e	0.011143489
34	0x3d882c63	0.06649091
35	0xbe5402a1	-0.20704128
36	0x3e106a9c	0.14103168
37	0xbccd270a	-0.02504303
38	0x3e445d28	0.19176161
39	0xbe00f965	-0.12595136
40	0x3d25ffa4	0.040527
41	0x3e50763a	0.203576
42	0xbe2c479b	-0.1682419
43	0xbe310dcd	-0.17290421
44	0xbe6fefe4	-0.23431355
45	0x3c9dd550	0.019266754
46	0xbddd4546	-0.108042285
47	0xbd3ef5de	-0.046621196
48	0xbe563f76	-0.20922646
49	0x3e2ea842	0.17056373
50	0x3e01f374	0.12690526
51	0xbd5e3420	-0.05424893
52	0x3d8d6838	0.06904644
53	0x3dc7da01	0.09758378
54	0x3c5fad7a	0.0136522
55	0x3e0fb5ef	0.14034246
56	0xbe2b97c8	-0.16757119
57	0xbcabb179	-0.020958649
58	0xbdc62750	-0.09675467
59	0x3d74d248	0.059770852
60	0xbd6eaabc	-0.058268294
61	0x3de51fd2	0.1118771
62	0xbe12f020	-0.14349413
63	0xbceb346f	-0.028711526
64	0x3dbe7616	0.09299867
65	0x3e5a6f20	0.21331453
66	0xbe4dbec3	-0.20092301
67	0xbd2588f4	-0.04041381
68	0xbe172b95	-0.14762719
69	0x3cb38c15	0.021917382
70	0xbe1b8dd8	-0.15190828
71	0xbe0529e3	-0.1300426
72	0xbdf25631	-0.11832846
73	0xbccb3cee	-0.024809327
74	0xbde5ae14	-0.112148434
75	0x3d8daca4	0.06917694
76	0x3e74acc8	0.23894036
77	0x3d2a64e0	0.04160011
78	0x3e76cabe	0.24100778
79	0x3de6d31e	0.11270736
80	0xbe2a0f18	-0.1660732
81	0xbc0f02c8	-0.00872869
82	0xbe4a93b0	-0.19782901
83	0x3e0c0c54	0.13676578
84	0xbdcae553	-0.099070214
85	0xbe55fc02	-0.20896915
86	0x3dfbd042	0.122955814
87	0xbd2b1666	-0.041769408
88	0xbc5c9ac5	-0.013464634
89	0xbe83bb0d	-0.25728646
90	0xbb275e33	-0.0025538325
91	0x3d316211	0.043306414
92	0xbe5a1e2e	-0.21300575
93	0x3e3d3810	0.18478417
94	0x3d77e5b0	0.06052178
95	0xbde924cb	-0.11383971
96	0xbe2b3fe9	-0.16723599
97	0x3db79400	0.08963776
98	0xbe2d3c0b	-0.16917436
99	0xbe65fbc1	-0.22459318
100	0x3d2b9f95	0.041900236
101	0xbe43c469	-0.19117893
102	0x3c7a2ae3	0.015269014
103	0xbdecd887	-0.11564737
104	0xbe29d88f	-0.16586517
105	0xbe0eec23	-0.13957267
106	0x3d679d80	0.056546688
107	0x3e13a979	0.14420117
108	0xbe4b046a	-0.19825903
109	0xbe6007c0	-0.21877956
110	0xbe224d18	-0.15849721
111	0xbdb01275	-0.085972704
112	0x3d9978dc	0.07493755
113	0x3d79d928	0.060998112
114	0xbe7bc8d7	-0.24588333
115	0x3c0f6dfc	0.00875425
116	0x3e3d85cd	0.18508072
117	0x3dfa733d	0.12229011
118	0xbe06e72f	-0.13174127
119	0xbdb6f86c	-0.089341015
120	0x3db55c8a	0.08855541
121	0x3e7420da	0.23840657
122	0x3e77a0cf	0.24182437
123	0x3cb19710	0.021678478
124	0xbd93ba8e	-0.07213317
125	0x3df37fc6	0.11889605
126	0x3ca95ee4	0.02067513
127	0xbe0d92fe	-0.13825604
128	0xbd5096f6	-0.050925218
129	0xbd73d414	-0.059528425
130	0x3d67042c	0.056400463
131	0xbe434e95	-0.19072945
132	0xbcc01e98	-0.023452088
133	0xbded4e8c	-0.11587247
134	0x3e5b3b12	0.21409252
135	0xbe166890	-0.14688325
136	0xbd4314e4	-0.047627345
137	0x3d80a7ba	0.06281991
138	0xbd862f84	-0.06552032
139	0x3e232b3b	0.1593446
140	0xbda4cdc5	-0.0804706
141	0x3e50a7ec	0.20376557
142	0xbd0ab447	-0.033863332
143	0xbd0c09db	-0.034189086
144	0x3dfdb72c	0.12388453
145	0xbe7679db	-0.24069922
146	0x3e22b326	0.15888652
147	0x3d83499d	0.06410525
148	0xbdcef066	-0.10104446
149	0xbd5d4688	-0.054022342
150	0xbcc236e9	-0.023707824
151	0xbdfabbd4	-0.122428566
152	0x3d685b13	0.05672748
153	0xbe714624	-0.23561913
154	0xbe5bc0d0	-0.21460271
155	0x3e308834	0.17239457
156	0xbc09f2c0	-0.0084196925
157	0xbe3786ea	-0.1792256
158	0x3dbc2d66	0.091883466
159	0x3c353433	0.011059809
160	0xbe03b550	-0.12862134
161	0xbd28bc70	-0.041195333
162	0x3da8f502	0.082498565
163	0x3e07c5f5	0.13259108
164	0x3e1c4f8c	0.1526472
165	0x3e08c5d3	0.13356714
166	0xbe1251cd	-0.14289017
167	0x3da9e4e3	0.0829561
168	0x3e1cadf6	0.15300736
169	0xbda793d9	-0.081824966
170	0xbcc51654	-0.024058498
171	0xbde5d75d	-0.11222718
172	0xbe1358b2	-0.14389303
173	0xbe5bf0fa	-0.21478644
174	0x3df59aba	0.119924024
175	0x3e3e444e	0.18580744
176	0x3e01a350	0.12659955
177	0x3c69004a	0.01422126
178	0xbe1cb4f6	-0.15303406
179	0x3e4e2126	0.20129833
180	0x3c2151ca	0.00984616
181	0x3d81a32e	0.06329952
182	0x3e3ec1ce	0.18628618
183	0x3da5d040	0.08096361
184	0x3dd5b04b	0.10434016
185	0x3e6c2e82	0.23064616
186	0x3c0f18f5	0.008733978
187	0xbe15b74f	-0.14620708
188	0x3e6211d7	0.22077118
189	0xbe15c8e9	-0.14627422
190	0x3dc20f92	0.09475626
191	0xbe30d462	-0.17268518
192	0x3d551636	0.052023135
193	0x3cd29e0d	0.02571013
194	0xbe60e839	-0.21963586
195	0x3e1ac1d4	0.15113002
196	0x3e71ea66	0.23624572
197	0x3d99a921	0.07502962
198	0xbd407980	-0.04699087
199	0x3d48e168	0.04904309
200	0xbd029ac6	-0.031885885
201	0xbdc5262a	-0.0962642
202	0x3e3cc812	0.18435696
203	0xbdf127b7	-0.11775153
204	0xbda32aa0	-0.079671144
205	0x3e6a081d	0.22854657
206	0xbd9b73ce	-0.07590447
207	0x3e38aca2	0.18034604
208	0xbe51cdef	-0.20488714
209	0xbe5140d5	-0.20434888
210	0xbe2f8880	-0.17141914
211	0x3d36deaa	0.044645943
212	0xbe6f3ee7	-0.23363839
213	0x3da0e2e2	0.078557745
214	0x3e45d09c	0.1931786
215	0xbc9fdefa	-0.019515503
216	0xbd382001	-0.044952396
217	0xbceaf098	-0.028679177
218	0x3e6f78df	0.23385952
219	0xbdf2f275	-0.11862651
220	0x3d81f7f8	0.063461244
221	0x3d99c1cc	0.07507667
222	0xbe1696eb	-0.14706008
223	0xbcba6cf8	-0.022757038
224	0x3c31936f	0.010838374
225	0xbe3e7335	-0.18598635
226	0xbe229b33	-0.15879516
227	0x3e20cce8	0.15703166
228	0x3e182a68	0.14859927
229	0x3e390a06	0.1807023
230	0xbe6516b9	-0.2237195
231	0xbe2f7e52	-0.17138031
232	0x3e297e8f	0.16552185
233	0xbdc40cd9	-0.09572763
234	0xbdf9b8ef	-0.121934764
235	0x3dd13057	0.10214298
236	0x3e2becf1	0.16789605
237	0xbdcb13a8	-0.099158585
238	0xbe654e22	-0.22393087
239	0x3dfcc11f	0.123415224
240	0x3d55fc40	0.052242517
241	0x3e4696a6	0.19393405
242	0xbe48528e	-0.19562742
243	0xbd9c3b66	-0.07628517
244	0xbd9180e2	-0.071046606
245	0x3e36d5c7	0.17854987
246	0xbc09ddab	-0.008414666
247	0x3d8e9596	0.06962125
248	0x3e6d7981	0.23190881
249	0x3e4b1d8e	0.19835493
250	0x3dd07917	0.10179346
251	0x3e4874c9	0.195758
252	0xbe15dcff	-0.14635085
253	0x3e5a461c	0.21315807
254	0x3c8cb9af	0.017178385
255	0x3e638069	0.22216953

fc2.weight f4 [128, 256]
0	0xbd697d7d	-0.05700444
1	0x3d005a99	0.0313364
2	0xbd2e786b	-0.04259531
3	0xbd6cf8ec	-0.057854578
4	0xbd682fd2	-0.05668623
5	0xbcaa2483	-0.020769363
6	0xbd623aba	-0.055231787
7	0x3c1f0d24	0.009707723
8	0xbd603940	-0.054742098
9	0xbcfe8f86	-0.031074297
10	0x3d15353f	0.036427733
11	0xbd331e4d	-0.04373007
12	0x3d2c58e2	0.042076953
13	0x3c848ccb	0.016180417
14	0xbd07996a	-0.03310529
15	0xbd062e3e	-0.032758944
16	0xbbd2b92a	-0.0064307647
17	0xbd4c6964	-0.049905196
18	0xbd2f742c	-0.0428354
19	0x3d6cbf2c	0.057799503
20	0x3d172fc4	0.036910787
21	0x3b6b0c40	0.0035865456
22	0x3b8c0b8c	0.0042738374
23	0xbc8d1842	-0.017223481
24	0xbc6b0393	-0.014344114
25	0x3c1c9dd0	0.00955911
26	0x3c804937	0.015659912
27	0x3d1b9804	0.03798677
28	0x3d77fd16	0.060544096
29	0xbd7f02b4	-0.062258437
30	0xbd626c2c	-0.055278942
31	0xbb236f80	-0.0024938285
32	0xbd4b06fd	-0.04956721
33	0xbd5a565e	-0.053305022
34	0x3cd6424a	0.026154656
35	0xbd708556	-0.05872091
36	0x3cc31c9c	0.023817353
37	0x3bcd5c75	0.0062671253
38	0x3d24fd1b	0.040280443
39	0xbc2b7258	-0.010464273
40	0x3cf64380	0.030061483
41	0x3d650137	0.05590936
42	0x3cf5a2a0	0.029984772
43	0xbd0f573a	-0.034995295
44	0xbd25103c	-0.040298685
45	0x3bdf9c80	0.006824076
46	0xbd771660	-0.060324073
47	0xbd377cbd	-0.044796694
48	0x3d0f62f6	0.035006486
49	0xbbf13d20	-0.007362023
50	0x3d57bf26	0.052672528
51	0xbd2215dc	-0.039571628
52	0x3ce9a130	0.028519243
53	0x3d0f1a25	0.034937043
54	0x3d42994e	0.047509484
55	0xbd80ff34	-0.06298676
56	0xbc878390	-0.016542226
57	0xbd3179e2	-0.043329127
58	0x3cdde2c8	0.027085677
59	0x3b0b10e0	0.0021219775
60	0x3c8c8e3c	0.017157666
61	0xbd971fb9	-0.073790975
62	0xbce4a678	-0.02791141
63	0x3ceaf3fc	0.028680794
64	0xbd27e544	-0.04099013
65	0x3d54321e	0.051805608
66	0xbc8a5386	-0.01688553
67	0x3ca6dfb8	0.02037035
68	0x3d122cf6	0.03568741
69	0x3ccf6b66	0.025319766
70	0xbd47890c	-0.048714682
71	0xbcaad8e1	-0.020855369
72	0x3c774dc9	0.015094229
73	0xbc722d19	-0.01478126
74	0xbd27c336	-0.040957652
75	0xbd235df0	-0.039884508
76	0xbc602950	-0.013681725
77	0xbd7d35a0	-0.06181872
78	0x3d597e8f	0.05309921
79	0x3d115f92	0.035491534
80	0xbcd94589	-0.026522415
81	0x3d34d30d	0.044146586
82	0x3bb647f0	0.005562775
83	0xbb8f3ace	-0.0043710237
84	0x3d02ee86	0.031965755
85	0x3d3bb9e6	0.045831583
86	0x3d3dbaad	0.046320606
87	0x3d17df94	0.037078455
88	0x3c9521da	0.018204618
89	0x3d26da51	0.040735546
90	0x3d40a050	0.047027886
91	0x3cf4e84a	0.02989592
92	0x3c6863f7	0.01418399
93	0x3d5cc391	0.053897444
94	0x3cf5c81c	0.030002646
95	0xbd6158d2	-0.055016346
96	0x3d628ea4	0.055311814
97	0x3ce06b95	0.02739505
98	0xbd68833a	-0.056765772
99	0x3cc79300	0.024362087
100	0xba349380	-0.0006888434
101	0x3c3494d3	0.011021811
102	0x3c9ccf46	0.019141804
103	0x3d15bc1e	0.036556356
104	0x3d0b4939	0.034005377
105	0x3d398bda	0.04529939
106	0x3d05de29	0.03268257
107	0x3d2465c0	0.0401361
108	0x3c9ecb64	0.019384094
109	0x3d541f63	0.051787745
110	0x3d470265	0.048586268
111	0x3c911419	0.017709779
112	0xbcb2b0ce	-0.021812823
113	0xbca51260	-0.020150363
114	0xbc54b248	-0.012981959
115	0x3d5cfb72	0.053950734
116	0x3b621fda	0.0034503848
117	0x3d5385d3	0.051641297
118	0xbcc4284a	-0.023944993
119	0xbcf91c70	-0.030409068
120	0xbd3100d1	-0.04321367
121	0xbd616e50	-0.055036843
122	0xbbbbbafe	-0.0057290783
123	0xbbadf3d0	-0.0053086057
124	0xbd07c27b	-0.033144455
125	0xbca3be60	-0.019988239
126	0xbd5ec9b8	-0.054391593
127	0xbd4f086a	-0.050545134
128	0x3d10b82d	0.035331894
129	0x3d113cca	0.035458364
130	0x3d76941f	0.060199853
131	0xbcc4d118	-0.024025485
132	0xbd0215f8	-0.031759232
133	0x3d074ce6	0.03303232
134	0x3b0d2a48	0.0021540094
135	0x3c2ce570	0.010552749
136	0xbd864d9a	-0.0655777
137	0xbc6c2bbc	-0.014414724
138	0xbd0af481	-0.033924583
139	0x3cfc40cb	0.030792614
140	0x3c17398a	0.009230027
141	0xbd3e6d35	-0.046490867
142	0x3d437e52	0.04772789
143	0x3d2cfad6	0.042231403
144	0xbb7f00eb	-0.003891046
145	0x3b43b503	0.002986253
146	0xbd28e91a	-0.041237928
147	0xbd7fcba0	-0.06245005
148	0xbd6be7c6	-0.057594083
149	0x3d426b26	0.047465466
150	0x3d3261c4	0.043550268
151	0xbcca77fb	-0.024715414
152	0xbc8c447c	-0.0171225
153	0xbd238ef6	-0.03993126
154	0xbd7a94f6	-0.061177216
155	0xbcdb5510	-0.02677396
156	0x3cfb3f18	0.030669734
157	0xbd5ad6f3	-0.053427648
158	0xbd67d64f	-0.056600865
159	0x3d5e38ed	0.054253507
160	0xbce49a44	-0.02790559
161	0xbbaf9060	-0.005357787
162	0x3cd3caba	0.025853503
163	0xbd77e931	-0.060525123
164	0xbd596ee4	-0.05308427
165	0xbc7b89bc	-0.015352663
166	0xbd340e55	-0.04395898
167	0x3d4ec154	0.05047734
168	0xbd38b004	-0.045089737
169	0xbc0c95f3	-0.008580673
170	0xbb2fc96f	-0.0026822945
171	0x3cc09761	0.023509683
172	0x3ce54c91	0.027990611
173	0xbd787f45	-0.06066825
174	0x3d10e17f	0.0353713
175	0xbd74a3b8	-0.059726447
176	0x3d5e9750	0.05434352
177	0xbc96b76b	-0.018398007
178	0xbca22612	-0.019793544
179	0x3d2e7f60	0.042601943
180	0xbd329aa3	-0.043604504
181	0xbc475a4f	-0.012167527
182	0x3d68ebce	0.056865506
183	0x3d1bff5a	0.03808532
184	0xbd3de384	-0.046359554
185	0x39a8ebc1	0.00032219107
186	0xbbec2341	-0.007206351
187	0xbced709e	-0.028984364
188	0xbd1fa5e0	-0.03897655
189	0xbd2f39d1	-0.042779747
190	0x3cb2121c	0.02173715
191	0x3cc17aed	0.023618186
192	0x3d16af48	0.036788255
193	0x3d7c08f0	0.06153196
194	0x3d43a0fe	0.047760956
195	0xbd54b889	-0.0519338
196	0xbc3d35d8	-0.011548482
197	0xbd5e2634	-0.054235652
198	0x3d39f4da	0.045399524
199	0xbcfc2e3c	-0.030783765
200	0x3d1ede2a	0.03878609
201	0xbd59bb54	-0.053157166
202	0xbc448a68	-0.011995889
203	0xbca33b20	-0.019925654
204	0xbd5a3659	-0.053274486
205	0xbd5cbe34	-0.05389233
206	0xbc9c09ec	-0.0190477
207	0xbd7c40d9	-0.06158528
208	0xbd80f486	-0.06296639
209	0xbd1a91de	-0.037736766
210	0xbcd4f118	-0.025993869
211	0xbc68e638	-0.014215045
212	0x3d258802	0.04041291
213	0xbc4f0eea	-0.012637833
214	0x3cedecb4	0.029043533
215	0xbcf0b3a7	-0.02938254
216	0xbd6663ae	-0.056247406
217	0xbd62424a	-0.055239
218	0x3d409c07	0.0470238
219	0xbca4c190	-0.020111829
220	0xbc0450f0	-0.008075938
221	0x3a17aa29	0.0005785549
222	0x3d7723bc	0.060336813
223	0x3c18b600	0.009320736
224	0x3cc29781	0.023753883
225	0xb8bd748a	-9.0339294e-05
226	0xbd538b0e	-0.051646285
227	0xbbd5a751	-0.00652019
228	0xbc57d554	-0.01317342
229	0x3aecc1c8	0.0018063122
230	0xbd4145e8	-0.04718581
231	0xbcc3227f	-0.02382016
232	0x3d217b8e	0.03942447
233	0x3d0dbada	0.034602024
234	0x3d4a45fe	0.049383156
235	0xbd45c4ae	-0.04828327
236	0xbd65dadd	-0.056116927
237	0x3d639f5a	0.05557189
238	0xbca3d7f2	-0.020000432
239	0xbbbba310	-0.0057262257
240	0xbc502880	-0.012704968
241	0x3d30998d	0.043115187
242	0xbd5b03a7	-0.05347028
243	0xbd50f4c0	-0.05101466
244	0x3c516bdf	0.012782066
245	0x3d5a97a5	0.053367276
246	0xba0b131d	-0.00053052773
247	0xbd666200	-0.056245804
248	0x38ca68d6	9.651638e-05
249	0x3d257036	0.040390216
250	0xbcb37f93	-0.021911418
251	0x3bb49bbc	0.005511729
252	0xbd56fffb	-0.052490216
253	0xbd510e1c	-0.051038846
254	0xbb6df7e8	-0.0036311094
255	0x3d30ff84	0.04321243

fc2.bias f4 [128]
0	0x3c84ad7e	0.016196009
1	0x3d2f862a	0.04285256
2	0xbd08cc8c	-0.033398196
3	0xbd050d8b	-0.03248362
4	0xbcc8b70e	-0.02450135
5	0x3cae6e38	0.02129279
6	0x3d5e55d6	0.05428108
7	0x3d7b560b	0.061361354
8	0xbd55e0d5	-0.05221637
9	0x3cc2e539	0.023790943
10	0x3c98aa96	0.01863603
11	0x3c3bd562	0.011464449
12	0xbd180aca	-0.037119664
13	0xbc390935	-0.011293699
14	0xbcc5fad4	-0.024167456
15	0x3d12f5f4	0.03587909
16	0xbd0e9a00	-0.034814835
17	0x3d1f9f6c	0.038970396
18	0x3d4c1b6d	0.049830843
19	0x3d20679b	0.039161306
20	0x3d5d155a	0.05397544
21	0xbc17b0b3	-0.009258437
22	0xbcd41777	-0.025890095
23	0x3d6ca4cb	0.057774346
24	0xbd52da22	-0.05147756
25	0x3cbb0465	0.022829244
26	0x3d5580a2	0.052124627
27	0xbb34203a	-0.002748503
28	0x3d76c442	0.06024576
29	0x3c924533	0.017855262
30	0xbd477348	-0.048693925
31	0xbc79f398	-0.015255831
32	0x3d47fc08	0.04882434
33	0xbcf4e3ae	-0.029893722
34	0xbcdb0311	-0.02673486
35	0xbb6ffc2f	-0.003661882
36	0x3d2b9583	0.041890632
37	0xbb5267bd	-0.003210529
38	0x3d698304	0.05700971
39	0xbb28060d	-0.0025638372
40	0x3d36b0be	0.04460215
41	0xbd11e1be	-0.035615675
42	0xbd5c8ab6	-0.053843223
43	0x3bd8b5cb	0.0066134683
44	0x3d74705d	0.05967747
45	0x3d61244a	0.05496625
46	0x3cf1f64c	0.029536389
47	0xbd3c9cf0	-0.046048105
48	0x3d3e1f7a	0.046416737
49	0xba026100	-0.00049735606
50	0x3d5c8809	0.05384067
51	0xbcdd3dcf	-0.027007012
52	0x3d332c44	0.043743387
53	0x3d04d350	0.032428086
54	0x3ce17bc8	0.027524844
55	0x3c6a015a	0.014282549
56	0xbd7e2d7e	-0.062055103
57	0x3d6bf2da	0.05760465
58	0xbd16f8f4	-0.036858514
59	0x3d2601bb	0.040528994
60	0xbcc1f1fd	-0.02367496
61	0xbc9c0231	-0.019044014
62	0xbd03111f	-0.03199875
63	0x3d3055e9	0.04305068
64	0xbb5e0f80	-0.003388375
65	0x3c2d6204	0.010582451
66	0x3999ddb5	0.0002934762
67	0xbcfaefb0	-0.03063187
68	0x3d3d29c5	0.046182413
69	0x3c2beebf	0.010493933
70	0x3d668c6a	0.056286253
71	0x3cf5287f	0.029926537
72	0x3cc4ec6e	0.02403852
73	0xbd6a3d0a	-0.057187118
74	0x3d487889	0.048943076
75	0xbd60bff9	-0.05487058
76	0xbd447ebf	-0.047972437
77	0x3d26f4aa	0.040760674
78	0xbc52057b	-0.012818689
79	0x3cd574f2	0.02605674
80	0xbd332c07	-0.04374316
81	0xbd657aa0	-0.056025147
82	0xbc03fea4	-0.0080563165
83	0x3cea82b8	0.028626785
84	0xbd070b0c	-0.03296952
85	0xbd5f176e	-0.054465704
86	0xbb8cb0da	-0.0042935433
87	0xbd54ddd5	-0.051969368
88	0x3d271f7c	0.04080151
89	0x3c8617c4	0.016368754
90	0xbd1ee19a	-0.03878937
91	0x3c0b2e88	0.008494981
92	0xbd766739	-0.060157035
93	0xbd52d5d9	-0.051473472
94	0xbcfd3db2	-0.030913208
95	0xbcdb0971	-0.0267379
96	0x3ce5ab43	0.028035766
97	0x3d659d81	0.05605841
98	0xbcba0f82	-0.022712473
99	0xbd1e7356	-0.03868421
100	0xbc82fe2e	-0.015990343
101	0xbd0cb843	-0.034355413
102	0x3d49dc0c	0.04928212
103	0xbbc49893	-0.0059996336
104	0xbd0ea6bd	-0.034826983
105	0x3d4a6818	0.049415678
106	0xbce0c84b	-0.027439257
107	0xbd60b04b	-0.054855626
108	0x3cc3eee3	0.023917621
109	0x3c726850	0.014795378
110	0x3cf5b064	0.029991336
111	0x3c87b0e6	0.016563844
112	0x3cfefdb4	0.031126834
113	0x3c16b099	0.009197378
114	0x3cb11d9f	0.02162057
115	0x3cb722a3	0.022355383
116	0xbd16cec4	-0.03681828
117	0xbd30ba84	-0.043146625
118	0xbd52fbaa	-0.051509537
119	0x3c124420	0.008927375
120	0xbd567922	-0.052361615
121	0xbd08aed2	-0.033369847
122	0x3d136626	0.03598609
123	0x3c2fcfd8	0.010730706
124	0xbc80c82f	-0.015720455
125	0xbd2ab936	-0.041680537
126	0xbc9dec40	-0.019277692
127	0x3d30a400	0.043125153

value.weight f4 [1, 128]
0	0xbc130879	-0.008974188
1	0x3d198696	0.037481867
2	0x3d9d82db	0.07690974
3	0xbb4b5d70	-0.0031031035
4	0x3d4c2bdc	0.049846515
5	0xbd2c42a6	-0.04205575
6	0x3d253fcf	0.040344056
7	0x3d84daa6	0.064870164
8	0xbd6ebc18	-0.05828485
9	0x3d41fa1f	0.047357675
10	0xbd314bb4	-0.043285087
11	0x3d660917	0.056161013
12	0xbd592386	-0.053012393
13	0xbd839d72	-0.06426515
14	0x3b5b92c0	0.0033504218
15	0x3c8ec498	0.017427728
16	0xbd96bac6	-0.07359843
17	0x3d14a1f4	0.036287263
18	0xbd94fd3e	-0.072748646
19	0xbd07c9a6	-0.03315129
20	0xbda809eb	-0.08205017
21	0x3d71f5ed	0.059072424
22	0xbd4f8179	-0.050660584
23	0x3c4e6906	0.012598282
24	0xbd6971a6	-0.05699315
25	0xbd7f8077	-0.062378373
26	0x3d46081b	0.048347574
27	0x3d4cc898	0.04999599
28	0xbcbc6094	-0.02299527
29	0xbc59dab1	-0.013296769
30	0xb955522e	-0.00020343877
31	0xbd890d9b	-0.06692048
32	0xbcbb8004	-0.022888191
33	0x3d0a5b3d	0.033778418
34	0x3c55f69b	0.013059284
35	0x3b001ea1	0.0019549506
36	0xb7bdced0	-2.262686e-05
37	0xbd314671	-0.04328007
38	0x3d036523	0.032078873
39	0x3d87bd46	0.06627898
40	0xbcc6af7b	-0.024253597
41	0x3d8daaf7	0.069173746
42	0x3d039610	0.032125533
43	0x3d5fc93d	0.054635275
44	0xbd777339	-0.06041262
45	0xbc6be175	-0.014397015
46	0x3d9a6a4a	0.07539804
47	0x3d8b00c9	0.06787259
48	0x3b717e20	0.0036848858
49	0x3b521620	0.0032056645
50	0x3d95cb15	0.073141254
51	0xbc8092ae	-0.015694942
52	0x3d3a4506	0.045475982
53	0x39a89700	0.0003215596
54	0xbda4560f	-0.08024227
55	0xbbbe6ef7	-0.005811568
56	0x3d4bd4a1	0.049763326
57	0x3b269499	0.002541816
58	0x3a6e3272	0.00090864964
59	0x3da9a225	0.0828288
60	0x3d8d3883	0.068955444
61	0xbd3c4a2f	-0.045969184
62	0x3cd7dcce	0.026350405
63	0xbd97d5f9	-0.07413859
64	0x3c074fa1	0.008258731
65	0xbd75ef30	-0.06004256
66	0x3a65972b	0.00087581825
67	0x3d96d26b	0.07364353
68	0x3ca80620	0.020510733
69	0x3d8b3a89	0.06798274
70	0x3cdbb324	0.02681882
71	0x3d928a66	0.07155304
72	0xbd69ebc2	-0.0571096
73	0xbc0d4247	-0.008621759
74	0x3b24e0d0	0.0025158413
75	0xbd093119	-0.03349409
76	0x3bbf634a	0.0058406936
77	0x3bd4a491	0.0064893444
78	0x3c6d5278	0.014484994
79	0xbd14116a	-0.03614942
80	0xbd143ed6	-0.036192738
81	0xbbc8c410	-0.006126888
82	0x3d00b52b	0.031422775
83	0x3d84a4a5	0.06476716
84	0xbdaafe0d	-0.083492376
85	0xbceb4ce6	-0.028723191
86	0xbd352b3d	-0.04423069
87	0x3d535d36	0.051602565
88	0x3d589156	0.05287298
89	0xbd41db18	-0.047328085
90	0x3d92c264	0.07165983
91	0xbcbaeec1	-0.022818925
92	0x3d84396a	0.06456263
93	0x3d7c511f	0.0616008
94	0x3d1e2c89	0.03861669
95	0x3c8f53b3	0.017495966
96	0xbd96427f	-0.07336902
97	0xbd83152c	-0.064005226
98	0x3c5fb98f	0.01365508
99	0xbd422464	-0.047397986
100	0x3d0a8764	0.033820525
101	0xbc5aff53	-0.013366538
102	0x3da91ccb	0.08257445
103	0x3d16373e	0.036673777
104	0x3c91318d	0.017723823
105	0xbd67855d	-0.05652367
106	0x3c22388d	0.009901178
107	0x3d4e736d	0.050403047
108	0x3cd20824	0.025638647
109	0x3d5ba7ca	0.053626813
110	0x3d8498bf	0.064744465
111	0xbcb59bec	-0.022169076
112	0x3c9edf00	0.019393444
113	0xbd190080	-0.037353992
114	0xbc74bbe9	-0.014937379
115	0xbd4452f6	-0.04793068
116	0x3cdca284	0.026932962
117	0x3d4032a6	0.046923302
118	0xbcbaf09d	-0.022819811
119	0x3d7ad1c6	0.06123521
120	0x3cf3bc41	0.029752852
121	0xbd68261d	-0.056676973
122	0xbc8d4198	-0.017243192
123	0xbbb2b77b	-0.0054540015
124	0xbcf46c39	-0.02983676
125	0x3d90365f	0.070416205
126	0x3bce7f5b	0.006301803
127	0x3cc75dde	0.024336752
