kinova-ros/kinova_scripts/src/runs/jaco2_ppo_20240708-113131/best_model_episode_100_20240708-113131/actor_20240708-113131.pth (torch, 256442 bytes, 11 tensors)

log_std f4 [7]
000000 49 fd 1d 3c 26 ad 9f bc c3 ab 92 3a 8d fc f7 bb
       0.009642907 -0.019491743 0.0011190105 -0.007567948
000010 60 44 37 bc f9 92 92 bb 6f 0f 3a bc
       -0.011185735 -0.004473087 -0.011356219

fc1.weight f4 [256, 17]
000000 1c f0 ff 3d 00 3d db bd 48 96 40 bd 40 24 e9 3d
       0.12496969 -0.10704994 -0.04701832 0.11383867
000010 dc cf 69 be 94 f1 14 3e 74 5f 4c bd 1c b3 fc 3d
       -0.22833198 0.1454528 -0.04989572 0.1233885
000020 60 1a 0a 3d 48 47 f3 bc cc c4 89 3d a0 07 44 3c
       0.03371656 -0.029697075 0.06726989 0.011964709
000030 e0 69 b5 3d ce 91 c1 bd e0 db 90 bc f8 de b2 bc
       0.08858085 -0.09451638 -0.01768297 -0.021834835
000040 b8 fd 0f 3d de 9a ef 39 eb 1a 5a 3e cb 1b 9d 3d
       0.035154074 0.00045701017 0.21299331 0.07671317
000050 13 0d b6 bd b2 82 14 be b0 7c 22 bd 1d 69 d9 bd
       -0.088892125 -0.14502981 -0.039669693 -0.10615752
000060 36 c5 90 bd a5 1e f5 3b 9c 1c 16 3e f4 cf f5 3d
       -0.07068865 0.0074804598 0.14659351 0.120025545
000070 2b 0b 75 be b1 ee 17 3e 31 b7 90 3d 0b fb 68 3e
       -0.23930041 0.14837147 0.07066191 0.22752015
000080 58 9f 28 3e 19 57 64 be fc 7c 6b be 9e 36 ed bd
       0.16467035 -0.2229885 -0.22996897 -0.11582683
000090 f4 e2 59 3e 8a 4e 23 bd ff 77 d4 3d 73 ba e5 bd
       0.21277982 -0.039869823 0.1037445 -0.11217203
0000a0 48 e0 70 3e 45 c3 e7 bd 4f d9 39 3e bd de a7 b9
       0.23523057 -0.113165416 0.18149303 -0.00032018675
0000b0 70 24 00 be a4 e9 fa 3d 7c 22 f3 bd 2f e4 96 3d
       -0.125139 0.12251595 -0.11871812 0.07367741
0000c0 e9 4a 94 bd 58 6a c5 bc 5f 12 72 be 4c 7e ee bd
       -0.072408505 -0.02409856 -0.2363982 -0.11645183
0000d0 ed d5 05 3e 4b 01 75 bd e2 73 76 3e a1 1e 46 3e
       0.13069887 -0.059815686 0.24067643 0.19347622
0000e0 7a cf 48 bc 63 9e 23 be cc 4c 08 3e 60 68 a4 3d
       -0.0122564975 -0.15978388 0.13310546 0.080277205
0000f0 45 cd 19 be c8 96 32 3e f0 7e 21 3e 1d ed 62 3e
       -0.1501971 0.17440331 0.15771079 0.22160764
000100 07 51 0e be e2 1f 1a bd dd 52 64 3c 86 a0 fe 3c
       -0.13898097 -0.037628062 0.013935772 0.031082403
000110 89 81 41 be 1d 34 34 be 32 b5 02 3e 91 21 7c bd
       -0.1889707 -0.17598005 0.12764433 -0.06155545
000120 f0 66 e9 3d fe cf 15 3c 29 fb 9a 3d ce f3 27 3d
       0.11396587 0.0091438275 0.07567436 0.041003995
000130 a4 9f ac 3d be fd f0 3d 4c 30 6a be 2d c5 f0 3d
       0.084288865 0.117671475 -0.22869986 0.11756358
000140 ac 40 23 be b8 ee 35 be 39 88 04 3c a3 70 12 bd
       -0.15942639 -0.17766845 0.008089119 -0.03575195
000150 06 41 0c 3e 6a 57 0d be ce ae 5a be 31 85 36 3e
       0.1369668 -0.13802877 -0.21355745 0.17824246
000160 f0 3d 09 bd c7 b9 0d 3e a2 b8 a4 3d d6 7d 3e be
       -0.033506334 0.138404 0.080430284 -0.1860269
000170 a3 ae 4d 3d ad bb 83 3d 09 6f 22 be 56 0e ed bd
       0.050215375 0.06432281 -0.15862669 -0.11575
000180 65 c1 93 3d 4d 49 05 3d 6c 2f d1 bd 51 e2 94 bd
       0.072146215 0.03254061 -0.10214123 -0.07269729
000190 a9 8a 74 3e cc 14 1f bd b9 1c 0d 3e c3 dd d9 3d
       0.2388102 -0.038838193 0.13780488 0.10638001
0001a0 39 ab 1e be e9 e9 51 be 77 f6 6f 3e 66 7d 6b 3c
       -0.15495004 -0.20499386 0.23433863 0.014373159
0001b0 2a ff 2a 3e 5b f3 24 3d 4e 70 b1 3d 59 f8 3c 3e
       0.166989 0.040271144 0.086639985 0.18454112
0001c0 16 40 73 3e 3f b0 21 be 95 ac f7 3c 4c b6 36 3e
       0.23754916 -0.15789889 0.03023366 0.17842978
0001d0 79 45 37 3e ab 2f 28 3e 02 5e 2e be 57 7d 35 be
       0.17897595 0.16424434 -0.17028049 -0.17723595
0001e0 6e 76 18 be 83 f5 e4 3c 1b e5 74 3e 23 87 1f be
       -0.14888927 0.0279491 0.23915522 -0.15578894
0001f0 a2 ca 01 3e a1 33 03 be c1 32 60 be 5d b4 63 bd
       0.12674955 -0.12812664 -0.21894361 -0.05559193
000200 fe 6c 08 3e 83 4a 62 3e b4 88 1a be b9 40 55 3d
       0.13322827 0.22098736 -0.1509121 0.052063677
000210 f4 20 54 3e 31 1b 26 3e 0b 9d 24 3e e7 45 23 3e
       0.20715696 0.1622131 0.16075532 0.15944634
000220 5d 65 24 3e a0 6f 8d 3d 2d b0 22 be 4d ab 49 be
       0.16054292 0.069060564 -0.15887518 -0.19694252
000230 d6 71 d5 bd 15 6c b9 bc 3a 3b 20 be ca 90 c0 3d
       -0.10422103 -0.022634545 -0.15647593 0.09402616
000240 9f 53 9f 3d 70 44 3d bd 43 fe be 3d 11 6d 9a 3d
       0.07779621 -0.046207845 0.0932584 0.07540334
000250 5a 92 13 3e e6 cb 2e 3e 94 c0 a9 bd d7 7f 70 3e
       0.14411297 0.17069969 -0.082886845 0.23486267
000260 c9 05 9d bc 40 85 08 bc 32 6b 6a be a4 d8 1f be
       -0.019167798 -0.0083325505 -0.22892454 -0.15609986
000270 3a 17 11 be 9c 74 d4 bd ea 92 30 3e fe 50 a2 bd
       -0.14169016 -0.10373804 0.17243543 -0.07925604
000280 96 97 39 be 38 1c bf 3d 48 08 9f 3d b0 db 20 3e
       -0.18124232 0.09331554 0.077652514 0.15708804
000290 7e 84 00 be c0 63 57 3d 24 d4 b4 bd 9c 32 5f bd
       -0.12550542 0.052585363 -0.08829525 -0.054491624
0002a0 7b eb 45 be e2 61 e2 bd 0f 48 9e bd 5b 40 ce 3d
       -0.1932811 -0.11053826 -0.07728588 0.100708686
0002b0 94 ff 25 3d 14 ab 68 3d d2 eb 73 3e 6f 81 6f 3e
       0.04052694 0.056803778 0.23820427 0.23389219
0002c0 95 b6 2c 3e 68 b7 a1 3c 30 9e 2d be 30 fa 3b 3e
       0.16866525 0.019740775 -0.16954875 0.18357158
0002d0 45 05 90 bd 63 23 7e bc 1b 0c 51 be e0 8b 5a bd
       -0.07032255 -0.015511367 -0.20414774 -0.05335605
0002e0 c8 48 17 be 74 57 5f 3e ea 86 55 be ef 96 41 be
       -0.14773858 0.21810704 -0.20852247 -0.18905233
0002f0 a0 ee 06 bc 4a 4a 06 be cc ba b1 3d 92 32 bf bd
       -0.008235604 -0.13114277 0.08678207 -0.093358174
000300 c6 4c e9 bd a0 0f 61 3c e4 c8 33 3e 29 b3 2e be
       -0.113915965 0.013736635 0.17557102 -0.17060532
000310 70 42 e9 3d f2 8d 1f 3e 0e f1 72 3e 16 d5 2d be
       0.11389625 0.15581492 0.23724768 -0.16975817
000320 00 99 70 3d 36 a4 37 be ce 08 54 3e 98 ad c0 bd
       0.058739662 -0.17933735 0.20706484 -0.094081104
000330 4f fc 1d 3e 6e 93 7e 3c 8c 29 30 bc 25 fd f6 38
       0.1542828 0.01553808 -0.010752093 0.00011777346
000340 01 de 48 3d bf 3b fa 3d 95 84 0a 3d a5 b9 62 3d
       0.049039844 0.12218427 0.033817846 0.055352826
000350 f4 bc 59 be 77 ac 53 3e 02 6a 70 3e 0c a6 67 3e
       -0.21263486 0.20671259 0.23477939 0.22621936
000360 a0 21 28 3e a7 a9 2a be fe fc b4 bd f5 8e 59 3e
       0.16419077 -0.1666628 -0.08837317 0.2124594
000370 1b fb 30 be 74 50 61 3e d6 54 43 be c6 f1 2e be
       -0.17283289 0.22003347 -0.19075331 -0.17084417
000380 00 d5 f2 3d 00 71 32 be 38 98 63 bd 64 ad 34 3e
       0.11857033 -0.17425919 -0.05556509 0.17644268
000390 6c b8 44 3e 72 e2 6a 3e 5c 95 49 bd aa 09 41 be
       0.19210976 0.22937945 -0.049214706 -0.18851343
0003a0 d4 88 74 3e 30 a0 53 bd 7a 5d cc bd d8 2b 72 3d
       0.23880321 -0.05166644 -0.09978767 0.059123844
0003b0 88 ae 2d be 64 3d 23 3e 98 f1 1c 3e 23 f7 43 be
       -0.1696111 0.15941387 0.15326536 -0.19137244
0003c0 23 b6 4a be c5 f3 a1 bc 48 83 d3 3d c8 ba b5 bb
       -0.19796042 -0.019769559 0.10327774 -0.0055459477
0003d0 85 71 02 be 9a c4 1e 3c 04 ac 75 be 3b b1 3a be
       -0.12738617 0.009690428 -0.239914 -0.1823167
0003e0 74 2b 21 be f0 3c 3f 3e 03 a7 54 3e b3 2e ab bd
       -0.15739232 0.1867559 0.20766835 -0.083585165
0003f0 4b 52 62 3b ae 54 d2 3d 91 e5 1b 3d 4a 26 01 be
       0.0034533914 0.102700576 0.03806073 -0.12612262

fc1.bias f4 [256]
000000 b2 3d 0c 3e 14 35 a1 bb 8e 4f 9f 3d 35 a2 8c bd
       0.1369541 -0.0049196575 0.07778846 -0.06866876
000010 36 e2 32 be 5a 8d 27 3e fc 3f 23 bd 49 38 37 3e
       -0.17469105 0.16362515 -0.039855942 0.17892565
000020 69 82 72 bd f8 51 52 bd 62 04 71 bd 10 9d 0e be
       -0.0592064 -0.051347703 -0.05884207 -0.13927102
000030 0c 58 62 3d 68 4c 7a 3d de e9 c3 bd f5 0f 1d be
       0.05525975 0.061108023 -0.09566091 -0.15338118
000040 9a 2e 44 3e 2b ad 75 bc 7b 5c 1b 3d cc af 10 be
       0.19158402 -0.0149949 0.037929993 -0.14129561
000050 14 76 31 3e cc aa 4c 3e 8d 4d 4d 3d ad 1b 55 3e
       0.173302 0.19987029 0.050122786 0.20811339
000060 d9 e1 0d 3e 23 17 3d 3e f7 c5 00 be b6 fa b1 bd
       0.13855685 0.18465857 -0.12575518 -0.086903974
000070 3a db 35 bd d7 fb ff bd 23 f1 ec 3d b9 89 0c be
       -0.044398524 -0.124992065 0.11569431 -0.13724412
000080 34 17 a9 3d 16 58 05 3e 0f aa 43 bd 28 49 58 3e
       0.08256379 0.13021883 -0.047769602 0.21121657
000090 08 69 ed bd e8 bb d7 3d fc 83 28 3e 3d fa 15 be
       -0.11592299 0.10533887 0.16456598 -0.1464624
0000a0 53 3f 9e ba f0 b4 43 3e 70 83 50 be 6a 16 02 be
       -0.0012073315 0.19111991 -0.2036264 -0.12703863
0000b0 27 25 74 be 91 76 26 3e ba b2 27 3e 0c ab 11 3d
       -0.23842297 0.16256167 0.16376773 0.035563514
0000c0 26 06 25 3d a1 42 6f be 06 7f e5 3d e0 5f e6 bd
       0.040289067 -0.2336526 0.112058684 -0.112487555
0000d0 d7 b2 f7 3d 39 b7 1f be 30 69 28 be f4 a1 2f 3e
       0.12094658 -0.15597238 -0.16446376 0.17151624
0000e0 dc 41 8b 3d bb 1e a5 bd 15 b2 29 be 3b c2 5a be
       0.06799671 -0.08062502 -0.16571839 -0.21363156
0000f0 de 1d 2b 3e 46 60 c2 bd d8 16 57 3d ba de 11 3e
       0.16710612 -0.09491019 0.05251202 0.1424512
000100 15 e3 5d bd 0e 76 e3 bd 8c be 06 be 7d 4a 97 3c
       -0.05417164 -0.111065015 -0.13158625 0.018468136
000110 48 6f d4 bc b9 14 14 bb 6c d9 83 3d db 9f 5e be
       -0.02593197 -0.002259536 0.06437954 -0.21740668
000120 70 af ff 3d d4 ca 1c bd 83 19 59 be 00 cb b3 bd
       0.12484634 -0.03827937 -0.21201138 -0.087789536
000130 55 43 b8 3b c8 a9 58 3e df 6e 6d 3e f2 67 ba bd
       0.005623261 0.21158516 0.23186825 -0.09101857
000140 27 57 2a be 26 7e 44 3e 50 39 49 3e 36 eb 0f 3e
       -0.16634808 0.19188747 0.19650769 0.1405457
000150 30 f2 6b be d1 25 32 3d 38 a8 60 3d 88 c2 94 3d
       -0.23041606 0.043493096 0.054847926 0.072636664
000160 84 3d 2b be 44 9f 99 3c 50 ff c3 bd 2d 3f 16 3e
       -0.16722685 0.018752702 -0.09570181 0.14672537
000170 b8 d2 22 be 0b 2d 50 3e b0 cd 88 3d 40 df 70 3d
       -0.15900695 0.20329683 0.06679857 0.058806658
000180 80 35 e7 bd ee 0f 92 bc d8 3b 77 3d 7a 87 3c be
       -0.11289501 -0.017829861 0.060359806 -0.18411055
000190 47 db 0b 3d 47 ed fe 3d 96 f7 b5 3d 04 10 50 3e
       0.034144666 0.12447601 0.08885114 0.2031861
0001a0 4a 6c 01 be 1d 4b 77 be 12 51 c2 bd 6a ce 10 be
       -0.12638965 -0.24149747 -0.09488119 -0.1414124
0001b0 42 f0 08 3e 2a 54 90 3d fa 7d 6c be 9b 44 2f be
       0.13372901 0.07047303 -0.23094931 -0.17116015
0001c0 ea 85 5f be fc af a2 3d 50 05 7a 3d 37 c7 8c 3c
       -0.21828428 0.079437226 0.061040223 0.017184837
0001d0 cc d8 84 bd 8f d1 4f 3e 13 bf 3c 3e ab 72 60 be
       -0.06486663 0.20294784 0.18432264 -0.21918742
0001e0 a2 ad 1c be 60 95 8a 3d 40 87 25 be 24 21 10 3d
       -0.1530061 0.06766772 -0.16164875 0.035187855
0001f0 2f 3a 35 3d 13 4f 3d be 72 f9 2b 3e 68 78 22 be
       0.04424494 -0.18487196 0.16794375 -0.15866244
000200 ca 0d 1b be 79 47 02 bd e6 d9 e6 bd a4 31 e1 3c
       -0.15141979 -0.031806443 -0.112720296 0.02748949
000210 c7 4a 1e be f8 49 1b 3e 42 57 68 be 42 e7 9e bd
       -0.15458213 0.15164936 -0.22689536 -0.07758953
000220 e8 8d 80 3d 40 7a 92 3d 4f f7 f8 3d c9 65 8c bd
       0.062770665 0.071522236 0.12156545 -0.068553515
000230 62 26 3e 3d 4e ee 52 be 3c 9c a2 bd 35 d3 83 3b
       0.046423323 -0.20598719 -0.079399556 0.0040229806
000240 bf ae 61 be 76 3c 09 be ed 59 7d 3d 5c b7 59 be
       -0.22039317 -0.1340197 0.061853338 -0.21261352
000250 df 6e 34 3e 66 95 ee bd 6c b3 c5 bd 67 0e 0f 3e
       0.17620419 -0.11649589 -0.09653363 0.13970338
000260 86 4b 99 bd d1 65 84 3d fc b2 59 3e f9 68 46 3e
       -0.07485108 0.064647324 0.21259683 0.19375981
000270 a4 dc 48 3e 94 4c 55 be cb 1b 64 3e 4c f0 9d 3d
       0.19615418 -0.20829993 0.22276227 0.077118486
000280 69 b5 a3 3d 25 dd 8a bd 49 7e 13 be 91 08 3c be
       0.079935856 -0.06780461 -0.14403643 -0.18362643
000290 7a 1d 80 3c d1 f8 3f be be dd 70 be da 8c 32 3e
       0.015639056 -0.1874726 -0.23522088 0.17436543
0002a0 0f 76 c1 bd e4 52 52 be ac 7f 79 be c0 38 50 3d
       -0.09446346 -0.20539433 -0.24365109 0.05083537
0002b0 e6 73 26 be a6 a1 95 bd 60 50 1d be 7f ca e0 bd
       -0.16255149 -0.073062226 -0.15362692 -0.10976123
0002c0 d0 aa 01 3e fc a7 78 3e 96 37 02 3e 69 10 27 3c
       0.12662816 0.24282831 0.12716517 0.010196784
0002d0 20 f4 b1 3c a7 9c 43 be 8e 1a 93 bd 4f 6e 09 3e
       0.021722853 -0.19102727 -0.07182799 0.13420986
0002e0 75 5e 2b be 82 14 08 3e 93 72 11 be 73 b3 63 be
       -0.16735251 0.13289073 -0.14203863 -0.22236423
0002f0 ff c7 a3 3d fa 95 69 3e 00 90 66 3e 85 86 27 be
       0.079971306 0.22811118 0.22515869 -0.16359909
000300 b8 dd 51 be 21 b2 26 3e 5a 3f 4e be 66 94 21 3e
       -0.20494735 0.16278888 -0.20141354 0.15779266
000310 e4 b7 77 3e 40 21 1b bb ac d9 59 3e ae c0 4f be
       0.24191242 -0.0023670942 0.21274441 -0.20288345
000320 26 9c 40 3e b3 3d 3f 3e 1e 72 72 3e 90 a3 6c 3d
       0.18809566 0.1867588 0.23676345 0.057773173
000330 fc 4b 17 3e 7b ec 1e be a1 18 f6 3c 3a 12 aa 3d
       0.1477508 -0.15519898 0.03004104 0.08304258
000340 aa b7 04 3d 92 fa a3 3d 1d a6 b8 3d 04 27 49 3e
       0.03240172 0.08006777 0.090160586 0.1964379
000350 1e 6c 45 be bd 32 93 3d 99 66 30 be 2b 30 49 3d
       -0.19279525 0.07187412 -0.17226638 0.049118202
000360 1e 9b 2c 3e ea 8d 1f be 24 95 d6 bd 97 f3 23 be
       0.16856048 -0.1558148 -0.10477665 -0.16010891
000370 f0 28 54 3e d9 02 e7 bc 9e b2 ba bd 98 e9 d1 bc
       0.20718741 -0.0281996 -0.091161 -0.025624081
000380 8a aa f4 ba 1a 38 fa bd 5b 75 83 bd 19 ed 1a be
       -0.0018666547 -0.12217732 -0.06418868 -0.15129508
000390 37 c9 67 3e 88 c0 47 3e 1d 3b 06 3e 8a 17 8c bd
       0.22635351 0.19507039 0.13108487 -0.06840427
0003a0 e7 bd 05 be 14 ed 70 3e f1 7b 1b be 5c ab 56 be
       -0.13060723 0.23527938 -0.15183999 -0.20963806
0003b0 72 a5 05 3e 93 1d 25 3e 64 46 34 3e 33 39 5b 3d
       0.13051394 0.16124563 0.17604977 0.053521346
0003c0 c2 35 ba bc 46 cd 79 be dd e6 59 bd 99 45 e9 3d
       -0.022730712 -0.24394712 -0.053198684 0.11390228
0003d0 cc d0 d2 bd 78 1e b2 bd 27 05 fb 3d f5 68 b8 bd
       -0.10293731 -0.08697218 0.12256842 -0.09004394
0003e0 a6 54 66 3a ec 9c 73 be 44 9a 35 bd 8d c9 8c 3d
       0.00087864173 -0.2379033 -0.044336572 0.0687438
0003f0 49 de 09 3e 30 1a 34 3d f3 2f d3 3d fe a6 43 3e
       0.13463701 0.043970287 0.1031188 0.19106671

fc2.weight f4 [128, 256]
000000 78 40 08 3d f6 1f 03 3d eb 03 88 3d b6 9b 9a 3c
       0.033264607 0.032012902 0.06641372 0.018873077
000010 53 ee 57 3d ea 65 23 3d 13 81 55 bd ec 90 31 bd
       0.052717518 0.039892115 -0.052125048 -0.0433511
000020 cc 78 2a 3d a2 2c 75 3d a4 f8 ae bc 30 d0 c4 3c
       0.041619107 0.05985702 -0.021358795 0.024025053
000030 a0 77 83 3d 5e 3c 4f bd c9 ce 93 bc 68 db 59 3d
       0.06419301 -0.05059468 -0.018042939 0.053187758
000040 e8 76 30 bc 5e 06 a0 3c 7e c1 9d 3c 80 b4 5f 3c
       -0.010770537 0.019534286 0.019257303 0.013653874
000050 0c 69 6e 3d 2a d4 5f 3d be 06 58 bd e0 a6 82 3c
       0.05820565 0.054645695 -0.052740805 0.015948713
000060 a9 cb 83 3c f8 c5 d9 3b bb 8f bc bc fe 3d c0 3c
       0.016088324 0.006645914 -0.023017755 0.02346706
000070 a1 ce a4 bc 0a 03 fd 3c e0 51 5d 3c c0 21 1f 3d
       -0.02011806 0.030885238 0.01350829 0.038850546
000080 c0 90 a3 bb 2c 7b 88 bc 75 35 42 3d 91 ed 2c 3d
       -0.004991621 -0.016660295 0.04741426 0.04221875
000090 50 7d b4 3c f0 ff 7c bd f0 ac d2 3c 40 23 aa 3b
       0.02203241 -0.06176752 0.025717229 0.0051921904
0000a0 9e 49 7d bd ae 47 54 bd 3d 4a 82 3c 58 09 0f bc
       -0.061837785 -0.05182617 0.01590454 -0.008730255
0000b0 30 90 4c 3d 84 63 2b 3c bc 1f 4c bd 26 c7 1c bc
       0.049942195 0.010460738 -0.04983495 -0.009568965
0000c0 63 d9 0e 3d 00 d9 70 3c d1 cf 54 3d f5 74 56 3d
       0.034875285 0.014700174 0.051956 0.052357633
0000d0 9c 0d 99 3c b6 04 6b 3d 6e f2 1a bd 32 1e 62 3c
       0.018683247 0.05737754 -0.037828855 0.013801144
0000e0 db 37 b0 bc 63 11 8f bc 31 50 eb 3b 27 1a 21 3d
       -0.021511009 -0.017464345 0.0071811904 0.03933158
0000f0 6d 1c 4b bc 84 dc 00 3d ec 1e 46 3d 1a b9 f4 3b
       -0.012396914 0.0314603 0.048369333 0.007468355
000100 45 19 c5 bb 5e 59 31 bd 5c 5f 17 bd 0b c7 db 3b
       -0.0060149753 -0.043298118 -0.036956176 0.0067070774
000110 b8 ce 4b 3c f2 4e 1a bc 30 8a 63 bd 26 de 17 bd
       0.012439422 -0.009418236 -0.055551708 -0.03707709
000120 b0 35 1a 3d 80 c3 54 bb 42 e0 60 bd 2c 11 6a bd
       0.037648857 -0.003246516 -0.05490137 -0.057145283
000130 b1 35 f8 bc a8 98 6e bd 74 ec 3f 3d 5a 91 41 3d
       -0.03029904 -0.058251053 0.04685636 0.04725776
000140 37 7e ad bb 58 8c 4c 3d a0 be 36 3c 30 d7 c6 bc
       -0.005294587 0.04993853 0.011153847 -0.024272531
000150 03 7d 60 ba 2b ad 78 bc cc 39 a5 bc 12 ff 1d 3d
       -0.000856355 -0.015178005 -0.020169161 0.038573332
000160 c0 21 27 bb b5 b3 ea 3c 32 31 05 3d a7 ef 40 3d
       -0.0025502294 0.028650144 0.03251762 0.04710355
000170 30 b3 d6 3b 15 46 61 3b 3c 93 17 3d 56 e8 09 bd
       0.0065521225 0.0034374048 0.037005648 -0.03366884
000180 e8 73 75 3a 76 04 84 3c 40 8d 8f bb 40 95 37 bc
       0.00093632797 0.016115408 -0.004380852 -0.011205018
000190 32 a2 0a 3d c6 43 dd 3c 7a e6 39 bd e8 11 76 bc
       0.033846088 0.027009856 -0.045385815 -0.015018918
0001a0 41 12 17 bd 4d ba 18 3d 70 5f 24 3c 81 6f 27 3c
       -0.036882643 0.037287045 0.01003252 0.010219456
0001b0 87 05 e5 3c a9 b7 aa bb 7a cc 29 3d 70 5c 2c bc
       0.027956737 -0.0052098823 0.04145477 -0.010520086
0001c0 ae 9f 0d 3d 24 f7 e0 3c 28 3d 60 3d 4d eb 01 bc
       0.03457611 0.027461596 0.054745823 -0.007929635
0001d0 e3 91 92 3c 44 c2 7e bd c8 38 72 3d f0 20 a1 3b
       0.01789183 -0.062196985 0.059136182 0.0049172565
0001e0 48 57 ac 3c bb d9 54 bd 80 b0 14 bc fc 0a 7d 3d
       0.021037713 -0.051965456 -0.009075284 0.061778054
0001f0 57 e3 f8 bc 80 bd 8f 3c c6 47 0f 3d 4a 42 0d 3d
       -0.030381842 0.017546415 0.034980558 0.034487046
000200 8e 78 6d 3d c9 c9 fa bb a8 b2 2e bd c4 ff 92 3c
       0.057976298 -0.007653449 -0.04265085 0.017944224
000210 92 c9 99 bb ab f3 33 bd 82 35 53 bd b0 f7 50 3d
       -0.0046932185 -0.04393355 -0.0515647 0.051017463
000220 d4 38 0a bd 0e f2 61 3d 0f da 36 bd f9 4a f8 3c
       -0.0337456 0.055162482 -0.04464155 0.030309187
000230 6d 92 90 bc 2b 87 39 3d 4a 59 76 3d c4 73 58 3d
       -0.017647946 0.04529492 0.060143746 0.052844778
000240 32 f8 01 bd 3a 73 aa bc ce 2a 1e bd 10 74 29 bc
       -0.031730838 -0.020806897 -0.03861504 -0.010342613
000250 06 f6 88 3c 7e c8 2f 3d 5f e8 dd bc 57 0b 36 3d
       0.016718876 0.042915814 -0.027088342 0.04444441
000260 a7 16 5c bc e6 05 14 3c e3 a2 2b bd 01 9e df 3c
       -0.013433135 0.009034609 -0.041903388 0.027297022
000270 60 a8 ff 3b 9c d0 1c 3d bc 76 41 3d 7b 9d 61 3d
       0.0078020543 0.038284883 0.047232375 0.055081826
000280 86 8a 0f 3d be 78 f2 ba 92 1d 16 3d a2 9b 41 3d
       0.035044216 -0.0018499119 0.036649294 0.047267564
000290 dc d5 26 3d 3a 01 29 3d 24 fd 7b bc 00 cb 29 3b
       0.040731296 0.041260935 -0.015380178 0.002590835
0002a0 0c 68 d8 bc eb 1f 23 3d d4 9f 79 bc 3c b5 7c bd
       -0.0264168 0.03982536 -0.01523586 -0.061696276
0002b0 84 39 e7 bc 88 fb 43 bd 68 1a 59 3c a1 78 62 3d
       -0.028225668 -0.0478473 0.013250925 0.055290822
0002c0 a9 c6 37 bb 2c 96 cf bc 48 8b 9f bc f8 28 51 bd
       -0.0028041995 -0.025340162 -0.019475594 -0.05106446
0002d0 00 9d e5 3c 8a 1d 28 3d ec bd 35 bd ac 8e 3f 3d
       0.028028965 0.041043796 -0.044370577 0.046766922
0002e0 f1 59 e8 3c 90 d3 60 bd cc 14 18 3d b6 fc df bb
       0.0283632 -0.05488926 0.03712921 -0.0068355454
0002f0 4d 9a 09 bd e0 2c fa 3c 8e e0 04 bd 4e d0 12 3c
       -0.03359442 0.030538976 -0.032440715 0.0089607965
000300 4b bc 8d 3d 61 e8 18 3d 90 37 25 3d f0 1b d5 bc
       0.0692068 0.03733099 0.04033619 -0.026014298
000310 48 52 15 bd 38 fc a7 3c c9 e4 72 bb 62 87 3b 3d
       -0.036455423 0.02050601 -0.0037062636 0.045783408
000320 b0 5f 61 3d c0 0c 49 3d 8f 9f 8f 3c 89 0b 11 bd
       0.055022895 0.049084425 0.017532138 -0.03541139
000330 e0 99 94 3b 98 4a 04 3c 7a bf 1e bd 4e 81 97 bb
       0.004534945 0.008074425 -0.038756825 -0.0046235686
000340 53 4d cf 3b 0d cf 35 bd 60 4f 19 3c 3d 84 5a bd
       0.0063263564 -0.044386912 0.009357303 -0.05334877
000350 24 71 05 3d ae f6 ff bc d7 53 f6 3c a2 7c b4 bb
       0.032578602 -0.031245556 0.030069275 -0.0055080215
000360 08 6e 1b bd cf e7 99 3c c6 34 35 bd 73 18 24 3d
       -0.03794673 0.018787293 -0.04423978 0.04006238
000370 9e bc 36 3c e1 bd 59 3c 62 ca 21 3d f0 38 2b 3d
       0.011153368 0.0132899 0.039499648 0.041802347
000380 08 53 6b 3d b3 f7 27 3d a0 2d 19 bc 00 a4 09 ba
       0.05745223 0.04100771 -0.009349257 -0.0005250573
000390 3f 9c 5b bd 8c 34 82 3c 62 58 d0 39 3c 8d 49 3d
       -0.053615805 0.015894197 0.00039738702 0.049206957
0003a0 32 f8 37 3d 69 c1 22 bc e0 5f cc bc 3d 8c 24 3d
       0.044914432 -0.009933808 -0.02494806 0.040172804
0003b0 ab 57 42 3c 34 01 0b bd 0a 0a 17 bd 6b e0 8d bd
       0.011861722 -0.033936694 -0.03687481 -0.0692757
0003c0 49 5e e9 3c 1f 48 d2 3c e2 67 89 3c 04 2b 32 3d
       0.028487341 0.025669156 0.016773168 0.043498054
0003d0 2a e7 13 bd fc f1 74 3d d5 0a f2 3c dc 02 9a 3c
       -0.036109127 0.059801087 0.02954618 0.018800192
0003e0 fa 0e 61 bc 3c 97 61 bd 38 56 5f 3c 2c 8a 56 3c
       -0.013736481 -0.05507587 0.013631396 0.013094466
0003f0 3d cc 12 3c 7c c3 f9 3c d8 29 f1 bc 90 8e 6f 3d
       0.008959827 0.030488722 -0.029438898 0.058485568

fc2.bias f4 [128]
000000 38 f9 65 bd 16 ee 51 bd 42 8e 8f 3c 1a cb 96 3c
       -0.056145877 -0.051252447 0.017523888 0.018407393
000010 b7 00 51 3d 9c 75 4a 3d 1a 77 f8 3c 53 04 17 3d
       0.051026072 0.049428567 0.03033023 0.03686936
000020 83 6b a3 3c be b1 f2 bc df 96 34 bc 4f 8b 07 bd
       0.019948727 -0.02962577 -0.011022299 -0.03309184
000030 ac 0f ec 3c 60 07 49 bd 99 a3 02 3d 28 c5 31 3d
       0.028816067 -0.0490793 0.0318943 0.043400913
000040 91 c9 10 bd 08 f1 92 3c f2 8b b8 bc 70 19 43 bd
       -0.03534848 0.017937198 -0.022527669 -0.04763168
000050 b9 e7 5f bc f2 ff a2 3c 80 18 e8 ba 13 99 5c 3d
       -0.013666087 0.019897435 -0.0017707497 0.05385692
000060 57 ab d9 3b bc 53 2e 3d 56 d4 29 bd 8e 84 26 bd
       0.0066427398 0.042560324 -0.041462265 -0.040653758
000070 71 5b 70 bc 64 86 1e bc e1 91 85 3d 31 88 4b bd
       -0.014670239 -0.009675596 0.06521965 -0.04969043
000080 c3 bf b0 3b 2b 58 3c 3d 86 2d 53 3b 86 a0 52 3d
       0.0053939535 0.04598252 0.003222318 0.05142262
000090 4f 7b 84 3c 8e 04 96 3c 63 cc 20 3d b7 e7 40 3c
       0.01617208 0.018312719 0.03925742 0.011773995
0000a0 e6 75 70 3d 11 66 0c 3d 84 00 a4 bb b2 33 06 3d
       0.058706187 0.034277026 -0.0050049443 0.032764144
0000b0 40 7f c3 bb 47 19 73 3b fa 10 53 bc 2c eb f2 bb
       -0.005966097 0.0037093924 -0.0128824655 -0.0074132886
0000c0 b1 71 60 bc 28 d3 36 bd e1 93 ed 3c 40 a3 77 bc
       -0.013698981 -0.044634968 0.029001178 -0.015114605
0000d0 e2 4f 17 3d d0 ac 6b 3c 64 fa 99 3c 79 d7 5b 3d
       0.036941417 0.014384463 0.018796153 0.053672288
0000e0 24 76 16 bd 65 29 92 ba 2e f6 47 bd 68 83 2d 3d
       -0.03673376 -0.0011151253 -0.04881876 0.042361647
0000f0 8e 99 4d bc 84 3d ac 3c be d2 41 3d b0 48 42 bc
       -0.012548817 0.021025427 0.04732012 -0.01185815
000100 77 c0 03 bd 51 c7 c3 3c e5 40 fc bc 3e 8f a7 3c
       -0.03216597 0.023898752 -0.030792663 0.020454045
000110 d7 cb c0 bc 9e 23 66 3d 30 98 c7 ba f7 4e da 3c
       -0.023534698 0.05618631 -0.001522785 0.026648981
000120 95 75 94 bc 30 cf cc 3c 46 03 4c 3d 93 f8 5d bd
       -0.018122474 0.025001138 0.04980781 -0.054192137
000130 63 80 45 3d 0a 65 5b bd 10 71 0b 3d 42 ac 1a bd
       0.048218142 -0.053563155 0.03404337 -0.037761934
000140 40 90 b3 3c a5 5a 56 3c 38 25 4e bd 26 bd 1f 3d
       0.02191937 0.013083135 -0.050328463 0.038998745
000150 ef 4c 70 bd 74 d0 a3 bb c0 24 60 3d 20 38 23 bd
       -0.05866712 -0.004999215 0.054722548 -0.039848447
000160 71 90 55 bc 88 6b 3a bd 20 75 63 bd e3 05 a9 3c
       -0.013034926 -0.045512706 -0.05553162 0.02063269
000170 fd 68 a0 bc b2 21 fc bc 81 71 7e 3d 71 d0 04 3d
       -0.019581312 -0.030777786 0.062119965 0.032425348
000180 99 50 4f bd 9a b0 3b bd 51 b5 9e 3c 26 0e 9d bc
       -0.050613973 -0.045822717 0.019373568 -0.019171786
000190 23 5a b5 3c 9d 1b 72 bc 2d cf 40 3c 81 e4 3d bd
       0.022137707 -0.014777091 0.011768145 -0.046360496
0001a0 33 8f 51 bd c2 e0 2f bd eb 7e 8a 3b e3 c9 3e 3d
       -0.051161956 -0.042938955 0.0042265556 0.046579253
0001b0 b2 f5 22 bd e0 9c 25 bd 49 b3 af 3c 46 f6 04 3d
       -0.039785095 -0.04043281 0.021447795 0.032461427
0001c0 04 74 c7 3b 73 fe 3a 3d 4a 81 54 3d 7b 89 ec 3c
       0.006086828 0.045652818 0.051881112 0.02887415
0001d0 01 10 4f bd d2 1c dd 3c 17 59 3b 3c f4 80 27 3d
       -0.050552372 0.026991282 0.011434815 0.040894464
0001e0 e4 12 9a 3c 36 bd 5c bd 84 68 5b bd a6 a2 0b 3d
       0.018807836 -0.053891383 -0.05356647 0.03409066
0001f0 e6 a7 49 bd ea f2 1e bd 7d b8 d3 b9 c4 96 d9 bc
       -0.049232386 -0.03880588 -0.0004038251 -0.026561148

fc3.weight f4 [128, 128]
000000 8a d2 d0 bc fa 30 cc bc 69 2c 89 3c 54 8d 9d 3d
       -0.025491018 -0.024925698 0.01674481 0.07692972
000010 d6 61 c0 3b a7 70 b0 3d 50 31 35 3b 94 1a a4 bd
       0.005871038 0.08615237 0.00276478 -0.08012882
000020 37 5b b0 bc 18 6f b0 3d a5 c3 89 bd cf a5 db 3b
       -0.02152787 0.086149395 -0.06726769 0.0067031155
000030 dd bb a9 3d bd 2f 5b bd 82 bf ae bc 6b df 4f bd
       0.08287785 -0.053512324 -0.021331552 -0.050750177
000040 86 a8 86 bd f0 7e d9 3b 45 d9 02 bd 2e fd 06 bd
       -0.06575112 0.0066374466 -0.031945486 -0.032956295
000050 d3 db 73 3d c2 ad 67 3d 46 f1 8f 3d 9d e1 1f 3d
       0.059535813 0.056562193 0.07028441 0.03903352
000060 cc 36 3c 3d 95 f3 99 3d 9f 29 48 bc ec 29 02 bd
       0.045950696 0.07517163 -0.0122169545 -0.03177826
000070 39 e1 b5 bd 65 bd 95 3d d7 dd e7 bc 55 9e 2e bb
       -0.088808484 0.07311515 -0.028304024 -0.0026644666
000080 22 46 2e 3c e5 b9 70 3c 56 e2 9d 3d 66 99 25 3d
       0.010636838 0.014692758 0.07709186 0.040429495
000090 45 23 9c bd 38 43 b6 bc eb d3 dc 3c 10 2b 92 3d
       -0.07623915 -0.02224885 0.02695652 0.0713712
0000a0 28 75 f9 bc c3 4f e5 bb b2 6d ac bc 2d 5a e6 bb
       -0.030451372 -0.0069980337 -0.0210484 -0.0070297928
0000b0 b8 a4 3e bc 0b b7 1a 3d b5 29 b1 3d ca 0c 17 3d
       -0.011635952 0.03777222 0.08650533 0.03687743
0000c0 a2 34 55 3d 56 58 96 3d 59 7d b2 bd a7 cf 82 3d
       0.052052148 0.073410675 -0.087153144 0.06387263
0000d0 62 b3 40 3d 0a d2 b3 bd 48 bf 0d bd 34 a2 32 bd
       0.047046073 -0.08780296 -0.03460625 -0.04361172
0000e0 7a 0a de bc 78 fe 87 3d b4 4d a5 bc 4b 09 12 bd
       -0.027104605 0.06640333 -0.020178653 -0.035653394
0000f0 1e d9 ad bd 98 18 75 bc 40 73 05 bc 81 68 0f bb
       -0.084886774 -0.014959477 -0.0081451535 -0.0021882358
000100 40 d1 53 bc 38 f7 30 bd e8 91 9f 3b 82 e1 8a 3d
       -0.012928307 -0.043204516 0.0048696883 0.067812935
000110 5d fe d4 bc d8 6a 26 3c 2a 37 90 bd 15 e5 99 bd
       -0.026000196 0.0101573095 -0.07041772 -0.07514397
000120 94 ef 02 3d e0 82 1b 3b 0e 7c f3 3b 7f dc 96 bd
       0.03196676 0.002372913 0.00743056 -0.07366275
000130 52 c7 61 bd f5 ca 83 bd 99 f2 83 bd 20 8d 19 3d
       -0.055121727 -0.06435195 -0.06442756 0.037488103
000140 cd 12 b2 bd 15 3d 1a bd cf 87 45 bd 94 fb ad bc
       -0.08694992 -0.03765591 -0.04822522 -0.021238126
000150 88 fc 86 bd 76 62 a8 bd e3 69 ee 3c e4 1e d4 3c
       -0.06591135 -0.08221905 0.029103225 0.025893636
000160 62 4e af bd f8 bc 71 3d 20 21 3f bb a1 61 1e 3d
       -0.08559872 0.059018105 -0.002916403 0.038667325
000170 b0 42 c8 bc 8f 27 92 3d 72 7a a9 bc 34 2a 35 3c
       -0.024445862 0.071364515 -0.02068827 0.011057425
000180 63 2c ba bc e1 fe 5f ba 2b df 18 3d 53 bb 8a bd
       -0.022726243 -0.0008544755 0.037322205 -0.067740105
000190 52 d9 25 bd c2 39 b3 3d 17 5a 69 3d d6 32 0b 3d
       -0.040490456 0.08751251 0.056970682 0.033984028
0001a0 20 6e 9c 3c 4a 1d 88 3d 1f 51 a4 bd 82 85 b0 bd
       0.01909548 0.066462114 -0.08023285 -0.086192146
0001b0 88 2d f6 3c e2 47 77 3d 02 bd 4f 3d 48 64 a7 bc
       0.030051008 0.060371287 0.05071736 -0.02043356
0001c0 ff d1 16 3d a3 a9 cb 3b 74 63 1e 3c 5b f1 11 3d
       0.03682136 0.0062152906 0.009667266 0.035630565
0001d0 1a c2 4d 3c 36 5a 20 bd 1f a0 8c bc ce cd 92 3d
       0.012558484 -0.03914853 -0.017166195 0.071681604
0001e0 92 9b 52 3d 0e 8e 7a 3d 65 40 a3 bd 16 6a 98 bc
       0.051417895 0.06117063 -0.07971267 -0.018605273
0001f0 67 a3 c4 3b 2e 49 41 3d 09 81 63 bd c6 d2 5d 3d
       0.0060009244 0.04718893 -0.05554298 0.054156087
000200 b1 7c 78 3d 31 16 a5 3d 2a 17 82 bd 3d f7 09 39
       0.06066579 0.08060873 -0.063520744 0.00013157442
000210 85 f3 24 bd d6 53 3a 3d b5 25 72 bd c2 5b b0 bc
       -0.0402713 0.04549011 -0.05911799 -0.021528129
000220 ca 2a 86 bc 2d ed 9a bd 1a 42 96 bc d9 0d ac bd
       -0.016377825 -0.07564769 -0.018342067 -0.08401079
000230 80 0a 21 3b c9 3c 85 3d d8 c7 b6 3b e0 c6 2d bc
       0.002457291 0.065057345 0.0055780225 -0.0106064975
000240 5d e8 15 3d 6e aa 03 3d dd 9f 64 3b 86 62 b5 3d
       0.036598552 0.032144956 0.0034885325 0.088566825
000250 54 6d e6 bc 60 84 ad 3c 8f dd dd bb 18 e6 8d bd
       -0.028128304 0.021181285 -0.0067707966 -0.069286525
000260 d3 5f 17 bc 1d 7e 80 3d b0 5e 19 3d 0d 30 2a 3d
       -0.009239155 0.06274054 0.037443817 0.04154973
000270 7b 80 83 3d 5f 71 1a bd c1 8d 11 3d fb 78 7a 3d
       0.0642099 -0.037705775 0.035535578 0.061150532
000280 e7 bd 15 bd 22 24 47 3d a2 54 9f 3d e3 98 b0 3d
       -0.036558058 0.048618443 0.07779814 0.08622911
000290 ca 54 a7 3b b8 3b 71 bd 90 ce 88 3b 1a 20 49 bd
       0.005106543 -0.058894843 0.004175015 -0.04910288
0002a0 70 23 ac bb 91 43 49 3d c8 24 fb 3c 96 c6 84 3d
       -0.005253248 0.049136702 0.030657187 0.0648319
0002b0 38 ab 4f 3c 59 80 4f bb 2b c7 95 bd ba 7f 89 bd
       0.012675099 -0.0031662195 -0.07313379 -0.06713815
0002c0 9e 2d a3 3a 61 67 a7 3d f1 c8 22 3d 46 5e 2f bd
       0.0012449508 0.08174015 0.039742414 -0.042814516
0002d0 3d 3a 43 bd b2 33 ad bd 70 52 dc 3b c0 6a 90 3d
       -0.047662962 -0.08457126 0.0067236945 0.07051611
0002e0 c8 7e ab bc 77 f3 98 bd 82 10 97 3d 00 39 42 3d
       -0.020934477 -0.07468312 0.073761955 0.04741764
0002f0 b1 49 93 bd 4e 35 63 3d c0 6f 49 bd 85 a0 43 bd
       -0.0719179 0.055470757 -0.04917884 -0.047760505
000300 56 6e 99 bd 50 36 88 3c d4 61 3c 3d e8 43 32 bd
       -0.07491748 0.01662746 0.045991734 -0.04352179
000310 4a c0 2c ba 35 d9 9c bc 65 e5 23 bd 60 73 87 3d
       -0.00065899326 -0.019146541 -0.04001369 0.06613803
000320 e5 90 86 bd 54 d4 c1 3c 3a 11 98 bd 5f 2e bd 3d
       -0.06570605 0.023660816 -0.07425161 0.0923736
000330 1c 5a 92 bd eb f1 88 3d 96 fa 81 bc d5 c2 66 bd
       -0.07146093 0.06686767 -0.015866559 -0.05633815
000340 39 3e 92 bd 93 b7 62 bd 72 24 67 bd 5f 98 80 bd
       -0.07140774 -0.05535085 -0.05643124 -0.062790625
000350 6c 35 2a 3c 2c a6 84 3d 2a 6f be 3b f5 50 98 3d
       0.010388713 0.06477007 0.0058115916 0.07437316
000360 e5 d5 9d 3d 95 e9 a4 3c 72 ed 27 3d b7 84 cb bd
       0.07706813 0.020130912 0.04099793 -0.09937423
000370 8c e5 a4 bc 92 6c 35 3d 9c d6 34 3d d3 2b 5f 3d
       -0.020128988 0.044292994 0.04414998 0.054485153
000380 b7 be a5 bd 75 b6 9f bd 1c 88 91 bd bb 88 7e bd
       -0.080930166 -0.07798473 -0.07106039 -0.062142115
000390 85 41 35 3d 29 3f b8 bc 94 5a f5 bc 3d fc c0 bc
       0.044251937 -0.022491055 -0.029950418 -0.023557777
0003a0 07 2e 6f bd 83 c2 1a bd 9d 85 ce bc 57 c7 ac 3d
       -0.058393504 -0.037783157 -0.025210196 0.084364586
0003b0 c4 6f ba 3c 10 c8 8f bb d4 82 52 3d 55 42 b3 bb
       0.022758372 -0.004387863 0.0513943 -0.005470554
0003c0 be 41 8a 3d 77 c5 8d bd 37 5e 98 3d 7a 26 86 3d
       0.067508206 -0.06922429 0.07439845 0.065503076
0003d0 8c b4 84 3b e1 3e 0a 3d 87 87 7f 3d f0 1c e7 3c
       0.004049843 0.033751372 0.06238511 0.02821204
0003e0 54 51 63 bd d3 21 9b 3c d0 5f ba 3d 17 a4 30 bd
       -0.055497482 0.018937027 0.09100306 -0.04312524
0003f0 05 0c 0f bd 9c 17 d5 bc f4 56 0f bd 9e 4f 58 3d
       -0.034923572 -0.026012234 -0.034995034 0.052810304

fc3.bias f4 [128]
000000 33 a7 61 3d 52 ee 92 bc 69 30 a5 3d ad 30 6d bd
       0.055091094 -0.017935906 0.08065874 -0.05790775
000010 5a c8 f9 bc 5a cd ac bd 1d 0d 84 3d 36 86 8f 3d
       -0.030491043 -0.08437605 0.06447814 0.070080206
000020 2d 1b 52 bd 01 e0 c5 3a 06 d1 a7 bd 87 68 31 bd
       -0.051295448 0.0015096666 -0.08194165 -0.043312576
000030 2e d5 c2 3c 08 58 35 bd e2 49 c0 bc 6c d5 ab bd
       0.023783293 -0.044273406 -0.02347273 -0.08390316
000040 0c d4 82 bc 35 ba 16 3d 18 9e 53 3d 42 03 a2 3c
       -0.015970252 0.036798675 0.05166444 0.019776944
000050 e3 12 94 bd e1 b3 a5 3d 12 0f a6 bd 08 0d a0 3c
       -0.07230165 0.0809095 -0.08108343 0.019537464
000060 4c ef ac 3d 37 0d e5 bc 51 5c d3 3c 27 b5 b1 3d
       0.0844408 -0.027960403 0.025800856 0.0867713
000070 d7 d3 92 bd a0 c1 27 3d 8d 6f 54 bd 71 58 02 3d
       -0.071693115 0.04095614 -0.051864196 0.031822626
000080 36 48 ea bc 3c 64 ae 3d ea 54 b3 bd 6a 79 ea bb
       -0.028598886 0.08515212 -0.087564304 -0.007155587
000090 c6 87 86 bd 4f 50 85 3d 63 12 06 bd 63 64 26 bd
       -0.065688655 0.06509458 -0.03273238 -0.04062308
0000a0 9b 81 ae 3d 4d e5 a7 bd f1 73 87 bd 8e 42 9c bd
       0.08520814 -0.081980325 -0.06613911 -0.07629882
0000b0 12 f7 95 bd 50 45 e7 3b bc 7f 3c bd c5 b5 af 3d
       -0.073225155 0.0070578232 -0.046020254 0.08579592
0000c0 3e 6d 3c 3d 1d 85 5e bd 82 59 88 bd 48 c2 62 3d
       0.04600262 -0.054326165 -0.06657697 0.055361062
0000d0 53 d1 e5 bb 61 e0 f4 bb 75 2e 81 bd e8 af 3d bc
       -0.007013479 -0.007473037 -0.06307689 -0.011577584
0000e0 9b cf ad bd b8 a9 70 bc d0 99 8a 3d 88 5e 2b 3c
       -0.08486863 -0.014688902 0.06767619 0.01045955
0000f0 25 a7 a9 3d 54 37 03 bd b0 11 3e bd 68 8a f2 bc
       0.082838334 -0.032035187 -0.046403587 -0.029607013
000100 40 7a a8 3c b8 f1 97 3c 83 1e 40 bc b8 4b eb 3c
       0.020566106 0.018547878 -0.011726025 0.028722629
000110 3b f3 87 3d d8 e7 53 bd 3d 18 95 3c 3a 76 b9 3c
       0.066381894 -0.051734775 0.018200034 0.022639383
000120 80 b9 76 3d 3e a4 86 3d e4 44 a9 3d 9d b3 de 39
       0.0602355 0.065742955 0.08265093 0.00042476962
000130 93 4d 9e 3c 57 eb 92 bd 66 7c d0 bc 39 9b 91 3d
       0.0193241 -0.07173794 -0.025449943 0.071096845
000140 da f8 79 bd c0 79 0b bc 0b a7 12 3d d0 a1 c5 3c
       -0.06102834 -0.008512914 0.035803836 0.02412501
000150 92 46 35 bd 26 98 1d bc 6f 15 a9 3d 4c 73 40 bd
       -0.044256754 -0.009618795 0.08256041 -0.046984956
000160 f7 96 6b 3c bc c5 88 3d a9 54 00 3d 2e f6 98 bc
       0.014379255 0.0667834 0.03133074 -0.018672075
000170 96 f2 77 bd e3 68 8b bd f0 45 b3 bd ca 1b 6f 3c
       -0.060534082 -0.06807115 -0.08753574 0.014594028
000180 ef 4f bc 3c 8f bc 23 bd d5 bd 79 3d 15 81 9a bd
       0.022987334 -0.039974745 0.060972054 -0.07544152
000190 3c ab 12 bd c4 14 62 bd 70 ab d2 3c cd 14 6a bd
       -0.035807833 -0.055195585 0.025716513 -0.057148743
0001a0 75 79 85 bd 74 6b 5c 3d 9f 39 04 bd 3b 49 25 bd
       -0.06517307 0.053813413 -0.032281514 -0.04035304
0001b0 ea 8f a0 3d 77 83 1c 3b 60 57 b4 bc 3a c4 86 3d
       0.078399494 0.002388207 -0.02201432 0.06580396
0001c0 48 e2 af bd fa 3f 3a 3c 53 3d 55 3d fa 85 05 bd
       -0.085880816 0.011367792 0.052060436 -0.032598473
0001d0 0c 9b a9 bd 8f d8 6d 3d 89 06 94 bd d6 60 70 3d
       -0.08281526 0.058067854 -0.07227809 0.0586861
0001e0 79 90 b1 bd 0f f0 94 3d 2b d5 fa bc 8c da 91 bc
       -0.08670134 0.0727235 -0.030619225 -0.017804407
0001f0 26 d0 96 bd fe f1 44 3d 7c e1 23 3d ff c1 0c bd
       -0.0736392 0.048082344 0.04000996 -0.034364697

fc4.weight f4 [64, 128]
000000 43 03 65 bd 40 99 42 3c 17 65 ab 3d a7 fa 9b 3d
       -0.055911314 0.011877358 0.08368891 0.076161675
000010 28 b8 f0 bc 8c 27 8d bd 00 6a 54 3a 15 57 a0 3d
       -0.029384688 -0.068923086 0.00081029534 0.078291096
000020 40 53 1f 3c d0 9b ff bc cf 4b 8a 3d 31 3b a9 3d
       0.009724438 -0.031202227 0.067527406 0.08263243
000030 d1 2a b1 3d c8 34 72 bd 3d 8c 9e bd 5d f0 a1 3d
       0.08650745 -0.059132367 -0.07741592 0.07907174
000040 84 36 78 bd 72 5b 08 3d e0 97 cf bb 84 e3 0a bd
       -0.060598865 0.033290334 -0.0063352436 -0.033908382
000050 f0 10 da 3b 3d d3 9c 3d 4f 22 86 3d 4a 56 22 bd
       0.006654851 0.07657478 0.065495126 -0.039633073
000060 8f c3 8a 3d 20 c7 52 bb 37 b2 8e 3d 10 1d b6 bb
       0.06775581 -0.0032162145 0.069675855 -0.0055576637
000070 0b fc 87 3d 64 43 8b bd 6c 70 d0 bc f7 33 8c bd
       0.0663987 -0.06799963 -0.025444232 -0.06845849
000080 e6 6f d7 bc ca 8c 6b 3d 20 55 05 bb 79 d2 82 3d
       -0.026298475 0.057507314 -0.0020344928 0.06387801
000090 2f cd 89 3d 4e 2e 75 3d b6 5d 5b bd b3 80 9e bd
       0.06728589 0.059858613 -0.053556167 -0.07739391
0000a0 92 9e 90 bd 04 14 ce 3c 36 9e 61 3d 58 98 5f bc
       -0.07061495 0.025156029 0.055082522 -0.013647161
0000b0 e3 30 07 bd 5d 3d aa 3d 80 cd ae 3c 3b dd a2 3d
       -0.033005606 0.08312485 0.021338224 0.079523526
0000c0 5d fa 19 bd a3 a5 99 3d 31 46 3b bd 80 af 71 bc
       -0.03759228 0.07502296 -0.045721237 -0.014751315
0000d0 e5 af 9d 3d e5 b5 98 3d 49 bc 21 bd 0c d2 b2 bd
       0.07699565 0.07456569 -0.039486203 -0.087314695
0000e0 54 ac 58 bd 90 e6 d6 3b 5e 6a 80 bd e0 d8 08 bb
       -0.05289872 0.006558247 -0.06270288 -0.002088122
0000f0 38 80 fe bc 06 79 8d bd 3a 0e 47 3d e4 9b 53 bd
       -0.031066999 -0.06907849 0.048597552 -0.05166234
000100 d0 ad 54 3c 80 06 96 bb 1a b0 50 3d d0 80 fa 3c
       0.012980893 -0.0045784116 0.050949194 0.030579
000110 56 f5 4a 3d ae c5 0d bd 58 50 0d 3c 7c df af bc
       0.049550377 -0.03461235 0.0086251125 -0.02146887
000120 a3 48 88 3d 40 e8 b7 bb a8 13 71 3c 30 08 41 3c
       0.06654479 -0.005612403 0.014714159 0.011781737
000130 c3 3f 85 3d cf a1 a9 bd 1e b3 1b 3d 4a 47 41 bd
       0.06506302 -0.08282816 0.038012616 -0.047187127
000140 94 4b 66 bd 16 80 6a 3d db 72 98 3d 30 e9 59 bc
       -0.05622442 0.05725106 0.07443782 -0.013300225
000150 df 19 77 bd 8e 31 13 3d 23 82 68 bd c0 bb 6f 3c
       -0.060327407 0.03593593 -0.056764733 0.014632165
000160 33 f4 b2 3d 45 5a a1 3d 4c dc f2 3c 7c b1 9b bc
       0.087379836 0.07878546 0.029646061 -0.01900553
000170 7b 18 a1 3d c8 9f a9 bd 89 1f a3 3d fa bd 2d bd
       0.078659974 -0.08282429 0.07964999 -0.042417504
000180 6d 21 9b 3d a2 95 e0 bc cc b1 8e bc 91 d7 59 bd
       0.07574735 -0.0274151 -0.017418765 -0.053184096
000190 d0 1e 9d bd 2a 90 10 3d 1c da ae bc 00 0b 41 ba
       -0.07671893 0.035293736 -0.021344237 -0.0007364005
0001a0 2c bd 92 bd bd b2 b3 3d f1 14 b2 3d 92 6b 24 bd
       -0.07164988 0.08774326 0.086954005 -0.04014165
0001b0 71 ae ad 3d 02 4e 05 3d 7a 82 7d 3d fe 0b 51 3d
       0.08480538 0.032545097 0.06189201 0.051036827
0001c0 60 9a 3e bb d1 34 89 3d 5e dd 1c 3d 9a 54 2d 3d
       -0.0029083714 0.06699527 0.03829705 0.04231701
0001d0 e2 12 6a 3d 94 96 1c bd 48 f9 41 bc c0 f3 4e bc
       0.057146914 -0.03822954 -0.011839218 -0.012631357
0001e0 50 d1 68 bc 20 4a 90 bd 0c 0d 8d bc 7a f7 41 3d
       -0.01421006 -0.07045388 -0.017218135 0.047355153
0001f0 61 b5 a0 3d 0c 07 22 bd 88 a5 da 3c 2f 1c 90 3d
       0.07847095 -0.0395575 0.02669026 0.070366256
000200 7b 44 a1 3d 00 54 b4 bd 4c c5 88 bd f8 27 07 3d
       0.0787439 -0.08805084 -0.066782564 0.0329971
000210 40 3f aa 3a 06 6a aa bd a7 9d 1e bd 91 78 84 3d
       0.0012988821 -0.083210036 -0.038724568 0.06468309
000220 cd dc 23 bd 6c aa bd 3c f7 b4 9f 3d 9c 01 97 bd
       -0.040005494 0.023152553 0.07798188 -0.07373354
000230 6a 87 aa bd f1 a0 ab 3d 35 eb 85 3d 8e b6 58 3d
       -0.083266094 0.083803065 0.06539003 0.052908473
000240 ca 03 b5 bd 32 04 47 3d e4 cc 12 bd 6c c8 c2 3c
       -0.08838613 0.048587985 -0.03583993 0.02377721
000250 18 9f 0a bd 19 b0 94 3d 36 43 9c bd 02 7f 20 3d
       -0.03384313 0.072601505 -0.07630007 0.039183624
000260 ae 1b d4 bc 00 84 ba 3c 00 d3 a8 bc 00 03 03 3a
       -0.025892105 0.02276802 -0.020608425 0.00049977005
000270 de bb 36 3d 50 25 ec 3b 7a 90 38 bd c0 d3 a2 3c
       0.044612758 0.0072065964 -0.04505966 0.01987636
000280 c3 28 8b bd 9c 84 f4 3c 65 87 66 bd 96 de 42 3d
       -0.06794884 0.02984839 -0.056281466 0.047575556
000290 79 c2 af 3d b2 d5 0a bd 30 1d 39 bc 3e f1 7e 3d
       0.085820146 -0.033895202 -0.011298463 0.062241785
0002a0 46 c2 5f 3d 80 1d 94 bd a9 e8 a5 3d eb f8 89 3d
       0.054628633 -0.07232189 0.08101017 0.067369305
0002b0 f6 60 6e bd 4a 27 53 3d c8 88 05 3d e0 91 3b bd
       -0.058197938 0.05155114 0.032601148 -0.045793414
0002c0 9f 69 1a bd e0 f3 1e bd 94 81 d3 3c dd 84 6f bd
       -0.037698384 -0.038806796 0.025818624 -0.058476318
0002d0 a9 18 97 3d a0 c8 a9 3b 64 ae c2 3c d6 4a 45 bd
       0.073777504 0.005181387 0.023764797 -0.048167072
0002e0 45 27 87 3d 6e 37 11 bd 0e fd 7c 3d 14 08 17 bd
       0.06599287 -0.035453252 0.06176477 -0.03687294
0002f0 44 6a 13 3d 4b 22 83 bd 65 14 83 3d 30 08 fd 3b
       0.035990015 -0.06403025 0.06400374 0.0077219233
000300 d4 14 a4 bd ff 25 a1 bd c2 33 80 bd bc 82 b2 bc
       -0.08011785 -0.07868575 -0.06259872 -0.021790855
000310 e0 e2 8e bd 4d 56 87 3d d0 6b f7 3c c0 7a f0 bc
       -0.06976867 0.066082574 0.030202776 -0.029355407
000320 70 44 54 bc 92 7e 9d bd 88 54 da 3c 7d 11 90 3d
       -0.01295577 -0.07690157 0.026651636 0.070345856
000330 ca 0f 3e 3d e0 99 2e bd 70 f9 9c bb 5b 13 93 3d
       0.046401776 -0.042627215 -0.0047904775 0.07181426
000340 47 cc 4c bd 72 dd 4e 3d 3d 42 9d 3d 71 1b b1 3d
       -0.0499995 0.050504155 0.076786496 0.08647812
000350 00 92 44 3c 76 12 49 3d 61 05 18 bd 80 35 ac 3c
       0.0119977 0.04908987 -0.037114505 0.021021605
000360 86 96 59 3d 96 0d 46 3d 0c 06 9d bd ec 12 8e 3c
       0.053122066 0.0483528 -0.07667169 0.017343007
000370 1f 8a a0 3d 87 da 6a bd c4 bd 77 bd b8 cc 35 bd
       0.078388445 -0.05733731 -0.06048371 -0.04438469
000380 37 ff 80 3d 4e e6 2f bd 30 bf 61 3c 29 75 ae 3d
       0.06298678 -0.042944245 0.013778493 0.0851844
000390 75 b6 86 3d 48 66 28 bc 64 2a 8c 3c bf d2 90 bd
       0.0657777 -0.010278292 0.017110057 -0.070714466
0003a0 4b d8 85 3d 73 7f 49 bd f1 16 56 bd d6 70 53 3d
       0.06535395 -0.04919381 -0.052267972 0.05162128
0003b0 b7 d6 97 3d da 97 3f 3d 80 49 d3 bb 71 7e 19 bd
       0.074140005 0.046775676 -0.006447971 -0.0374741
0003c0 8e ae 21 3d c5 85 94 3d 90 9a 80 3c 44 ad 54 bd
       0.03947311 0.07252077 0.015698701 -0.05192305
0003d0 a4 74 8e 3c b5 4e 83 3d 78 b9 f6 3c 07 6f 9a 3d
       0.017389603 0.064114965 0.030117735 0.07540708
0003e0 00 9c e9 bb 08 2c 90 bd b8 47 2c bd cc c7 a9 3c
       -0.0071291924 -0.07039648 -0.042060584 0.020725153
0003f0 80 a1 6b 3c 28 b5 45 bc c8 e3 1d 3c 1d 8f a3 bd
       0.014381766 -0.012067117 0.009636827 -0.07986281

fc4.bias f4 [64]
000000 f5 1a af bd a1 01 a7 3d 20 c7 c6 bb 6e ac 2b bd
       -0.085500635 0.081546076 -0.006066218 -0.04191249
000010 60 61 95 bc 40 ab 87 3a 6b 94 9b bd 42 6a 75 3d
       -0.018234909 0.0010350719 -0.07596668 0.05991579
000020 d4 40 f9 bc e8 bf 99 3c 48 ef 87 3c c6 28 43 bd
       -0.03042642 0.018768266 0.01659359 -0.047646306
000030 ab 62 0c bd 20 01 9f 3c ed 6e 1c bd d7 6c 89 3d
       -0.034273785 0.019409716 -0.038191725 0.06710213
000040 2a af 16 3d e4 fc 80 bc 18 22 7f 3c 7a 41 9e bd
       0.036788143 -0.015745588 0.015572093 -0.077273324
000050 df 57 80 bd 2d 1b 91 3d 9a 56 3f 3d 51 72 89 3d
       -0.0626676 0.070852615 0.04671345 0.06711257
000060 1e c6 4e 3d 45 70 36 bd f3 85 ae bd 8e 8b 96 bd
       0.050481908 -0.044540662 -0.085216425 -0.07350837
000070 db d7 b4 bd 5a 26 1d 3d 83 0f 8d 3d 1e 02 18 3d
       -0.08830234 0.038366653 0.06887724 0.037111394
000080 80 17 20 bc 69 6b af bd b8 08 90 bd cc 34 bf bc
       -0.009771228 -0.08565409 -0.07032913 -0.023340605
000090 08 fa 39 bc 4b b2 a6 3d 2c ed 9c bd 6b 1b a3 bd
       -0.011351116 0.081394754 -0.076624244 -0.07964214
0000a0 44 f7 a1 3c 00 b2 88 3c a0 35 72 3b 3d 0b 00 bd
       0.019771226 0.01668644 0.0036958233 -0.031260718
0000b0 6a f0 82 bd ed 1a 0d bd 7c 75 0a 3d 0b 2d 91 3d
       -0.063935116 -0.034449507 0.033803448 0.070886694
0000c0 98 6e 94 bd 50 6b 40 3c da 67 7a 3d c2 d0 26 3d
       -0.072476566 0.011744335 0.061134197 0.04072643
0000d0 46 23 40 bd 98 c7 3b bd c0 af 12 3c 24 f3 a0 3c
       -0.04690864 -0.045844644 0.008953035 0.019647188
0000e0 3c 5c cf 3c 31 75 ac 3d c6 13 26 3d bf d9 35 bd
       0.025312535 0.0842079 0.0405462 -0.044397112
0000f0 28 b1 a2 bc 94 21 08 3d 2e 8a 59 3d c0 10 b1 bb
       -0.019859865 0.033235148 0.053110294 -0.005403608
