kinova-ros/kinova_scripts/src/runs/jaco2_ppo_20240708-153126/best_model_episode_100_20240708-153126/critic_20240708-153126.pth (torch, 152975 bytes, 5 tensors)

fc1.weight f4 [256, 17]
0	0x3e5a3a41	0.21311285
1	0x3de55c2e	0.111992225
2	0xb9391201	-0.00017649682
3	0xbe278fad	-0.16363402
4	0x3d6feed4	0.058577374
5	0x3de49dd3	0.11162915
6	0xbe41327d	-0.18866916
7	0x3d236907	0.039895084
8	0xbe3f3e6f	-0.1867616
9	0x3e42e9fd	0.19034572
10	0xbe03c42a	-0.128678
11	0xbe20d35b	-0.15705626
12	0x3e578279	0.21045865
13	0xbb55448d	-0.003254208
14	0xbe6c5f15	-0.23083146
15	0xbdab3909	-0.08360488
16	0xbe330e5d	-0.17485948
17	0x3c6e9dab	0.014563958
18	0x3e043aaa	0.12913004
19	0xbe1f0930	-0.15530849
20	0x3d530910	0.051522315
21	0x3d435975	0.047692735
22	0xbde250d6	-0.110505745
23	0xbc6821e4	-0.014168236
24	0xbe6357ef	-0.22201513
25	0xbdf0d4bb	-0.11759325
26	0x3c8df22b	0.017327389
27	0xbe0aa094	-0.13537818
28	0xbe3b0792	-0.18264607
29	0x3e0ca10c	0.1373331
30	0xbd20557f	-0.039144035
31	0x3dc48577	0.09595769
32	0x3e5145fd	0.20436855
33	0xbe131e6c	-0.14367074
34	0x3e47d369	0.1951424
35	0xbe6680df	-0.22510098
36	0x3e6b72d4	0.22993022
37	0xbdd1928a	-0.10233028
38	0x3d8e4100	0.069459915
39	0x3e0be6f3	0.13662319
40	0x3e49ec67	0.19719087
41	0x3e2df903	0.16989522
42	0xbe3ff5fc	-0.1874618
43	0xbe1162e2	-0.14197877
44	0x3dbb4fb0	0.091460586
45	0xbe62297a	-0.22086135
46	0xbe095282	-0.1341038
47	0x3c22a7f3	0.0099277375
48	0x3e5f9623	0.21834616
49	0xbd9a62ef	-0.07538401
50	0x3e3f4c1c	0.18681377
51	0x3e1c5212	0.15265682
52	0x3e4d0722	0.20022252
53	0x3d9add19	0.07561702
54	0x3dbea04d	0.09307919
55	0xbdd4fe92	-0.10400118
56	0x3e58738b	0.21137826
57	0x3d0620a5	0.032745976
58	0x3e4d3738	0.20040596
59	0xbe4eb95a	-0.20187894
60	0xbe08ca0e	-0.13358328
61	0xbda6b9ae	-0.08140884
62	0x3dd2646f	0.102730624
63	0x3e4f6edf	0.20257138
64	0x3ca3b602	0.019984249
65	0xbd74423f	-0.05963349
66	0x3e6fc2ec	0.234142
67	0xbe4a664f	-0.1976559
68	0x3e0840dc	0.13305992
69	0xbe6100cb	-0.21972959
70	0xbde10708	-0.10987669
71	0x3da67b20	0.08128953
72	0xbe42bd4e	-0.19017527
73	0xbe01cc8e	-0.12675688
74	0xbd6955f4	-0.056966737
75	0x3d275ed8	0.040861934
76	0x3dd7ca24	0.10536602
77	0xbe2def4c	-0.16985816
78	0x3e265bbe	0.16245934
79	0x3e4e4ca2	0.2014642
80	0xbde0f31c	-0.109838694
81	0x3cd5deb0	0.026107162
82	0xbe017b8e	-0.12644789
83	0x3db16f94	0.0866386
84	0x3d5f0540	0.054448366
85	0xbd6a3ab8	-0.057184905
86	0x3e76b9a2	0.24094251
87	0x3e31b5c2	0.17354491
88	0x3db16278	0.086613595
89	0xbe66cf13	-0.2253993
90	0x3daae260	0.08343959
91	0xbdccb208	-0.09994894
92	0xbd501110	-0.050797522
93	0x3e67213e	0.22571275
94	0xbd99ce8a	-0.07510097
95	0xbdee5178	-0.11636633
96	0xbdef9b24	-0.116995126
97	0x3d7f4888	0.06232503
98	0xbd028080	-0.03186083
99	0xbd1f1d94	-0.038846567
100	0xbde754c2	-0.11295463
101	0xbe2fa02c	-0.17150944
102	0xbdc3863a	-0.09547086
103	0x3d8ffd24	0.070307046
104	0xbe261fcc	-0.16223067
105	0xbdfd4928	-0.12367469
106	0xbc7095a0	-0.014684111
107	0x3d95ae84	0.07308677
108	0x3d4b2de8	0.049604326
109	0x3b323300	0.0027191043
110	0xbe6d732c	-0.23188466
111	0x3e6dc02a	0.23217836
112	0x3e018802	0.12649539
113	0x3da38724	0.079847604
114	0x3da2781c	0.07933065
115	0x3bb5d880	0.0055494905
116	0xbc8f29e8	-0.017476037
117	0x3d7ab420	0.061206937
118	0xbe252e5a	-0.16130963
119	0x3e4b5e4d	0.19860192
120	0xbe60a588	-0.21938145
121	0xbe33d6f9	-0.17562474
122	0x3e20edc5	0.15715702
123	0x3e58482f	0.21121286
124	0xbdd2def5	-0.10296432
125	0xbdbb5f31	-0.09149016
126	0x3e1f443a	0.1555337
127	0x3dc81392	0.09769358
128	0x3dbbd879	0.09172148
129	0x3dcd2fcf	0.100188844
130	0xbe600ac4	-0.21879107
131	0xbdc7132f	-0.09720456
132	0xbd8cc4bb	-0.06873461
133	0x3ae4c7f5	0.0017454611
134	0xbd84cf96	-0.064849064
135	0x3dfb6cb5	0.122765936
136	0xbde70808	-0.11280829
137	0x3e4d86be	0.20070931
138	0x3d57b429	0.05266205
139	0x3d34aa10	0.044107497
140	0xbe067abb	-0.13132755
141	0xbdd9b755	-0.10630671
142	0x3d854dbc	0.06508967
143	0x3abadd32	0.0014256595
144	0xbde05b79	-0.10954947
145	0xbe462612	-0.1935046
146	0xbdd2cdfa	-0.10293193
147	0x3dee6e45	0.11642126
148	0x3dd68562	0.104746595
149	0xbe5d381c	-0.21603435
150	0xbe0a8854	-0.13528568
151	0xbda151a6	-0.07876901
152	0xbdac61b9	-0.084170766
153	0x3def3a2b	0.116810165
154	0xbdb0d3b0	-0.08634126
155	0xbe096b92	-0.13419941
156	0xbbb43ef7	-0.00550067
157	0x3e6f3625	0.23360498
158	0xbe1f8626	-0.15578517
159	0x3e17aaca	0.14811245
160	0xbdd7c29d	-0.105351664
161	0xbd1f46d6	-0.038885914
162	0x3e6d14b2	0.23152426
163	0x3e059185	0.13043793
164	0xbd45c152	-0.048280068
165	0x3e38a36a	0.18031088
166	0x3d38928d	0.045061637
167	0xbdc46441	-0.095894344
168	0x3dc2c01d	0.09509299
169	0xbd030288	-0.031984836
170	0x3d2f8432	0.04285068
171	0xbe328d7c	-0.17436785
172	0x3e3150e9	0.17316021
173	0xbd1d14ac	-0.038349792
174	0x3c41bbde	0.011824576
175	0xbd670222	-0.05639852
176	0x3ccf2fa1	0.025291266
177	0x3d1741df	0.036928054
178	0x3e6121e2	0.21985582
179	0x3e2ade93	0.16686468
180	0xbe22ed0c	-0.15910739
181	0x3e5a64f1	0.21327569
182	0x3e2f28ab	0.17105357
183	0x3cee1da2	0.029066864
184	0x3dae64eb	0.08515342
185	0xbe7122d8	-0.23548448
186	0x3e21338f	0.15742324
187	0x3d3e64b2	0.04648275
188	0x3e265b8e	0.16245863
189	0xbd092c33	-0.033489417
190	0xbda24c66	-0.07924728
191	0xbda62ba9	-0.08113796
192	0x3e119b85	0.14219482
193	0xbd04c69d	-0.032415975
194	0x3e3cac2b	0.18425052
195	0x3e0a3de3	0.1350017
196	0xbd2a1207	-0.0415211
197	0xbe076020	-0.13220263
198	0xbcec4bd5	-0.028844753
199	0xbd1ce6bd	-0.038305987
200	0x3dba026a	0.09082492
201	0x3e5c7dab	0.21532314
202	0x3cfcdddc	0.03086751
203	0x3dfb0a84	0.12257865
204	0x3de13033	0.109955214
205	0xbe5acf75	-0.21368201
206	0x3d2cbf4c	0.042174622
207	0xbe0e54bb	-0.1389951
208	0x3e05bf0c	0.1306116
209	0x3dd5e63e	0.10444306
210	0x3d79cac3	0.060984384
211	0x3e4898e0	0.19589567
212	0xbdbfea4c	-0.093708605
213	0xbe0af324	-0.13569313
214	0x3e08d687	0.13363086
215	0xbe421aa9	-0.18955483
216	0x3dec89f2	0.115497485
217	0x3ba2730f	0.0049575637
218	0x3d2bb7e5	0.041923422
219	0x3dd972b5	0.10617582
220	0x3cb47b2f	0.022031395
221	0xbe6bd47b	-0.23030274
222	0x3db7bcf8	0.0897159
223	0xbe712466	-0.23549041
224	0x3e0aaf9f	0.13543557
225	0x3e08c803	0.13357548
226	0xbd1d79e5	-0.038446326
227	0xbe374fa1	-0.1790147
228	0xbd684b5d	-0.056712497
229	0xbdd0d41c	-0.10196707
230	0x3d7c803b	0.061645728
231	0xbe668298	-0.22510755
232	0x3e728e0f	0.23687004
233	0x3d27fa4e	0.041010194
234	0x3dcd6a1f	0.100300066
235	0x3e1f8e4e	0.15581629
236	0x3e83954a	0.25699836
237	0xbc4769d6	-0.012171229
238	0xbd86ff0c	-0.06591615
239	0xbe33a53d	-0.17543502
240	0xbda91507	-0.08255964
241	0x3e02a62b	0.127587
242	0xbbedc80f	-0.007256515
243	0x3dabb5f7	0.083843164
244	0x3e46fe92	0.19433048
245	0xbc9c88b3	-0.019108152
246	0xbdac22d8	-0.084050834
247	0xbe6b6604	-0.22988135
248	0xbe5a1a23	-0.21299033
249	0x3e008668	0.12551272
250	0x3e5cec89	0.21574606
251	0xbe3a533b	-0.18195812
252	0x3e1a323b	0.15058224
253	0x3d41b12c	0.047288105
254	0xbda02d3e	-0.07821129
255	0x3dfa5cf7	0.12224763

fc1.bias f4 [256]
0	0xbe7967ef	-0.24356054
1	0x3d009b91	0.03139836
2	0x3dc88905	0.097917594
3	0x3d249cee	0.040188722
4	0x3df40e4c	0.119167894
5	0x3e4eedae	0.20207855
6	0x3e356e42	0.17717841
7	0x3e33e6c9	0.17568506
8	0x3e3c21c7	0.1837226
9	0xbe677f89	-0.22607245
10	0xbe25fc74	-0.16209584
11	0xbe50b899	-0.20382918
12	0xbddccc1d	-0.10781119
13	0x3dd8b608	0.10581595
14	0xbe48839e	-0.19581458
15	0x3e6f39c7	0.23361884
16	0xbdd521eb	-0.1040686
17	0x3e49b74c	0.19698828
18	0xbe72476c	-0.23660058
19	0xbe151088	-0.14557087
20	0xbe221d07	-0.15831386
21	0x3db433c3	0.08798935
22	0xbe14cbaa	-0.14530817
23	0xbde1d87f	-0.110276215
24	0xbb7c7480	-0.0038521588
25	0xbd0a667c	-0.033789143
26	0x3def8a29	0.11696274
27	0x3cba3f1d	0.022735173
28	0xbe70c3d2	-0.235122
29	0x3d6cb3e2	0.057788737
30	0x3e1c605d	0.15271135
31	0x3c11d17b	0.008900042
32	0x3dac3d3a	0.084101155
33	0x3c612d80	0.013743758
34	0x3d5cbaaf	0.053888973
35	0xbe553216	-0.20819888
36	0x3e0da903	0.13834004
37	0xbcb62fe8	-0.02223964
38	0x3e3309d8	0.17484224
39	0xbe07facf	-0.1327927
40	0x3d2d42d5	0.042300064
41	0x3e4a9402	0.19783023
42	0xbe2e9721	-0.17049839
43	0xbe2e8c4c	-0.17045707
44	0xbe6fefe4	-0.23431355
45	0x3c9dd550	0.019266754
46	0xbe005219	-0.12531318
47	0xbd8b592c	-0.068041176
48	0xbe57e2ec	-0.21082658
49	0x3e2ea842	0.17056373
50	0x3e04eefa	0.12981787
51	0xbd5e3420	-0.05424893
52	0x3d8f1a6d	0.06987462
53	0x3db9273e	0.09040688
54	0x3c6059f7	0.013693324
55	0x3dfdac79	0.12386412
56	0xbe2be268	-0.16785586
57	0xbd0c3fb5	-0.034240443
58	0xbdc62750	-0.09675467
59	0x3d8c6f85	0.06857208
60	0xbd5aea2c	-0.05344598
61	0x3dd52bd4	0.1040875
62	0xbe104558	-0.14088953
63	0xbd22e920	-0.039773107
64	0x3dcf3d20	0.101190805
65	0x3e51ebd5	0.20500119
66	0xbe5977aa	-0.21237054
67	0xbd2588f4	-0.04041381
68	0xbe172b95	-0.14762719
69	0x3c6167c9	0.0137576545
70	0xbe244b60	-0.16044378
71	0xbe0cb2f6	-0.13740143
72	0xbdf55d2b	-0.11980661
73	0xbccf35e8	-0.02529426
74	0xbde94610	-0.113903165
75	0x3d8a1d1f	0.06743836
76	0x3e74acc8	0.23894036
77	0x3d2e1bda	0.04250703
78	0x3e743f8f	0.2385237
79	0x3de65575	0.112467684
80	0xbe359799	-0.17733611
81	0xbc3cf34e	-0.011532618
82	0xbe551303	-0.20808034
83	0x3e1a7b6d	0.15086146
84	0xbdc39c44	-0.0955129
85	0xbe5d119f	-0.21588753
86	0x3dff1ecc	0.12457046
87	0xbd23c962	-0.039986975
88	0xbca18ac9	-0.019719498
89	0xbe842051	-0.25805905
90	0xba8f1fe6	-0.0010919541
91	0x3d1ebfbf	0.038757082
92	0xbe5ca320	-0.21546602
93	0x3e373667	0.17891847
94	0x3d77e5b0	0.06052178
95	0xbdc484af	-0.0959562
96	0xbe2968eb	-0.1654393
97	0x3dcec21b	0.100956164
98	0xbe391742	-0.18075278
99	0xbe69af2f	-0.22820733
100	0x3d0a5d2f	0.033780273
101	0xbe47d586	-0.19515046
102	0x3c6ec800	0.014574051
103	0xbdf51ce1	-0.11968399
104	0xbe3026cc	-0.172023
105	0xbe156e7f	-0.14592932
106	0x3d51212e	0.051057033
107	0x3e105154	0.14093524
108	0xbe4f42bc	-0.20240301
109	0xbe762823	-0.24038748
110	0xbe2dd7ec	-0.16976899
111	0xbdc4ba39	-0.09605832
112	0x3dac388c	0.08409223
113	0x3d79d928	0.060998112
114	0xbe822296	-0.25417012
115	0x3b18c75c	0.0023312187
116	0x3e357071	0.17718674
117	0x3ddd6c68	0.108116925
118	0xbe0e1bd3	-0.13877802
119	0xbdb9d740	-0.09074259
120	0x3d99fde7	0.07519131
121	0x3e6cd979	0.23129834
122	0x3e6f3e88	0.23363698
123	0x3cb19710	0.021678478
124	0xbd9e5c0f	-0.077324025
125	0x3df05511	0.11734975
126	0x3cb7ee50	0.022452503
127	0xbe132810	-0.14370751
128	0xbd7504ad	-0.059818912
129	0xbd81eb88	-0.06343752
130	0x3daa3116	0.08310144
131	0xbe4fc76b	-0.20290916
132	0xbcf68c7a	-0.030096281
133	0xbded4e8c	-0.11587247
134	0x3e5b2185	0.21399505
135	0xbe166890	-0.14688325
136	0xbd4948d2	-0.049141712
137	0x3d4126e5	0.047156233
138	0xbd8643d2	-0.065559044
139	0x3e27b7f2	0.16378763
140	0xbda87f10	-0.0822736
141	0x3e48e06c	0.1961686
142	0xbd00e633	-0.031469535
143	0xbd19dbae	-0.03756302
144	0x3dfa5d90	0.12224877
145	0xbe7fde93	-0.24987249
146	0x3e22b326	0.15888652
147	0x3d86c281	0.065800674
148	0xbdeb8d37	-0.11501544
149	0xbd6b5645	-0.05745532
150	0xbcbca33f	-0.02302706
151	0xbe0fb17f	-0.14032553
152	0x3d74d0e0	0.05976951
153	0xbe7556cb	-0.2395889
154	0xbe64640b	-0.22303788
155	0x3e308834	0.17239457
156	0xbc1b1e93	-0.009467739
157	0xbe38030b	-0.17969911
158	0x3db45eaa	0.08807118
159	0x3c0036f0	0.007825598
160	0xbe03b550	-0.12862134
161	0xbd270db8	-0.040784568
162	0x3d99e549	0.07514436
163	0x3e0d2968	0.13785326
164	0x3e1da7bd	0.15396018
165	0x3e06b2f4	0.13154203
166	0xbe176808	-0.14785779
167	0x3db633e5	0.08896617
168	0x3e1e7ac7	0.15476523
169	0xbdbef056	-0.09323184
170	0xbcf98ade	-0.030461725
171	0xbde48bc1	-0.111594684
172	0xbe27ce3f	-0.1638727
173	0xbe5dc1f0	-0.21656013
174	0x3ddf5d5d	0.109064795
175	0x3e3e444e	0.18580744
176	0x3df84de6	0.12124233
177	0x3a9b9d38	0.0011872416
178	0xbe1ec0f3	-0.15503292
179	0x3e493407	0.19648753
180	0x3c872f70	0.016502112
181	0x3d890d4b	0.066919886
182	0x3e3ec1ce	0.18628618
183	0x3d9fe234	0.07806817
184	0x3dcd02ad	0.10010276
185	0x3e6eee46	0.23333082
186	0x3c245823	0.010030779
187	0xbe1e5b56	-0.1546453
188	0x3e5e4ef9	0.21709813
189	0xbe19a938	-0.15005958
190	0x3daab5fe	0.083354935
191	0xbe355bae	-0.17710754
192	0x3d4a69bc	0.049417242
193	0x3cd6088f	0.026127128
194	0xbe63f4a6	-0.22261295
195	0x3e1792dc	0.14802116
196	0x3e71ea66	0.23624572
197	0x3d924a4a	0.07143076
198	0xbd631e04	-0.055448547
199	0x3d48e168	0.04904309
200	0xbd1c7598	-0.038198084
201	0xbdd5357b	-0.10410591
202	0x3e455289	0.19269766
203	0xbdfd1a78	-0.12358564
204	0xbd9e2d99	-0.07723541
205	0x3e7169c7	0.23575507
206	0xbd930d0f	-0.07180225
207	0x3e33acc0	0.17546368
208	0xbe57df8f	-0.21081375
209	0xbe542b1e	-0.20719573
210	0xbe2f8880	-0.17141914
211	0x3d3a2eac	0.045454666
212	0xbe701639	-0.23445977
213	0x3da57496	0.08078878
214	0x3e440f5b	0.19146483
215	0xbd00710c	-0.03135781
216	0xbd418fe6	-0.047256373
217	0xbd0e1f94	-0.034698084
218	0x3e63e774	0.22256261
219	0xbdf2f275	-0.11862651
220	0x3d6027cb	0.05472545
221	0x3d8e4738	0.06947178
222	0xbe1b6ec4	-0.15178972
223	0xbce2c24b	-0.027680537
224	0x3c863a78	0.016385302
225	0xbe3f3682	-0.18673137
226	0xbe233d5c	-0.15941375
227	0x3e230b53	0.15922289
228	0x3e174300	0.14771652
229	0x3e386632	0.18007734
230	0xbe60435d	-0.21900697
231	0xbe353899	-0.17697372
232	0x3e1e5149	0.15460695
233	0xbdd5b27e	-0.10434435
234	0xbdf1e3dc	-0.11811039
235	0x3dc5c71d	0.096571185
236	0x3e286c98	0.16447675
237	0xbdc17b39	-0.09447331
238	0xbe620cef	-0.22075246
239	0x3df5e401	0.12006379
240	0x3d3ecb97	0.046580877
241	0x3e3b6a0e	0.18302175
242	0xbe461b4b	-0.19346349
243	0xbda90761	-0.082533605
244	0xbd9ac160	-0.075564146
245	0x3e2ca089	0.16858114
246	0xbb8b1a7a	-0.0042450996
247	0x3d79322b	0.06083886
248	0x3e68e5d2	0.2274392
249	0x3e4bc644	0.19899851
250	0x3de0c01d	0.10974143
251	0x3e42702a	0.189881
252	0xbe147b23	-0.14500098
253	0x3e59b1f7	0.21259294
254	0x3b99278c	0.004673904
255	0x3e6762c0	0.22596264

fc2.weight f4 [128, 256]
0	0xbd70f719	-0.0588294
1	0x3cdf5794	0.02726344
2	0xbd40fb18	-0.04711446
3	0xbd6023b7	-0.05472156
4	0xbd682fd2	-0.05668623
5	0xbc9986fc	-0.018741123
6	0xbd623aba	-0.055231787
7	0x3be167bc	0.006878821
8	0xbd6e83ab	-0.058231037
9	0xbd01d60a	-0.031698264
10	0x3d207348	0.03917244
11	0xbd2ecee7	-0.042677786
12	0x3d1c26b2	0.03812284
13	0x3c8e2577	0.017351849
14	0xbd12366b	-0.03569643
15	0xbd0de5a6	-0.034642838
16	0xbc12d471	-0.008961783
17	0xbd635a27	-0.055505898
18	0xbd3775af	-0.044789966
19	0x3d650e0c	0.0559216
20	0x3d1deea9	0.038557682
21	0x3b6b0c40	0.0035865456
22	0x3ba1b307	0.004934672
23	0xbcb62ae9	-0.022237258
24	0xbc737e88	-0.01486171
25	0x3c1c9dd0	0.00955911
26	0x3c67da1b	0.0141511215
27	0x3d22117b	0.039567452
28	0x3d761b63	0.06008471
29	0xbd837ebc	-0.06420657
30	0xbd6eb02b	-0.058273476
31	0xbbebe11b	-0.0071984655
32	0xbd47569f	-0.048666593
33	0xbd64ec5e	-0.05588948
34	0x3ccba571	0.024859162
35	0xbd7564ba	-0.059910513
36	0x3cc31c9c	0.023817353
37	0x3c014790	0.007890597
38	0x3d2001b7	0.039064135
39	0xbc31a638	-0.010842852
40	0x3ce0431f	0.027375756
41	0x3d5b618e	0.053559832
42	0x3ce54ccc	0.027990721
43	0xbd04a430	-0.032383144
44	0xbd25103c	-0.040298685
45	0x3bdf9c80	0.006824076
46	0xbd7e37c4	-0.0620649
47	0xbd465878	-0.048424214
48	0x3d070e0a	0.032972373
49	0xbbf13d20	-0.007362023
50	0x3d5a6507	0.053319003
51	0xbd2215dc	-0.039571628
52	0x3cd4a8e2	0.025959436
53	0x3d0cbf59	0.03436217
54	0x3d2db9ec	0.042413637
55	0xbd7897b9	-0.06069157
56	0xbc878390	-0.016542226
57	0xbd3322c9	-0.043734346
58	0x3cdde2c8	0.027085677
59	0x3b30a61f	0.0026954485
60	0x3ca04692	0.0195649
61	0xbd83c79a	-0.06434555
62	0xbcdb777b	-0.026790371
63	0x3cd78c50	0.026312023
64	0xbd2eae3e	-0.04264664
65	0x3d4e4243	0.05035616
66	0xbc680e3a	-0.014163548
67	0x3ca6dfb8	0.02037035
68	0x3d122cf6	0.03568741
69	0x3ccb67c5	0.024829755
70	0xbd4ec318	-0.050479025
71	0xbcf1d75d	-0.029521639
72	0x3c78b506	0.015179878
73	0xbc74826e	-0.014923675
74	0xbd329de5	-0.04360761
75	0xbd2e8aa4	-0.042612687
76	0xbc602950	-0.013681725
77	0xbd7d35a0	-0.06181872
78	0x3d5baeec	0.053633615
79	0x3d0594a8	0.032612473
80	0xbcd74944	-0.026280053
81	0x3d37bc7e	0.044857495
82	0x3bb647f0	0.005562775
83	0xbbbe6919	-0.0058108685
84	0x3cecfec8	0.028930083
85	0x3d2fc13f	0.042908903
86	0x3d3e70b8	0.046494216
87	0x3d18eca5	0.037335057
88	0x3c821f00	0.015883923
89	0x3d25e88d	0.04050498
90	0x3d2bd363	0.04194964
91	0x3cc28b0b	0.023747941
92	0x3c4d9933	0.012548733
93	0x3d5dd4c9	0.054158006
94	0x3cf5c81c	0.030002646
95	0xbd87192a	-0.065965965
96	0x3d605916	0.05477246
97	0x3ccc1255	0.024911085
98	0xbd68833a	-0.056765772
99	0x3cd9414c	0.026520394
100	0xba4d6ca7	-0.000783632
101	0x3c83c03c	0.016082875
102	0x3ca07388	0.01958634
103	0x3d15bc1e	0.036556356
104	0x3d02ac61	0.031902675
105	0x3cf7a454	0.030229725
106	0x3cf6e65c	0.03013914
107	0x3d322d58	0.043500274
108	0x3c924d9a	0.017859269
109	0x3d5416bf	0.051779505
110	0x3d37eac0	0.04490161
111	0x3c66a7d4	0.014078099
112	0xbcb0ca1c	-0.021580748
113	0xbca51260	-0.020150363
114	0xbc5a26ca	-0.013314912
115	0x3d5cfb72	0.053950734
116	0xbb8b6c89	-0.0042548818
117	0x3d601c58	0.05471453
118	0xbcd666ac	-0.026172005
119	0xbcf91c70	-0.030409068
120	0xbd2febbe	-0.04294943
121	0xbd6344ad	-0.055485416
122	0xbb5a3fe0	-0.0033302233
123	0xbbadf3d0	-0.0053086057
124	0xbd0502a2	-0.032473214
125	0xbcae6beb	-0.021291694
126	0xbd5862de	-0.052828662
127	0xbd4d87c0	-0.05017829
128	0x3cb9c238	0.022675619
129	0x3d177d09	0.036984477
130	0x3d85548c	0.06510267
131	0xbcc4d118	-0.024025485
132	0xbd1040bf	-0.035217997
133	0x3d074ce6	0.03303232
134	0x3ac0af00	0.0014700592
135	0x3c2ce570	0.010552749
136	0xbd881f2d	-0.06646571
137	0xbc84b735	-0.016200641
138	0xbd178ff8	-0.037002534
139	0x3d083544	0.033253923
140	0x3c384528	0.011246957
141	0xbd4cf36e	-0.05003684
142	0x3d437e52	0.04772789
143	0x3d329f6b	0.043609064
144	0xbc03dac9	-0.008047768
145	0x3b286830	0.0025696866
146	0xbd28e91a	-0.041237928
147	0xbd844774	-0.06458941
148	0xbd6be7c6	-0.057594083
149	0x3d426b26	0.047465466
150	0x3d3261c4	0.043550268
151	0xbcd45711	-0.025920423
152	0xbca6661c	-0.020312361
153	0xbd25ed29	-0.040509377
154	0xbd7a94f6	-0.061177216
155	0xbcdb5510	-0.02677396
156	0x3cfb3f18	0.030669734
157	0xbd71a551	-0.05899555
158	0xbd6538c1	-0.055962328
159	0x3d4f7c44	0.05065562
160	0xbce49a44	-0.02790559
161	0xbbf7375c	-0.007544441
162	0x3ccbde2e	0.024886217
163	0xbd863049	-0.065521784
164	0xbd596ee4	-0.05308427
165	0xbc828ab6	-0.015935283
166	0xbd3b4628	-0.045721203
167	0x3d4d9150	0.05018741
168	0xbd36a19d	-0.04458772
169	0xbc06ba71	-0.008223162
170	0xbb848118	-0.0040437095
171	0x3caf53dd	0.021402294
172	0x3ce3388d	0.027736926
173	0xbd835117	-0.06411951
174	0x3d11690b	0.035500567
175	0xbd74a3b8	-0.059726447
176	0x3d5b1be6	0.053493403
177	0xbc9792c9	-0.01850261
178	0xbca8b44a	-0.020593781
179	0x3d26f763	0.04076327
180	0xbd30fc70	-0.043209493
181	0xbc1398f8	-0.009008639
182	0x3d68ebce	0.056865506
183	0x3d1bff5a	0.03808532
184	0xbd42f1c5	-0.04759385
185	0xbb9ab800	-0.0047216415
186	0xbc1c62be	-0.009545026
187	0xbce63b00	-0.028104305
188	0xbd1fa5e0	-0.03897655
189	0xbd2fb690	-0.042898715
190	0x3cbc94f9	0.023020254
191	0x3cce41bf	0.025177835
192	0x3d16af48	0.036788255
193	0x3d758706	0.05994322
194	0x3d383149	0.044968877
195	0xbd6857ac	-0.056724235
196	0xbc3d35d8	-0.011548482
197	0xbd61aef1	-0.055098478
198	0x3d5cb628	0.053884655
199	0xbcfc2e3c	-0.030783765
200	0x3d0b372e	0.03398817
201	0xbd59bb54	-0.053157166
202	0xbc48369b	-0.01222005
203	0xbcbd738b	-0.023126384
204	0xbd565f59	-0.052337024
205	0xbd4e1d73	-0.050321054
206	0xbca6fd65	-0.0203845
207	0xbd7f75ed	-0.062368322
208	0xbd805029	-0.06265289
209	0xbd1a91de	-0.037736766
210	0xbcd4f118	-0.025993869
211	0xbc68e638	-0.014215045
212	0x3d258802	0.04041291
213	0xbc430030	-0.0119019
214	0x3d0d075c	0.034430847
215	0xbcf0f5a1	-0.029414
216	0xbd6cb574	-0.057790235
217	0xbd6f7bcf	-0.058467682
218	0x3d3a33c0	0.04545951
219	0xbca4c190	-0.020111829
220	0xbc0450f0	-0.008075938
221	0xb9801fad	-0.00024437663
222	0x3d6d923a	0.05800078
223	0x3bf9bb71	0.0076212217
224	0x3caae005	0.020858774
225	0x3adeb97f	0.0016992538
226	0xbd538b0e	-0.051646285
227	0xbbc8f0df	-0.0061322297
228	0xbc7c6606	-0.015405184
229	0xbb65c483	-0.0035059757
230	0xbd3eded2	-0.046599217
231	0xbcca00c4	-0.024658568
232	0x3d373ec7	0.044737604
233	0x3d04fae1	0.03246582
234	0x3d49d500	0.0492754
235	0xbd48ef46	-0.049056314
236	0xbd697398	-0.056995004
237	0x3d580f25	0.052748818
238	0xbcb5a010	-0.02217105
239	0xbb3e8b32	-0.0029074666
240	0xbc7461ed	-0.014915925
241	0x3d2fb870	0.042900503
242	0xbd62abc4	-0.05533959
243	0xbd531b61	-0.051539782
244	0x3c177e92	0.009246485
245	0x3d5520b2	0.052033134
246	0xbb23e794	-0.0025009857
247	0xbd727303	-0.059191715
248	0x39e83a36	0.0004429386
249	0x3d1fc0dc	0.039002284
250	0xbccca800	-0.024982452
251	0x3bb26346	0.005443963
252	0xbd518f70	-0.051162183
253	0xbd4e9988	-0.050439388
254	0xbb713e6d	-0.003681089
255	0x3d3365c8	0.043798238

fc2.bias f4 [128]
0	0x3c77db11	0.015127913
1	0x3d2f862a	0.04285256
2	0xbd08cc8c	-0.033398196
3	0xbd065bdf	-0.03280246
4	0xbcd5f6cc	-0.026118658
5	0x3cb263fb	0.02177619
6	0x3d5cec72	0.05393643
7	0x3d76ce90	0.060255587
8	0xbd37eae2	-0.044901736
9	0x3cb61a5f	0.022229372
10	0x3c9d36b5	0.019191125
11	0x3c2bdb14	0.010489244
12	0xbd040f84	-0.03224136
13	0xbc55f988	-0.013059981
14	0xbcd950d2	-0.026527796
15	0x3d1373b4	0.035999015
16	0xbd07147c	-0.03297852
17	0x3d248592	0.040166445
18	0x3d43f430	0.047840297
19	0x3d1b70b2	0.03794927
20	0x3d6dbb2c	0.05803983
21	0xbc77b17a	-0.015117997
22	0xbcd2800a	-0.02569582
23	0x3d623604	0.055227295
24	0xbd52b4f1	-0.05144209
25	0x3ce12a95	0.027486125
26	0x3d512029	0.05105606
27	0xbb7a9a7f	-0.003823906
28	0x3d76c442	0.06024576
29	0x3ca990d6	0.020698946
30	0xbd53921c	-0.051653013
31	0xbc79f398	-0.015255831
32	0x3d47fc08	0.04882434
33	0xbcf1fe60	-0.02954024
34	0xbcede8fb	-0.029041758
35	0xbbbab690	-0.0056980327
36	0x3d25b9a5	0.040460248
37	0xbb1d8540	-0.0024035722
38	0x3d5f1845	0.054466505
39	0xbb0fb69c	-0.0021928912
40	0x3d4028b2	0.04691381
41	0xbd20dda3	-0.03927387
42	0xbd4eb2aa	-0.050463356
43	0x3ba31125	0.004976409
44	0x3d74509d	0.05964719
45	0x3d59ac7a	0.053143002
46	0x3ceaf0a4	0.0286792
47	0xbd3a9ea6	-0.045561455
48	0x3d3e1f7a	0.046416737
49	0xba026100	-0.00049735606
50	0x3d5fdf16	0.05465611
51	0xbcf2eb86	-0.029653322
52	0x3d332c44	0.043743387
53	0x3d04d350	0.032428086
54	0x3ce17bc8	0.027524844
55	0x3c5d4301	0.0135047445
56	0xbd835b28	-0.06413871
57	0x3d67f89d	0.05663358
58	0xbd1fe4ce	-0.039036565
59	0x3d22a396	0.03970679
60	0xbcc731bb	-0.024315706
61	0xbc9d8490	-0.01922825
62	0xbd179b50	-0.037013352
63	0x3d2e6b36	0.042582713
64	0xb9e94000	-0.00044488907
65	0x3bc7396d	0.0060798437
66	0xbad074b5	-0.0015903922
67	0xbcfaefb0	-0.03063187
68	0x3d4b9f2e	0.049712352
69	0x3c11d5c0	0.00890106
70	0x3d577cbb	0.052609187
71	0x3cee2d26	0.029074263
72	0x3cc9b1b2	0.024620865
73	0xbd7900db	-0.06079183
74	0x3d3f5d9a	0.046720125
75	0xbd659b26	-0.056056164
76	0xbd5a18eb	-0.05324642
77	0x3d1b99f5	0.03798862
78	0xbc743659	-0.014905536
79	0x3ce3dd57	0.027815504
80	0xbd3975f1	-0.045278493
81	0xbd657aa0	-0.056025147
82	0xbc177d0d	-0.009246123
83	0x3ce00ed4	0.02735082
84	0xbd08a95f	-0.03336465
85	0xbd5f176e	-0.054465704
86	0xbb56fc44	-0.003280417
87	0xbd59994b	-0.053124707
88	0x3d20dc32	0.039272495
89	0x3c99bd6d	0.018767083
90	0xbd28d9a6	-0.04122319
91	0x3bc34558	0.005959194
92	0xbd7b46d6	-0.06134685
93	0xbd575f37	-0.05258104
94	0xbd025745	-0.031821508
95	0xbcefa900	-0.02925539
96	0x3ce6886d	0.028141225
97	0x3d65ac84	0.056072727
98	0xbcd1ea0d	-0.0256243
99	0xbd28b83a	-0.041191317
100	0xbc933365	-0.017968843
101	0xbd0ceef5	-0.034407575
102	0x3d4209b1	0.047372524
103	0x3bc353ec	0.005960932
104	0xbd0f960c	-0.035055205
105	0x3d48c80d	0.04901891
106	0xbcdf7088	-0.027275339
107	0xbd546c5a	-0.051861145
108	0x3cd0c5ac	0.025484882
109	0x3c726850	0.014795378
110	0x3cf00af1	0.029302092
111	0x3c9cc3ef	0.019136397
112	0x3d007b59	0.031367633
113	0x3c31a48e	0.010842456
114	0x3ca74856	0.020420235
115	0x3cbf1eb0	0.023330063
116	0xbd2d7cbc	-0.042355284
117	0xbd30ba84	-0.043146625
118	0xbd578b13	-0.052622866
119	0x3bee2710	0.00726784
120	0xbd4f181a	-0.050560094
121	0xbd08aed2	-0.033369847
122	0x3d0e552b	0.03474919
123	0x3c38da32	0.011282491
124	0xbc534ff4	-0.01289748
125	0xbd35a92d	-0.04435079
126	0xbcb3cd0c	-0.02194836
127	0x3d3587ec	0.04431908

value.weight f4 [1, 128]
0	0xbc22215a	-0.009895647
1	0x3d198696	0.037481867
2	0x3d9d82db	0.07690974
3	0xbb7a9bdb	-0.003823987
4	0x3d4408d6	0.04785999
5	0xbcb0a1d2	-0.021561537
6	0x3d0aa44b	0.03384809
7	0x3d55ac05	0.052166004
8	0xbd723d22	-0.059140332
9	0x3d2e06c3	0.042486917
10	0xbd239dda	-0.03994546
11	0x3d27e9c2	0.040994413
12	0xbd534c89	-0.05158666
13	0xbd824f7a	-0.06362815
14	0x3b127c12	0.0022351784
15	0x3c43bd89	0.011947044
16	0xbd99e407	-0.07514196
17	0x3d1cba76	0.03826376
18	0xbd916328	-0.07098991
19	0xbcf8e3ca	-0.030382056
20	0xbd9abaaf	-0.07555138
21	0x3d6f3d54	0.058408096
22	0xbd34d370	-0.044146955
23	0x3c1ef113	0.009701031
24	0xbd58f08e	-0.052963786
25	0xbd783645	-0.06059863
26	0x3d16a789	0.036780868
27	0x3d330a97	0.04371127
28	0xbcbc6094	-0.02299527
29	0xbca86af4	-0.020558812
30	0x3b9ae925	0.0047275
31	0xbd890d9b	-0.06692048
32	0xbcbb8004	-0.022888191
33	0x3d0bcd5c	0.034131393
34	0x3be5d825	0.007014292
35	0xb83286fb	-4.2564217e-05
36	0x38c1b2e2	9.236277e-05
37	0xbd51b994	-0.05120237
38	0x3ccd4d1f	0.025061188
39	0x3d865f6c	0.06561169
40	0xbcae2614	-0.021258391
41	0x3d94ea72	0.072712794
42	0x3c7664a9	0.015038648
43	0x3d649e0e	0.055814795
44	0xbd61cc36	-0.05512639
45	0xbc94ac76	-0.018148642
46	0x3d8d37a8	0.06895381
47	0x3d6c8664	0.057745352
48	0x3b717e20	0.0036848858
49	0x3b521620	0.0032056645
50	0x3d9058b7	0.07048171
51	0xbc37c225	-0.011215721
52	0x3d3a4506	0.045475982
53	0x39a89700	0.0003215596
54	0xbda4560f	-0.08024227
55	0xbb41ec88	-0.0029590447
56	0x3d42683b	0.047462683
57	0x3a9e3ff5	0.0012073504
58	0x3b78673a	0.0037903325
59	0x3da5823c	0.08081481
60	0x3d816506	0.06318097
61	0xbd618583	-0.055058967
62	0x3cc0c0b7	0.023529394
63	0xbd997fe9	-0.074951
64	0x3c34a9b0	0.011026785
65	0xbd873207	-0.06601339
66	0x3b83696b	0.0040103695
67	0x3d96d26b	0.07364353
68	0x3c85906a	0.016304214
69	0x3d6df76b	0.058097284
70	0x3cbda634	0.02315054
71	0x3d922c2e	0.07137333
72	0xbd6a2feb	-0.057174604
73	0xbb7e2bd5	-0.003878345
74	0x3b94f065	0.004545259
75	0xbd0ed822	-0.03487409
76	0x3b98ac95	0.0046592453
77	0x3912a296	0.00013984213
78	0x3cb39294	0.02192048
79	0xbcfc0098	-0.030762002
80	0xbcec7b43	-0.02886737
81	0xbbc8c410	-0.006126888
82	0x3cf79aa4	0.030225106
83	0x3d6fd23c	0.058550104
84	0xbda266a1	-0.07929731
85	0xbceb4ce6	-0.028723191
86	0xbd1324a6	-0.035923623
87	0x3d43bf26	0.047789715
88	0x3d89aaa3	0.067219995
89	0xbd31a7f9	-0.04337308
90	0x3d701ded	0.05862229
91	0xbc84140b	-0.016122838
92	0x3d6d1f6c	0.057891294
93	0x3d51c28c	0.051210925
94	0x3d0eb73b	0.03484271
95	0x3cbc855a	0.023012806
96	0xbd9a21a8	-0.07525951
97	0xbd78d5ab	-0.060750645
98	0x3c11261b	0.008859183
99	0xbd37bcc7	-0.044857766
100	0x3ce682aa	0.028138477
101	0xbc4e8fa6	-0.012607491
102	0x3da5336f	0.08066451
103	0x3d1fced9	0.039015625
104	0x3b97f172	0.004636937
105	0xbd5a744a	-0.05333356
106	0x3c18acf5	0.00931858
107	0x3d59aa06	0.053140663
108	0x3cdedf84	0.02720619
109	0x3d5ba7ca	0.053626813
110	0x3d4fb467	0.050709154
111	0xbc8edf4a	-0.017440457
112	0x3c62f263	0.013851735
113	0xbcccef7c	-0.025016539
114	0xbc350181	-0.011047722
115	0xbd15d994	-0.03658445
116	0x3c9b98d6	0.018993776
117	0x3d4032a6	0.046923302
118	0xbc9da92b	-0.019245705
119	0x3d7408e9	0.05957881
120	0x3d013f3c	0.031554446
121	0xbd68261d	-0.056676973
122	0xbc868f71	-0.01642582
123	0xb8e9f0b6	-0.00011155142
124	0xbc98c152	-0.01864687
125	0x3d8c6926	0.06855993
126	0x39cb787e	0.0003880895
127	0x3cdb0488	0.02673556
