kinova-ros/kinova_scripts/src/best_model_episode_10/actor.pth (torch, 155649 bytes, 7 tensors)

log_std f4 [7]
00000000: f1d6 b63c b839 0e3d 0d16 ed3c 8f56 1cbc
00000010: 02f9 fd3c bc49 283d 3bac 243d
0.022319289 0.034723014 0.028941179 -0.009542122 0.031002525 0.041085944 0.040203314

fc1.weight f4 [256, 17]
00000000: 4457 e73d ced5 f3bd 9564 0fbd 698b d03d
00000010: 8383 5dbe 23a5 083e aa2d 1bbd d31a e43d
00000020: b34a 3b3d 2fd5 2abd e25b a23d ab66 c43c
00000030: 4fd1 9c3d b72a dabd b73e f3bc 4ff8 20bc
00000040: 352e 413d 62be 053d 168a 7b3e f86e 2b3d
00000050: 4c3d 68bd 0971 38be 429d e6bb 4e8c 0dbe
00000060: 5660 34bd 68ef b4bc 507d 363e e6bf c83d
00000070: be9c 8abe 2b6c 3c3e f099 cf3d 0e03 873e
00000080: 2d7c 013e 7e64 82be b123 6cbe a294 efbd
00000090: b215 5a3e 5479 25bd b092 d43d 04d4 e6bd
000000a0: 1cb1 733e 9228 d2bd aa3f 3a3e 8038 3c3b
000000b0: aad6 02be 5c51 ff3d 26d5 03be ec15 923d
000000c0: f06d 8fbd c8d3 d9bc 58c4 6ebe dcd2 ecbd
000000d0: 44c4 063e b07a 71bd 1660 773e 6614 473e
000000e0: 3010 3abc 14c6 25be 5e3d 173e 8c28 9a3d
000000f0: e48a 20be 9051 213e 14c7 163e 2044 5c3e
00000100: f737 0bbe 1c86 23bd c0f4 99bb e818 113d
00000110: 767b 3cbe 443d 30be 681b 073e 4cf3 68bd
00000120: 8ca1 f23d 608a 623c d817 a33d 7071 5a3d
00000130: c49a b43d d839 f63d 8401 66be 6c05 fa3d
00000140: 0ea0 2ebe 1f63 3bbe 80a8 713c 7449 29bd
00000150: a0dd 113e 04d5 0fbe d0c8 5cbe 00bf 343e
00000160: 984e 13bd 9cb0 0b3e 80af 9f3d 843c 3abe
00000170: d893 473d 189e 6e3d 0a4a 26be 30ad ebbd
00000180: f45d a93d e8f1 313d c049 d3bd e85c 96bd
00000190: 2477 633e 10ce 37bd bf81 473e 2106 273e
000001a0: 6606 5cbe 6fb9 17be 23e9 323e b2e8 903d
000001b0: f880 dd3d 51e4 dd3d dc33 a33c 1bff 743e
000001c0: 1c08 303e df49 60be 4911 b53d ffd2 743e
000001d0: e966 6f3e 1e9c bd3d da37 6fbe c641 24be
000001e0: 189d 07be 65eb 843c 900e 833e 1f77 2bbe
000001f0: 35ee 123e 6a0c 18be 56ed 5abe 77bb 86bd
00000200: 4fae 1d3e c0fe 573e dbd2 28be a0f5 883d
00000210: 10e2 643e ad28 333e 6c32 0c3e b6e8 213e
00000220: 12d0 723e 16df 153e ed8d 7fbe 5dac f5bd
00000230: a285 47be a537 633d 7bf4 6dbe 6b92 303e
00000240: 627b 0dbc 68e0 eb3c 1a61 1c3c 6c8f aebb
00000250: f958 6d3e a9fa 7c3e 5381 ce3a 56ee 1c3e
00000260: 22d7 e4bd 4085 08bc 326b 6abe a4d8 1fbe
00000270: 3a17 11be 9c74 d4bd ea92 303e fe50 a2bd
00000280: 9697 39be 381c bf3d 4808 9f3d b0db 203e
00000290: 7e84 00be c063 573d 24d4 b4bd 9c32 5fbd
000002a0: 7beb 45be e261 e2bd 481f 98bd 7869 d43d
000002b0: 087d 353d 8064 753d cae2 773e 180e 723e
000002c0: 0c64 293e c012 fd3b 96cf 2bbe ce17 423e
000002d0: 646b 78bd b0a0 a0bc 77f5 55be e43a 44bd
000002e0: d92f 20be 5c37 643e 9bb5 56be 52e3 4dbe
000002f0: 44da a5bc c3fb f3bd fe21 993d f199 a6bd
00000300: d3f2 00be 5aeb d23c df7c 273e 3c67 22be
00000310: bda9 d03d 26d9 2b3e 5e3d 7f3e 4b21 3abe
00000320: 2e67 3f3d 86f0 43be 1c55 603e a015 a8bd
00000330: 2499 153e 209b ec3b c8bd 9abc a095 fdbb
00000340: 80e0 283d 0826 ea3d 5853 1f3d 5486 973d
00000350: 1d67 5fbe deef 343e 7688 583e fc4a 4d3e
00000360: 3a97 373e ca38 33be aa21 b8bd 70fb 5a3e
00000370: b029 3dbe 7450 613e d654 43be c6f1 2ebe
00000380: 00d5 f23d 0071 32be 3898 63bd 64ad 343e
00000390: 6cb8 443e 72e2 6a3e 5c95 49bd aa09 41be
000003a0: d488 743e 30a0 53bd 7a5d ccbd d82b 723d
000003b0: 88ae 2dbe 643d 233e 34a7 1b3e f210 45be
000003c0: 3ffe 4bbe 880a aebc d0a1 d03d 802c e6bb
000003d0: 3bdf fbbd 80b2 b53b 3270 69be 5787 2fbe
000003e0: 0954 25be 7287 4c3e 7ced 5a3e 84b7 a8bd
000003f0: e038 323c e485 dd3d 300f ee3c 42b6 51bd
0.112959415 -0.119060144 -0.035008032 0.101828404 -0.21632199 0.13344245 -0.037885346 0.11137929
0.045725536 -0.041707214 0.079276815 0.023974737 0.0765711 -0.106526785 -0.02969299 -0.009824826
0.047163207 0.032652266 0.24564394 0.041853875 -0.056699082 -0.1801187 -0.0070377896 -0.13823053
-0.044037186 -0.022086814 0.1782124 0.09802227 -0.2707271 0.18400638 0.10136783 0.26369518
0.12645026 -0.25467294 -0.2306049 -0.11698271 0.21297339 -0.04039891 0.10379541 -0.112709075
0.2379803 -0.102616444 0.18188348 0.00287202 -0.127772 0.1246669 -0.12874278 0.071330875
-0.07003391 -0.026590243 -0.23317087 -0.11563656 0.13160807 -0.058954895 0.24157748 0.19441375
-0.011356398 -0.16188842 0.14769503 0.07527265 -0.15677983 0.1575377 0.1472438 0.21510363
-0.13595568 -0.03992282 -0.004698366 0.035424143 -0.18406472 -0.17210871 0.13194048 -0.05687265
0.11847219 0.0138269365 0.07963532 0.05333084 0.08818582 0.120227516 -0.22461516 0.122080654
-0.17053244 -0.1829953 0.014749646 -0.041329816 0.142447 -0.14046103 -0.21560979 0.17650986
-0.035963625 0.1364159 0.07797146 -0.18187147 0.04872498 0.05825624 -0.16239181 -0.11507642
0.08269873 0.04344359 -0.10316801 -0.07341939 0.22213417 -0.04487425 0.19483088 0.16310932
-0.21486816 -0.14816831 0.17471747 0.07075633 0.108156145 0.108345635 0.01992219 0.2392544
0.17190593 -0.2190318 0.088411875 0.23908614 0.23379101 0.092582926 -0.2336115 -0.16040716
-0.1324352 0.016225526 0.25597048 -0.1674466 0.14348681 -0.14848486 -0.21379599 -0.06578725
0.15398525 0.21093273 -0.16486685 0.06687474 0.22351861 0.17495985 0.1369111 0.15811428
0.23712185 0.14635882 -0.24956484 -0.11995766 -0.1948457 0.05547299 -0.23237793 0.17243354
-0.008635374 0.028793529 0.009544635 -0.005327156 0.23178472 0.24704994 0.0015755094 0.15325293
-0.11173846 -0.0083325505 -0.22892454 -0.15609986 -0.14169016 -0.10373804 0.17243543 -0.07925604
-0.18124232 0.09331554 0.077652514 0.15708804 -0.12550542 0.052585363 -0.08829525 -0.054491624
-0.1932811 -0.11053826 -0.074278414 0.10371679 0.044308692 0.059910297 0.24207607 0.23638189
0.16542071 0.0077231824 -0.16778407 0.18954393 -0.06064929 -0.019607872 -0.20894419 -0.047907725
-0.15643252 0.22286743 -0.20967714 -0.20106247 -0.020245679 -0.11913254 0.074771866 -0.08134831
-0.1259263 0.02574699 0.16356228 -0.15859693 0.10188625 0.16782054 0.24925753 -0.18176763
0.04672926 -0.19134721 0.21907467 -0.0820725 0.146092 0.007220641 -0.018889323 -0.007738784
0.041229725 0.11433035 0.038897842 0.07398668 -0.21816678 0.17669627 0.21145806 0.20048136
0.17928782 -0.17502132 -0.08990796 0.21384978 -0.18472934 0.22003347 -0.19075331 -0.17084417
0.11857033 -0.17425919 -0.05556509 0.17644268 0.19210976 0.22937945 -0.049214706 -0.18851343
0.23880321 -0.05166644 -0.09978767 0.059123844 -0.1696111 0.15941387 0.15200502 -0.19244745
-0.19921206 -0.021245256 0.10187113 -0.007024348 -0.12298437 0.0055449605 -0.22796705 -0.17141472
-0.16145338 0.19973543 0.21379656 -0.08238128 0.010877818 0.10816553 0.029059976 -0.051199205

fc1.bias f4 [256]
00000000: a2e2 ff3d 36d0 dd3c 5c37 9e3d 88c9 8abd
00000010: cb17 2ebe 8808 253e 09aa 8d3c d87e 483e
00000020: e0fd 8d3c f851 52bd c876 62bd 6de9 1abe
00000030: 482f 423d 684c 7a3d 92f0 c6bd eb5a a0bd
00000040: 9a2e 443e 509f 873d f550 ff3d ccaf 10be
00000050: 1476 313e ccaa 4c3e 3775 cd3d 009c 973e
00000060: aa25 593e 2084 743e 35f8 23bd e29b 87bd
00000070: b46a 123d c9c5 fabd a0a9 ff3d eb6a 3abd
00000080: 3417 a93d 6ca3 073e 497d 213d 4afe 613e
00000090: 3412 53bd 9d55 2f3e 472c 7c3e 3dfa 15be
000000a0: 0071 49bb 545e 403e 3196 45be a2a3 00be
000000b0: f2a6 74be 80e3 2c3e bab2 273e 3ddb 813c
000000c0: 5e40 953c a142 6fbe b110 493e 981d efbd
000000d0: 893d 393e 2d00 01be 3069 28be ec6e 2e3e
000000e0: c06a ed3d 2a37 4c3b 1e44 c6bd 64d2 06be
000000f0: ea8b 873e ea65 a9bd d816 573d 7a57 653e
00000100: 1869 75bd f468 e9bd 5070 55bd 00c9 a93c
00000110: 486f d4bc d001 863d e789 0d3e db9f 5ebe
00000120: 381f fb3d 67da a23a d52d 56be a1d9 d5bd
00000130: 663a b13d 587c 963e 4714 a93e f267 babd
00000140: 5c4c 29be ecb3 413e 5039 493e 81c5 6a3e
00000150: ee86 65be 8047 273d 38a8 603d 88c2 943d
00000160: 406b 3abe 8760 c43d 50ff c3bd 5859 1b3e
00000170: 664e 23be 1c28 523e 78b1 8b3d 5235 113e
00000180: bd63 5abd 9c9c 3b3d cb5e 1a3e 76b9 ccbd
00000190: a56c e63d 8cb3 4b3e fed1 c43d 0410 503e
000001a0: 1118 fbbd 1d38 25be 1251 c2bd 12bc 0cbe
000001b0: f346 453e 89eb f43d fa7d 6cbe 9b44 2fbe
000001c0: ea85 5fbe fcaf a23d 918c 053e 34b8 ac3d
000001d0: 1e9b 8cbd 4397 883e fc6e 3e3e ab72 60be
000001e0: a2ad 1cbe b657 e63d 4a28 29be 6079 143d
000001f0: 7cbe f13d e6c5 ccbd e633 7a3e 2b35 22be
00000200: ca0d 1bbe f418 24bd 6996 23bd 51c8 cf3d
00000210: eac6 1abe b846 773e c322 47be 42e7 9ebd
00000220: e88d 803d 7013 963d 0021 f73d 2b98 a03c
00000230: b8c5 363d 14f9 0ebe 3c9c a2bd a08d 0a3c
00000240: b2d6 5fbe 0416 09be ee96 103e 5cb7 59be
00000250: 92b7 873e 6695 eebd ee1e c5bd a8ee 123e
00000260: 8b46 fbbc b86d 823d b05c 9b3e 88c4 3e3e
00000270: 4815 493e 33ab 24be ac12 683e 4ef1 8d3d
00000280: 9a98 e53d 7b3f 913c b2fa b3bd 8cbe afbd
00000290: 6702 cf3d 907a 3fbe 7098 6ebe da8c 323e
000002a0: 43d6 62bc ea3a 56be 6bb0 21be c038 503d
000002b0: 0c0d bcbd a6a1 95bd 6050 1dbe bc19 e9bd
000002c0: 1bd8 3d3e d0a0 ab3e 9637 023e baf6 c33d
000002d0: 20f4 b13c 7c73 41be 8e1a 93bd 7cb9 0b3e
000002e0: 4dc0 28be 256a 593e f9f4 6dbd 1440 1bbe
000002f0: f9d9 273e fa95 693e 2e6a a03e 83b2 9abd
00000300: 847f 51be c8ed 253e 996c d9bd 6e76 263e
00000310: ec08 a83e 4021 1bbb 40f1 793e 478a f1bd
00000320: 8bd4 8b3e f615 8a3e 28ca aa3e 0811 833d
00000330: fc4b 173e 2c3e 0ebe 5359 f13d d63d 033e
00000340: a508 d13d 06e3 2b3e 1cda bc3d 0e58 4b3e
00000350: 1e6c 45be 489f 993d a3db 33be 88f4 5e3d
00000360: 2ed4 603e 2b94 9cbd d6d4 d1bd 7adc acbd
00000370: 6a4f 563e 5ac3 713d 0a74 8bbc 98e9 d1bc
00000380: 402e 963b 0297 7dbd 9055 ecbb d980 6cbd
00000390: 48f1 9e3e 3107 913e fb11 563e 2861 83bd
000003a0: ab9a 92bd ad9f 9b3e 94ff 1abe be20 fbbd
000003b0: b48a 263e 9e03 863e 98f2 353e 657a 0a3e
000003c0: a213 413d 2bc6 18be 302e 0a3d 302d ef3d
000003d0: ccd0 d2bd 781e b2bd f3ec 523e f723 f3bc
000003e0: 2a0a 433d c25c 20be 449a 35bd 2a79 1d3e
000003f0: 0ffa 4c3e 301a 343d dd7d 453e fea6 433e
0.12494399 0.027076822 0.07725403 -0.0677672 -0.17001264 0.16116536 0.017292993 0.19579637
0.017332971 -0.051347703 -0.05528906 -0.15128107 0.047408372 0.061108023 -0.09713854 -0.07829841
0.19158402 0.06622183 0.12466613 -0.14129561 0.173302 0.19987029 0.100321226 0.29611206
0.21205774 0.23878527 -0.04003163 -0.06621529 0.03574629 -0.12244756 0.12483525 -0.04551212
0.08256379 0.13245934 0.03942612 0.2206966 -0.05153103 0.17122503 0.24626265 -0.1464624
-0.003073752 0.18785983 -0.19295575 -0.12562421 -0.2389181 0.1688366 0.16376773 0.015851611
0.01821917 -0.2336526 0.19635274 -0.116755664 0.1808988 -0.12597723 -0.16446376 0.17034501
0.115926266 0.003116081 -0.09680961 -0.13166195 0.26473933 -0.08271392 0.05251202 0.22396651
-0.05991468 -0.11396971 -0.052109063 0.020725727 -0.02593197 0.065433145 0.13822137 -0.21740668
0.12261814 0.0012424708 -0.20915921 -0.104419 0.08653717 0.29391742 0.33023283 -0.09101857
-0.16533035 0.18916291 0.19650769 0.22926904 -0.22414753 0.040839672 0.054847926 0.072636664
-0.18204975 0.09588724 -0.09570181 0.151708 -0.15947875 0.20523113 0.06820959 0.14180496
-0.053317774 0.04580365 0.15075223 -0.09996311 0.11251191 0.1989271 0.09610365 0.2031861
-0.1226045 -0.16134687 -0.09488119 -0.13743618 0.19265346 0.11958987 -0.23094931 -0.17116015
-0.21828428 0.079437226 0.13041903 0.084335715 -0.06865524 0.26677904 0.18597025 -0.21918742
-0.1530061 0.11247198 -0.16519275 0.036248565 0.1180391 -0.09998684 0.2443386 -0.15840594
-0.15141979 -0.04006286 -0.039938364 0.10145629 -0.15114942 0.24148071 -0.19446854 -0.07758953
0.062770665 0.07327926 0.12066841 0.01960381 0.044622153 -0.13962203 -0.079399556 0.008456618
-0.21859244 -0.13387305 0.14120075 -0.21261352 0.2650724 -0.11649589 -0.0962504 0.14348853
-0.030673286 0.063685834 0.30344152 0.18629658 0.19637024 -0.16080932 0.22663373 0.06930791
0.11210747 0.017730465 -0.08788051 -0.08581266 0.1010788 -0.18699098 -0.23300338 0.17436543
-0.013845029 -0.20920911 -0.15789954 0.05083537 -0.09182176 -0.073062226 -0.15362692 -0.113818616
0.18539469 0.33521128 0.12716517 0.09568544 0.021722853 -0.1889171 -0.07182799 0.13644975
-0.16479607 0.21231897 -0.058094952 -0.15161163 0.16391744 0.22811118 0.3133101 -0.0755358
-0.204588 0.16203988 -0.106164165 0.16256115 0.32819307 -0.0023670942 0.24408436 -0.117939524
0.27310595 0.2696988 0.33357358 0.06399733 0.1477508 -0.13890904 0.11784615 0.12816557
0.10206727 0.16785821 0.092212886 0.19857809 -0.19279525 0.075010836 -0.17564254 0.054432422
0.2195594 -0.07645448 -0.10245673 -0.0844049 0.20928732 0.059024192 -0.017023105 -0.025624081
0.00458315 -0.06191159 -0.0072123483 -0.057740066 0.31043458 0.283258 0.20905297 -0.064150155
-0.07158407 0.3039526 -0.15136558 -0.122621045 0.16263849 0.26174635 0.17768323 0.13523252
0.047137864 -0.14919345 0.033735454 0.11678541 -0.10293731 -0.08697218 0.20598201 -0.029680235
0.047617115 -0.15660384 -0.044336572 0.15378252 0.20017265 0.043970287 0.19286294 0.19106671

fc2.weight f4 [128, 256]
00000000: 3c51 ae3c 129a 963c 6275 7c3d 387d 863c
00000010: d036 3c3d 1652 193d 56a5 82bd 66e6 59bd
00000020: 7796 043d a22c 753d 98c2 c8bc 0c4d 453c
00000030: 70d1 513d 5e3c 4fbd 90f7 b9bc 3465 2e3d
00000040: e876 30bc 0e50 0f3c c8b5 0d3c 80b4 5f3c
00000050: 0c69 6e3d 2ad4 5f3d aa22 83bd 7351 8e3b
00000060: 2c0d b13b 9c46 4fbb 8902 05bd 384a 603c
00000070: 2229 febc ccd3 f93c 2c5d 843c 0fe1 e53c
00000080: c090 a3bb 2c7b 88bc f854 143d 94e0 223d
00000090: 3faf 263c 0f54 93bd 4193 603c 4023 aa3b
000000a0: 9e49 7dbd b8ce 7abd e02d 163c 08f9 40bc
000000b0: 5eb9 433d 508c 8f3b bc1f 4cbd c1c9 b5bc
000000c0: 38f7 b33c 00d9 703c a12c 343d 247d 3e3d
000000d0: ee87 fd3b 46d3 393d 6ef2 1abd 8086 a83b
000000e0: 1c93 06bd 00b3 e0bc 7565 6abb ad82 fb3c
000000f0: c3e8 c7bc 1815 cb3c ec1e 463d d61a 5abb
00000100: f066 03bc 1472 3cbd cf88 3fbd 8010 fa3a
00000110: b8ce 4b3c 803f a8bc 89e0 8bbd 26de 17bd
00000120: 1cee 153d 59f7 79bc ccf4 7dbd 7b9f 8dbd
00000130: 27ee 27bd aff4 8bbd 00bb 0e3d 5a91 413d
00000140: b0b0 debb a4cc 2a3d a0be 363c d59c 14bd
00000150: c090 7fbb 7468 b1bc cc39 a5bc 12ff 1d3d
00000160: a087 6ebc 0d17 843c 3231 053d 5e00 1c3d
00000170: 005c 823b 00fb 5a3b 4e81 143d ad19 3bbd
00000180: 9f79 38bc d544 b03b 5d40 86bc 7d2c bebc
00000190: ad06 9b3c 5c00 6a3c 20c3 67bd e811 76bc
000001a0: 74cd 19bd 0b50 aa3c 705f 243c 705f da3b
000001b0: 51e9 953c 211a 87bc 7acc 293d 705c 2cbc
000001c0: ae9f 0d3d 24f7 e03c 450c 2f3d 036c adbc
000001d0: 40c2 093c 08e7 95bd 6e6c 553d f020 a13b
000001e0: 4857 ac3c a547 8cbd 085a 1fbc deba 563d
000001f0: 0d14 2cbd 8968 b53b d349 c93c b290 0b3d
00000200: 8e78 6d3d 6e05 00bd a1f7 64bd 9574 c23b
00000210: 205a 1abc f25d 66bd cb17 90bd b0f7 503d
00000220: d438 0abd ec49 5e3d bcc4 32bd af9b 9f3c
00000230: 1c16 c3bc 6a53 073d 4a59 763d c473 583d
00000240: 32f8 01bd 002a 8ebc 1fe9 53bd 1074 29bc
00000250: d998 e33b 7ec8 2f3d 1c6b f4bc 80b6 243d
00000260: 917a ccbc c09c b73a 9c4d 59bd b088 703c
00000270: d0b4 003c 5eda ea3c 1e98 373d 1d83 1f3d
00000280: 9bdc c73c d452 5abc 5481 cf3c 0dce 0d3d
00000290: 0d92 043d 3481 233d 3c19 a7bc 00cb 293b
000002a0: 7718 19bd d618 013d ee00 d9bc 3cb5 7cbd
000002b0: 573f 20bd 88fb 43bd 681a 593c 0a38 393d
000002c0: 841e 77bc c2fc 18bd 488b 9fbc f71b 7ebd
000002d0: 009d e53c e6b5 163d ecbd 35bd c281 373d
000002e0: 0474 af3c 8b02 89bd 9ade d43c 5e74 85bc
000002f0: ffa8 36bd e02c fa3c 4a12 37bd bfbf 75b7
00000300: ace3 753d 4ad5 0e3d 0d0c e83c 6c99 0bbd
00000310: 9e83 46bd 38fc a73c 1302 38bc a257 0a3d
00000320: b42f 303d a4cf 1a3d 82f1 d23b 5433 27bd
00000330: e099 943b 25f7 80bb 0b59 4dbd 2b28 a1bc
00000340: 82ce 7fbb 4446 65bd e0ab e63b ac6b 66bd
00000350: 2471 053d 0ab4 07bd e817 bd3c 30e6 0bbc
00000360: 7d7c 4abd 3f7d 823b e885 3fbd 79af da3c
00000370: 5036 8e3b 7174 c53a e531 e13c f038 2b3d
00000380: bcba 4d3d 15ca f23c 83e4 aebc d357 4dbc
00000390: eb1c 86bd 1eaa 053b dfe2 2ebc 16b7 3a3d
000003a0: 7397 083d a1cb b0bc 0437 04bd 8788 f73c
000003b0: 4707 ad3a 57e2 36bd 6c20 26bd 92e5 96bd
000003c0: 4a64 863c 4f67 3a3c 091e b73b 760f 053d
000003d0: 2ae7 13bd fcf1 743d 4ec6 9c3c 6209 063c
000003e0: 319b c9bc 1256 88bd 3856 5f3c 2059 9739
000003f0: c7af f5ba 7cc3 f93c 52c6 29bd 908e 6f3d
0.02127897 0.018384013 0.061635382 0.01641713 0.04595071 0.0374318 -0.063791916 -0.05319824
0.032370057 0.05985702 -0.024506852 0.012042295 0.051225126 -0.05059468 -0.022701055 0.042576984
-0.010770537 0.008747114 0.008649297 0.013653874 0.05820565 0.054645695 -0.06403096 0.0043432056
0.0054031815 -0.003162778 -0.03247312 0.01368957 -0.031025473 0.0304965 0.016157709 0.028061418
-0.004991621 -0.016660295 0.036213845 0.039764956 0.010173618 -0.07193767 0.013706983 0.0051921904
-0.061837785 -0.0612323 0.009166211 -0.011778124 0.0477842 0.00438074 -0.04983495 -0.02219093
0.021968469 0.014700174 0.043987874 0.046506062 0.0077371513 0.0453675 -0.037828855 0.005142987
-0.03285514 -0.027429104 -0.003576604 0.03070196 -0.024402982 0.024790332 0.048369333 -0.0033280156
-0.008020148 -0.04600723 -0.04676133 0.0019078404 0.012439422 -0.020538092 -0.06829936 -0.03707709
0.036604032 -0.015256726 -0.062001035 -0.06915184 -0.040998604 -0.06833779 0.034846306 0.04725776
-0.006795965 0.041699067 0.011153847 -0.03628238 -0.003899619 -0.021656252 -0.020169161 0.038573332
-0.014558703 0.016124273 0.03251762 0.038086288 0.0039782524 0.0033413768 0.036256127 -0.045678783
-0.0112594655 0.005379299 -0.016388113 -0.023214573 0.018924082 0.014282312 -0.05658257 -0.015018918
-0.03754945 0.02079012 0.01003252 0.006664209 0.01829973 -0.016491951 0.04145477 -0.010520086
0.03457611 0.027461596 0.04273631 -0.021169668 0.008408129 -0.07319456 0.05210536 0.0049172565
0.021037713 -0.068496026 -0.009726055 0.052424304 -0.04201131 0.005536143 0.024571335 0.03407354
0.057976298 -0.03125518 -0.05590022 0.005934308 -0.009420902 -0.056241937 -0.07035788 0.051017463
-0.0337456 0.054269716 -0.04364465 0.019483415 -0.023814254 0.033038534 0.060143746 0.052844778
-0.031730838 -0.017354012 -0.051735993 -0.010342613 0.006945711 0.042915814 -0.02983623 0.040213108
-0.024960788 0.0014008507 -0.05305253 0.014681026 0.007855609 0.028668579 0.044822805 0.0389434
0.024397185 -0.013325412 0.025330223 0.034620333 0.032365847 0.03991814 -0.020397775 0.002590835
-0.037376847 0.031517826 -0.026489701 -0.061696276 -0.039122906 -0.0478473 0.013250925 0.04521946
-0.015082959 -0.037350424 -0.019475594 -0.062038388 0.028028965 0.036794566 -0.044370577 0.04480148
0.021417625 -0.06689938 0.025985051 -0.01629084 -0.04459476 0.030538976 -0.044695176 -1.4647782e-05
0.060031578 0.034871377 0.028326059 -0.03408186 -0.048465364 0.02050601 -0.011230963 0.03377498
0.043014243 0.037795678 0.0064374814 -0.040820435 0.004534945 -0.003935712 -0.050133746 -0.019672474
-0.0039033 -0.055975214 0.007039532 -0.056255028 0.032578602 -0.033130683 0.023082688 -0.008538768
-0.049435128 0.0039822157 -0.046758562 0.026695 0.0043399706 0.001506461 0.027489612 0.041802347
0.050226912 0.029637376 -0.021349197 -0.012533146 -0.065484844 0.0020395587 -0.0106742075 0.04558476
0.03334756 -0.021581473 -0.03227903 0.030216468 0.0013201021 -0.04464945 -0.040558264 -0.07368006
0.016405243 0.01137717 0.0055882973 0.032485448 -0.036109127 0.059801087 0.019137528 0.008180948
-0.024610134 -0.066570416 0.013631396 0.00028867368 -0.0018744402 0.030488722 -0.0414489 0.058485568

fc2.bias f4 [128]
00000000: c3fb 8abd 1718 81bd 5824 9c3c 45af 803c
00000010: fd80 293d 9c75 4a3d a5b5 b03c dc0d f33c
00000020: 1003 b33c ef40 18bd 5867 42bc f06a 0ebd
00000030: aa06 463c 6007 49bd c9e9 283c 569d 353d
00000040: b4c4 11bd 08f1 923c 135d 10bd 083e 403c
00000050: 36af b4bc 46d2 373d 79cf 8a3b 82e7 053d
00000060: 0228 0ebc bc53 2e3d 30cf 2bbd 7233 593c
00000070: 9a9f 173d 80b1 debb c8bb 9c3d 8ecb 42bd
00000080: 4457 833d 8550 ca3d 03b7 44bc 0893 5c3d
00000090: a8ac a93d 214d 373b 70f3 2a3d 2891 683c
000000a0: e675 703d edb8 9e3d e42c 9ebc 89dc a33d
000000b0: 9605 6a3d 1041 823b f8c1 b2bc a028 03bb
000000c0: 505e c0bc ebd1 60bd d28f 383d 6f60 03bd
000000d0: 2c78 1d3d d0ac 6b3c 64fa 993c bad4 b33d
000000e0: 2476 16bd 619e 54bc 9abd a83c 327c 353d
000000f0: 486e 3fbc 843d ac3c afde 433d d002 21bc
00000100: 25f8 c93c cc08 8f3d 3fd5 173d 624d 5f3c
00000110: 8c7c aabc 1e4e 5f3d 65dd 2c3d 31cc 3c3d
00000120: e446 a6bc 30cf cc3c d6ed 4b3d e1bf 7bbd
00000130: 2c1d 4e3d d4e2 52bd 5844 943d fab0 1abd
00000140: 28c3 ac3d 8c28 ab3d 2ebf 41bd 7756 d33d
00000150: fe95 61bd aa75 653d 4045 6a3d 2038 23bd
00000160: 43f5 e03c 4248 41bd 9045 57bd d246 b23d
00000170: 21ed 14bd 90a3 e4bc 941d 783d fe41 053d
00000180: 055d 7cbd 0eb5 47bd 0017 c639 8067 84bc
00000190: d08f 4f3c 53f6 e6bc db81 893b a63a 32bd
000001a0: abf7 93bd 1d44 72bd 904d b13b 4250 473d
000001b0: b2f5 22bd ea6d 4fbd 79f4 de3b b078 b03d
000001c0: 5099 a53b b831 953d 84f1 d53d 0cbc 503c
000001d0: b678 41bd 6060 f33c 78e4 463c b67d eb3c
000001e0: e412 9a3c 6c20 55bd da67 50bd 9676 a03d
000001f0: 585b c2bb eaf2 1ebd e495 5c3d 207f 30bd
-0.06786301 -0.06303423 0.019060299 0.015708575 0.04138278 0.049428567 0.02157099 0.029669695
0.021852046 -0.0371713 -0.011865459 -0.034769952 0.01208655 -0.0490793 0.010309645 0.0443395
-0.03558798 0.017937198 -0.035245012 0.011733539 -0.022056203 0.044878267 0.0042361584 0.032691486
-0.008676531 0.042560324 -0.041945636 0.013256894 0.037017442 -0.006796062 0.07653004 -0.047557406
0.06413129 0.09878639 -0.012006524 0.053851157 0.08284885 0.0027969556 0.041736066 0.014194764
0.058706187 0.077501155 -0.019308515 0.08001048 0.057134233 0.003975041 -0.021821007 -0.0020013228
-0.023482472 -0.054887693 0.045059033 -0.032074388 0.038444683 0.014384463 0.018796153 0.08780809
-0.03673376 -0.012977214 0.020598222 0.044307895 -0.011684008 0.021025427 0.04781979 -0.009827331
0.024654457 0.069841 0.0370686 0.013629289 -0.020811342 0.054517858 0.042203326 0.04609317
-0.020297475 0.025001138 0.049787365 -0.061462287 0.05032079 -0.05148585 0.07239598 -0.037766434
0.084356606 0.08357343 -0.047301464 0.10319226 -0.055074684 0.056020416 0.05719495 -0.039848447
0.0274607 -0.04718805 -0.052556574 0.08704914 -0.036358956 -0.027910024 0.060575083 0.03253364
-0.061612148 -0.04875665 0.0003778264 -0.016162634 0.012668565 -0.028193628 0.004196388 -0.043512963
-0.07224973 -0.05914699 0.0054108575 0.048660524 -0.039785095 -0.05064193 0.0068040458 0.08616769
0.0050536767 0.07284874 0.10446456 0.012740146 -0.04723426 0.029709041 0.012139432 0.028746467
0.018807836 -0.052032873 -0.05088029 0.078351185 -0.005931299 -0.03880588 0.053853884 -0.043089986

mean.weight f4 [7, 128]
00000000: b740 0ebd c378 0bbd d471 963c 624f 613d
00000010: f6d2 703a a770 b03d 52e5 9ebc e56e d2bd
00000020: 1086 b2bc 40dd 933d fda6 8dbd 1866 263c
00000030: 0c08 903d bd2f 5bbd 5bf9 08bd 2ef7 3fbd
00000040: 9bdc 70bd f07e d93b fc24 0fbd d560 c6bd
00000050: b6ea 613d f230 33bb 4cb4 0b3d bb16 f13c
00000060: 7f73 253d 95f3 993d 88d0 05bc ddca c8bd
00000070: 863d 20be bbd8 8f3d 3e77 63bd 706e 9d3b
00000080: 2eeb 37bd a2b5 57bd b7f0 843d 6699 253d
00000090: 75af 18be 55ee 27bd e0b3 df3c a32a a33d
000000a0: 2875 f9bc e3d0 87bd 8f9b 1cbd dd1b 82bd
000000b0: d9a6 afbd be4b 283d cc90 983d e2c3 2b3d
000000c0: a8e1 2a3d b15a 813d 97ed f6bd 7a1f 473d
000000d0: 36bf 593d 0ad2 b3bd 48bf 0dbd 0202 ccbd
000000e0: 7a0a debc 22ec 6d3d 8520 bfbd 7c3e 06bd
000000f0: 1ed9 adbd 9818 75bc 0071 4abd 80bf 21ba
00000100: ae03 a9bd d916 d8bd e827 82bd 4ee8 a03d
00000110: 2063 a9bc c032 953c ae93 09be 4bae b5bd
00000120: a22d 283d e082 1b3b d046 2e3c 6698 c0bd
00000130: b40c 55bd 7a3c 7fbd 8fee f7bd f285 193d
00000140: 1429 1fbe d9f0 d6bd c65b 36bd eaee a8bd
00000150: 3f1f 81bd f09a 18be 6806 fc3c e41e d43c
00000160: 5108 13be 8bb9 863d 2021 3fbb ad64 96bc
00000170: e3eb 22bd 130d 983d f880 91bc d8b4 bd3c
00000180: bebc 29bd 60f2 043c 1f73 cb3c a815 93bd
00000190: ebe7 6dbd 1b1c 933d 4e82 423d d04a 103d
000001a0: 926c eb3b 2294 4e3d 8ec3 93bd 2f35 a7bd
000001b0: 882d f63c 2316 463d 620b 3a3d 245f a3bd
000001c0: 6eb1 2a3d 80be 2ebd 1d2a 63bd e350 8d3c
000001d0: ec93 853c c3eb 10bd 0413 85bc 6f31 7c3d
000001e0: 929b 523d 5547 833d 46f4 9abd fb94 a8bd
000001f0: bcd4 75bd 2e49 413d 095a f4bd 6b0c 283d
00000200: cfe5 4b3d 9652 873d 663f 85bd 2324 193d
00000210: beb0 73bd d653 3a3d f13c 16bd cadc 56ba
00000220: 9829 64bc 4d05 b3bd 741c 85bc 0871 b1bd
00000230: 685f 1bbc c93c 853d 46d0 c6bb a855 31bc
00000240: 6cc8 fc3c 6eaa 033d e040 b3bc b31f 123e
00000250: 33b9 20bd a045 a23d 4b10 1abc b915 a4bd
00000260: e2f2 d9bc 1d7e 803d 780a 0c3d 09bf ba3d
00000270: 3389 023e 84ac 0ebd 0a8c 973d f582 813d
00000280: 759b a83c 3708 e73d cdd1 803d e398 b03d
00000290: f80b 933d 5369 3cbd 6005 2a3b 84d0 3cbd
000002a0: 7023 acbb 86a1 db3d 2ef1 d33c 9880 fb3d
000002b0: 4784 9b3d c02b c5bb 0260 aebd fbdf 8fbd
000002c0: b163 33bc 1f65 bc3d 5ac2 9b3d e162 5ebd
000002d0: 32d1 39bd b233 adbd 7052 dc3b 077c 043e
000002e0: c87e abbc 8ae4 afbd e721 103e 9abc 543d
000002f0: 6abf 90bd 4e35 633d bd49 513a 4254 4cbd
00000300: 2ff2 52bc b5d2 9e3d 76de dc3d 0388 01bd
00000310: 080a 00bc 48e1 a4bc 8d3c 473c b4c1 be3d
00000320: 467c 94bd 54d4 c13c d489 91bd 0d75 da3d
00000330: cd9b 89bd c521 873d 3b24 183d c4bb 66bd
00000340: ba1f 53bc 08ef e13b 6d66 66bd 898c b7bb
00000350: 9858 1a3c 2d36 fe3d 00fd ac3a f550 983d
00000360: eeda 083e 80f2 853c 1ee5 313d dcbf cfbc
00000370: 1784 b2bc e636 413d 3608 233d ee5a 363d
00000380: 2625 85bd fc72 a3bd ac8f 97bd 37c8 71bd
00000390: eb10 6d3d a973 0dbd c7f4 a3bc 648f c2bc
000003a0: 63ac 7bbd 536f 46bd 98b2 c0bc d5ea b43d
000003b0: c46f ba3c e853 86bc 68ba 1d3d f6c1 533d
000003c0: 4a96 633d 262f 86bc a423 073e f245 a73d
000003d0: 4037 5f3b a878 043d f104 883d 4da8 583c
000003e0: 5451 63bd e429 873c b547 b43d 9362 a33b
000003f0: 1980 c33c 9c17 d5bc 8ff4 f13c c2ba 273d
-0.034729686 -0.034050714 0.018364824 0.055007346 0.0009186709 0.08615237 -0.019396458 -0.10275058
-0.021792442 0.072199345 -0.06916616 0.010156177 0.07032785 -0.053512324 -0.03344093 -0.04686659
-0.058804136 0.0066374466 -0.03494738 -0.09686438 0.05515548 -0.0027342406 0.03410749 0.029429784
0.04039335 0.07517163 -0.0081673935 -0.09804318 -0.1564847 0.0702376 -0.05553364 0.004804425
-0.04490202 -0.052663453 0.06491225 0.040429495 -0.14910682 -0.040998776 0.02730745 0.07967117
-0.030451372 -0.06631639 -0.03823429 -0.06352971 -0.085767455 0.04108786 0.07449493 0.041934855
0.04171911 0.06316126 -0.120570354 0.048614003 0.05316087 -0.08780296 -0.03460625 -0.099613205
-0.027104605 0.058086522 -0.093323745 -0.032774433 -0.084886774 -0.014959477 -0.04942417 -0.00061701983
-0.08252655 -0.10551233 -0.06355268 0.078568086 -0.02067715 0.018212676 -0.13435242 -0.08871134
0.041059144 0.002372913 0.010637 -0.09404068 -0.052014068 -0.062313534 -0.12106048 0.037481256
-0.15543014 -0.10495157 -0.044521116 -0.08248694 -0.06304788 -0.14902854 0.030764773 0.025893636
-0.14358641 0.06578358 -0.002916403 -0.018358553 -0.03977574 0.07424369 -0.017761692 0.023157522
-0.041439764 0.008114427 0.024835167 -0.07181865 -0.058082502 0.07183095 0.04748755 0.035227597
0.0071845734 0.05043424 -0.072150335 -0.08164441 0.030051008 0.048360955 0.04542101 -0.07977131
0.041673116 -0.042662144 -0.055460084 0.017250484 0.016305886 -0.03538109 -0.016244419 0.06157058
0.051417895 0.0641009 -0.07566123 -0.08231541 -0.060017332 0.04718893 -0.11931235 0.041027468
0.04977971 0.06607549 -0.06506233 0.03738798 -0.059494726 0.04549011 -0.036679212 -0.0008196352
-0.013925932 -0.087412454 -0.01624892 -0.08664137 -0.009483196 0.065057345 -0.0060673086 -0.010823645
0.030857287 0.032144956 -0.02188152 0.14269905 -0.03923912 0.07923436 -0.009403299 -0.08011956
-0.026605073 0.06274054 0.03418967 0.09118468 0.1274765 -0.034832492 0.07399757 0.06323806
0.02058194 0.11280864 0.06290016 0.08622911 0.07180017 -0.045998883 0.0025943145 -0.046097293
-0.005253248 0.107241675 0.02587184 0.12280387 0.07593589 -0.0060171783 -0.08514406 -0.07025143
-0.010949061 0.09198975 0.07605429 -0.054293517 -0.04536552 -0.08457126 0.0067236945 0.12937938
-0.020934477 -0.08588512 0.14075433 0.051937677 -0.07067759 0.055470757 0.0007983705 -0.049885042
-0.012875124 0.07755033 0.107846186 -0.03162385 -0.007814892 -0.020126954 0.0121604325 0.0931429
-0.07250266 0.023660816 -0.07106367 0.10666857 -0.0671917 0.06598238 0.037143927 -0.05633141
-0.012885982 0.00689495 -0.056250025 -0.00560147 0.009420536 0.12412677 0.0013197958 0.07437316
0.13364765 0.016350985 0.043431394 -0.02536004 -0.021791501 0.047171496 0.039802752 0.04452031
-0.06501226 -0.07980916 -0.0740045 -0.05902883 0.057877462 -0.03453413 -0.02001418 -0.023750015
-0.061443698 -0.04844601 -0.02352266 0.08833853 0.022758372 -0.016397431 0.03850785 0.051698647
0.05556325 -0.016379904 0.1319719 0.08167638 0.0034060031 0.03234163 0.066415675 0.01322372
-0.055497482 0.016499467 0.088027395 0.004986116 0.023864793 -0.026012234 0.02953556 0.04094959

mean.bias f4 [7]
00000000: 62ae 7abc 49a7 d03d 5970 04bd 9139 7abd
00000010: fb24 1bbd a534 a3bb 6089 afbd
-0.015300365 0.10188157 -0.032333706 -0.061090056 -0.037877064 -0.004980641 -0.08571124
