kinova-ros/kinova_scripts/src/best_model_episode_10/critic.pth (torch, 152335 bytes, 5 tensors)

fc1.weight f4 [256, 17]
0	0x3e66488d	0.22488613
1	0x3d7a0943	0.06104399
2	0xbeb4daa4	-0.3532306
3	0x3ea9f691	0.33195928
4	0xbda01565	-0.07816581
5	0x3e2aa1c8	0.16663277
6	0xbe0af359	-0.13569392
7	0x3eb31602	0.34977728
8	0xbe822be7	-0.2542412
9	0x3e5bca88	0.21463978
10	0xbdebb0a8	-0.11508304
11	0xbe2069f6	-0.15665421
12	0x3e4bb628	0.19893706
13	0x3e821233	0.2540451
14	0xbd617a23	-0.05504812
15	0xbe26c301	-0.16285326
16	0xbdb389dc	-0.08766529
17	0x3da2a5c8	0.079417765
18	0x3e38e37a	0.18055525
19	0x3de93d30	0.11388624
20	0x3dea5868	0.114426434
21	0x3e6e37fc	0.23263544
22	0xbe208b50	-0.15678144
23	0x3e41ca28	0.18924773
24	0xbe60eb7b	-0.21964829
25	0x3dd45c1c	0.10369131
26	0xbe6284b5	-0.22120936
27	0xbdb8f0ce	-0.09030305
28	0x3bfa8100	0.0076447725
29	0x3cb2bbb0	0.021818012
30	0xbd002ec4	-0.0312946
31	0xbde6be3c	-0.11266753
32	0xbe35d35e	-0.17756411
33	0x3d06c2c8	0.0329006
34	0xbbe8677e	-0.0070924154
35	0x3d82a72f	0.06379544
36	0xbde0dccd	-0.109796144
37	0xbd62c6be	-0.055365317
38	0xbe95bab6	-0.29244012
39	0x3e7e20f9	0.24817266
40	0xbebcab74	-0.36849558
41	0x3e0fd74a	0.1404697
42	0xbec44355	-0.3833262
43	0x3d31ab8c	0.04337649
44	0xbe7432c5	-0.23847492
45	0xbe86a48f	-0.26297423
46	0xbd8e83f2	-0.0695876
47	0x3ea45e30	0.3210311
48	0x3c046d0d	0.00808264
49	0x3da95a47	0.08269172
50	0xbdf67d43	-0.120356105
51	0x3e045bc9	0.12925638
52	0x3eb6822b	0.35646185
53	0xbe1e637c	-0.15467638
54	0x3ebcfad9	0.36910132
55	0xbe9b33d3	-0.30312976
56	0x3d9b2a05	0.07576374
57	0xbeaaabbb	-0.33334145
58	0x3de0f33f	0.109838955
59	0xbe11facd	-0.14255829
60	0x3cc2bd8a	0.02377202
61	0x3d18ee7f	0.037336823
62	0xbeb86217	-0.36012337
63	0x3d50b9b8	0.050958365
64	0x3df982ef	0.12183177
65	0x3da7b847	0.08189445
66	0xbe1247cd	-0.14285202
67	0x3b9db5c9	0.0048129302
68	0x3e8a40a0	0.2700243
69	0x3dd703ff	0.10498809
70	0xbe8f034e	-0.2793221
71	0xbd1aa1b1	-0.037751857
72	0xbe3de198	-0.18543088
73	0x3e12f859	0.1435255
74	0xbe931dfb	-0.2873381
75	0x3e5e5568	0.21712267
76	0xbe707f83	-0.23486142
77	0x3ea4892f	0.32135913
78	0xbe804197	-0.2505004
79	0xbe45d612	-0.19319943
80	0x3ea2cd54	0.31797278
81	0x3e4d828c	0.20069331
82	0x3b0ce69a	0.0021499754
83	0xbe5fcfe1	-0.21856643
84	0xbe7ee338	-0.24891365
85	0x3e9082af	0.28224704
86	0x3e373a0c	0.17893237
87	0xbd6c9bac	-0.057765648
88	0x3e210891	0.15725924
89	0xbe817c6e	-0.25290245
90	0x3d73c206	0.059511207
91	0xbe8c2d27	-0.27378199
92	0x3e264797	0.16238247
93	0xbe8c0e77	-0.27354786
94	0xbda9ff35	-0.0830063
95	0x3ceae119	0.028671788
96	0xbec3556c	-0.3815111
97	0x3ea3b3f0	0.3197322
98	0x3e561cb2	0.20909384
99	0x3eac3ec4	0.33641636
100	0x3bd11bc1	0.0063814824
101	0xbe790010	-0.2431643
102	0x3e1401ae	0.14453766
103	0x3e46ee4c	0.1942684
104	0xbe35dd00	-0.17760086
105	0x3e1a6ea4	0.15081269
106	0x3b774180	0.003772825
107	0xbe3eaf08	-0.18621457
108	0x3e5bc242	0.21460822
109	0xbd8352f8	-0.064123094
110	0x3dc7b9d4	0.09752241
111	0x3d811144	0.06302121
112	0x3d41d928	0.047326237
113	0x3d40e3b0	0.04709214
114	0x3e5faee8	0.21844065
115	0xbdb5a2de	-0.08868955
116	0x3e175e48	0.14782059
117	0xbce084e0	-0.02740711
118	0xbe72afef	-0.23699926
119	0x3cb33035	0.021873573
120	0x3eae7dcf	0.3408036
121	0xbe6c7a88	-0.23093617
122	0x3e9295ed	0.2863001
123	0xbd0db653	-0.034597706
124	0x3e1a0bc8	0.15043557
125	0xbea21e94	-0.31663954
126	0x3e752f23	0.23943762
127	0xbe52af76	-0.20574746
128	0x3e0f8234	0.14014512
129	0x3d40546a	0.046955504
130	0xbe2ef80b	-0.17086808
131	0x3e71706b	0.2357804
132	0x3de00eea	0.10940345
133	0x3d73caaf	0.059519466
134	0x3d84550e	0.064615354
135	0xbe5114ea	-0.20418134
136	0xbe31cc40	-0.17363071
137	0xbe74698b	-0.23868386
138	0xbb9813e0	-0.004641041
139	0xbb5c3f40	-0.0033607036
140	0x3d9f7ce4	0.07787493
141	0x3c7d14a0	0.015446812
142	0x3e0cbce4	0.13743931
143	0x3dd282e4	0.10278872
144	0xbe1574b7	-0.14595304
145	0xbe07723c	-0.1322717
146	0x3d328658	0.04358515
147	0x3e2cf6b2	0.16890982
148	0xbdea8a4c	-0.11452159
149	0xbe00645e	-0.12538287
150	0xbe6ffc3c	-0.23436064
151	0x3d5200b0	0.051270187
152	0xbd74c644	-0.059759393
153	0xbdfa8c59	-0.122338004
154	0x3d26ba98	0.040705293
155	0x3d3c45f8	0.045965165
156	0x3d90b4c8	0.07065731
157	0x3dd69a04	0.10478595
158	0x3d8b24e4	0.06794146
159	0x3e5852cc	0.21125335
160	0xbdba1d78	-0.09087652
161	0xbd1626cc	-0.036658093
162	0xbe23268f	-0.15932678
163	0x3dea2b24	0.1143401
164	0x3dd15fc0	0.10223341
165	0xbd447c38	-0.047970027
166	0xbcdaef40	-0.026725411
167	0x3d5f4780	0.054511547
168	0x3e0ee142	0.13953117
169	0xbddb7632	-0.10715903
170	0xbe5c5236	-0.21515736
171	0x3de492d4	0.11160818
172	0x3db2d210	0.087314725
173	0xbd8426a4	-0.064526826
174	0x3e36a658	0.17836893
175	0x3e655010	0.22393823
176	0x3e5e87a6	0.21731433
177	0xba8fae00	-0.001096189
178	0xbe22926a	-0.15876165
179	0xbe27a7c2	-0.16372588
180	0xbe1d8a84	-0.15384871
181	0x3e0df44e	0.13862726
182	0x3dfc219c	0.12311098
183	0xbd979304	-0.07401088
184	0xbd4ae5a4	-0.04953541
185	0x3e762f98	0.24041593
186	0xbdbb7a68	-0.091542065
187	0xbcef4e20	-0.029212058
188	0xbc73eb90	-0.014887705
189	0xbe71482f	-0.23562692
190	0xbe4e28a5	-0.20132692
191	0x3b5bc200	0.003353238
192	0xbe23b6c3	-0.15987687
193	0xbd7baf58	-0.061446518
194	0xbcc2b3e8	-0.023767427
195	0x3de354e8	0.11100179
196	0x3e5855a0	0.21126413
197	0xbce76760	-0.028247535
198	0x3df24774	0.11830035
199	0xbe1c693e	-0.15274522
200	0x3c1da2e0	0.009621352
201	0x3dfc7224	0.12326458
202	0xbdf021a4	-0.117251664
203	0xbe4ffd2a	-0.20311418
204	0xbdb90572	-0.09034242
205	0xbd5ff1a8	-0.05467382
206	0x3e23fefa	0.16015235
207	0x3e2d4a50	0.16922879
208	0x3de85540	0.11344385
209	0x3db16110	0.08661091
210	0x3d2b2780	0.041785717
211	0xbe0bc9af	-0.13651155
212	0x3e1d7622	0.15377095
213	0xbe5f9b4a	-0.21836582
214	0xbdcf5b94	-0.10124889
215	0xbc7148e0	-0.014726847
216	0x3e0cf094	0.13763648
217	0xbdc27914	-0.0949575
218	0xbe596341	-0.21229269
219	0x3df2f490	0.11863053
220	0x3da85d24	0.0822089
221	0x3e55b253	0.20868807
222	0x3e822eda	0.2542637
223	0xbdbbb6cd	-0.09165726
224	0xbdff4807	-0.1246491
225	0xbbcef18e	-0.0063154167
226	0x3dc17b25	0.09447316
227	0xbe594d17	-0.21220814
228	0x3e923f30	0.28563833
229	0xbe3199d3	-0.17343836
230	0x3e88d748	0.26726747
231	0xbdaa256a	-0.083079174
232	0x3dbca4ea	0.09211142
233	0xbdc62e1b	-0.09676763
234	0x3e6176a5	0.22017916
235	0x3d4484f8	0.04797837
236	0x3d927045	0.0715032
237	0xbbc430c0	-0.0059872568
238	0x3e7b5b95	0.24546655
239	0x3c1a1917	0.009405396
240	0xbd74e9d1	-0.059793297
241	0xbdd3695f	-0.10322832
242	0x3cb0dfc8	0.021591082
243	0x3e8f712d	0.28016034
244	0x3d39f91d	0.04540359
245	0x3e8d5a2c	0.27607858
246	0xbe01bc45	-0.12669475
247	0x3ebc94db	0.36832318
248	0x3d31e2ac	0.04342906
249	0xbe058b9c	-0.13041538
250	0x3e9dcf13	0.30822048
251	0x3ea441d6	0.3208148
252	0x3ebec440	0.37259102
253	0xbe6993af	-0.22810243
254	0x3d04ced4	0.03242381
255	0xbd8826d4	-0.06648031

fc1.bias f4 [256]
0	0x3cad3714	0.021144427
1	0xbe2655c6	-0.16243657
2	0x3ebb7544	0.36612904
3	0x3e16bed2	0.1472123
4	0x3e83e582	0.25761038
5	0x3cde2b5b	0.027120283
6	0x3d1ecc68	0.038769156
7	0x3ea62979	0.32453516
8	0x3e4e6dea	0.20159116
9	0xbe7513fc	-0.23933405
10	0xbced8d50	-0.028998047
11	0xbc69e7e0	-0.014276475
12	0x3e0cb43c	0.13740629
13	0x3e4a7e05	0.19774635
14	0x3e9642ef	0.2934794
15	0x3d4d70b0	0.050156295
16	0x3e69ad14	0.2281993
17	0xbdaad062	-0.08340527
18	0x3bf68bdc	0.0075239968
19	0x3eaf378e	0.34222072
20	0xbcde742a	-0.027155
21	0xbd1b5f90	-0.037932932
22	0xbc27df39	-0.0102460915
23	0x3de73c42	0.1129079
24	0x3e5afef4	0.2138632
25	0x3ec89741	0.39177898
26	0x3de88083	0.11352637
27	0x3e8cfa99	0.2753494
28	0xbd628918	-0.055306524
29	0x3e906270	0.28200102
30	0x3e0af76f	0.13570951
31	0x3e3041e4	0.17212635
32	0x3eb93140	0.36170387
33	0x3e97e977	0.29670307
34	0xbe2d1888	-0.16903889
35	0xbe0c9634	-0.13729173
36	0x3ea8c34d	0.32961503
37	0xbd491b56	-0.049098335
38	0x3de13c71	0.109978564
39	0xbe144bd6	-0.14482054
40	0x3e134b73	0.1438425
41	0xbe2ac81c	-0.16677898
42	0x3a32e70d	0.00068245904
43	0x3e3c36c8	0.18380272
44	0x3de06e40	0.109585285
45	0xbd4f7f08	-0.050658256
46	0x3e43d99e	0.19125983
47	0x3eb6f145	0.3573095
48	0x3d374593	0.044744086
49	0xbe7608ed	-0.24026842
50	0x3c91da70	0.017804354
51	0xbe6d01d1	-0.23145224
52	0xbd908be4	-0.07057932
53	0xbd7823a2	-0.060580857
54	0x3d1018e8	0.035180002
55	0xbe7735e1	-0.24141647
56	0x3e9c871f	0.3057184
57	0x3dde5cfd	0.1085758
58	0xbc2027b2	-0.009775089
59	0x3e60fe84	0.2197209
60	0xbd7e2b5c	-0.06205307
61	0x3e1531ee	0.14569828
62	0x3e423cfe	0.18968579
63	0x3ea58f68	0.32335973
64	0x3e80affe	0.2513427
65	0x3ded48da	0.11586161
66	0x3d322308	0.04349044
67	0xbe5889f9	-0.21146382
68	0x3c962f3a	0.018333066
69	0xbe2d2087	-0.1690694
70	0x3e0a03af	0.13477968
71	0x3eb64c4f	0.35605094
72	0xbcae6ed0	-0.021293074
73	0x3e19e1b2	0.15027502
74	0x3e1683e6	0.14698753
75	0x3e752a84	0.23942
76	0x3d0960f4	0.033539727
77	0x3d169900	0.036767006
78	0xbe4d26dc	-0.20034355
79	0xbc9bcfd8	-0.019020006
80	0x3e30df14	0.17272598
81	0x3e826319	0.2546623
82	0xbc7d2bf0	-0.01545237
83	0x3b14e60c	0.0022720126
84	0x3c2eab00	0.010660887
85	0xbdebff4e	-0.11523305
86	0xbdddab3e	-0.108236775
87	0x3eb64687	0.35600683
88	0x3e781790	0.24227738
89	0x3bebc8fe	0.007195591
90	0xbdb4ab6c	-0.08821759
91	0xbb85c920	-0.004082814
92	0xbe64eaf5	-0.22355254
93	0xbd0b8ceb	-0.034069937
94	0x3e6d017e	0.231451
95	0x3d91e1f0	0.07123172
96	0xbcf4dd59	-0.029890703
97	0xbbfdce20	-0.0077455193
98	0xbd9220aa	-0.071351364
99	0x3e816e00	0.25279236
100	0x3e957602	0.29191595
101	0xbd1378a5	-0.036003727
102	0xbd4f2e4c	-0.05058126
103	0x3e8b6af7	0.27230045
104	0xbd0beec5	-0.034163255
105	0x3d8ab1d0	0.06772196
106	0x3cb53036	0.022117715
107	0x3e162a2a	0.14664522
108	0x3e2b05b1	0.1670139
109	0x3e06722c	0.1312949
110	0x3dcedf00	0.101011276
111	0xbdb4f048	-0.088348925
112	0x3eb9ff03	0.3632737
113	0xbdc38011	-0.09545911
114	0x3e10cf7a	0.14141646
115	0x3d2d535c	0.042315826
116	0xbcb5455b	-0.022127798
117	0x3e455228	0.19269621
118	0x3cbee582	0.023302797
119	0x3cae1320	0.021249354
120	0xbc91c540	-0.017794251
121	0xbe0ebd82	-0.13939479
122	0xbd95e2b4	-0.07318631
123	0x3ce930e0	0.028465688
124	0xbd1e1a1c	-0.03859912
125	0xbc6923da	-0.014229739
126	0x3e3a760f	0.18209098
127	0x3e3e83b2	0.18604925
128	0x3b6bc770	0.0035977028
129	0x3c2814d4	0.010258872
130	0x3e46bf68	0.19408953
131	0x3e0ba7f1	0.13638283
132	0x3c6c1af3	0.014410722
133	0xbe51b35f	-0.20478581
134	0x3e5ee3d6	0.217666
135	0x3e0fd315	0.14045365
136	0xbe0ddc3b	-0.13853543
137	0x3e1de82d	0.154206
138	0x3e849e5e	0.25902075
139	0x3e6eaae9	0.23307385
140	0xbd6e7bec	-0.05822365
141	0x3dfa04cc	0.12207946
142	0x3c8f9360	0.017526329
143	0x3dcc037c	0.09961602
144	0x3e9305a8	0.28715253
145	0xbd06ad50	-0.032880127
146	0x3e6280dc	0.22119468
147	0x3c9161f0	0.017746896
148	0xbd923019	-0.0713808
149	0x3cc03bf0	0.02346608
150	0xbdaceae8	-0.08443242
151	0xbe43634e	-0.1908085
152	0xbdb41062	-0.08792187
153	0xbc898380	-0.016786337
154	0x3d0c88b8	0.034310073
155	0x3c88ab80	0.01668334
156	0x3e5c58ec	0.21518296
157	0xbdc5e524	-0.09662846
158	0xbdd3f018	-0.103485286
159	0x3d85b504	0.065286666
160	0xbdaff2c7	-0.08591228
161	0xbd270d29	-0.040784035
162	0xbd6066a0	-0.05478537
163	0xbca7832b	-0.020448288
164	0xbe68da3f	-0.22739504
165	0xbe3231b3	-0.17401771
166	0xbe245343	-0.16047387
167	0x3e112f86	0.14178285
168	0xbe59092b	-0.21194904
169	0x3d71d012	0.059036322
170	0x3d354308	0.04425338
171	0xbd1821fc	-0.037141785
172	0x3ebdec1d	0.37094203
173	0x3e5faf88	0.21844304
174	0xbe017b3e	-0.1264467
175	0x3e3bacd9	0.18327655
176	0xbdd15d6e	-0.102228984
177	0x3d469028	0.048477322
178	0x3e072b9a	0.13200226
179	0x3ebde582	0.37089163
180	0xbca191d8	-0.019722864
181	0x3d6284e4	0.055302516
182	0x3dd3f1f0	0.1034888
183	0xbe653253	-0.22382478
184	0x3dd9fc3f	0.10643815
185	0xbd7dafb4	-0.06193514
186	0xbd60cc41	-0.05488229
187	0x3ca5b0b0	0.020225853
188	0x3e7ac3e3	0.24488787
189	0x3e9f414d	0.31104508
190	0xbdbfbcb4	-0.09362164
191	0x3d8ac1b8	0.0677523
192	0x3c623420	0.013806373
193	0x3b91c120	0.004448071
194	0x3ca6dbd1	0.020368489
195	0x3e688c5f	0.22709797
196	0x3e770923	0.24124579
197	0x3e6c39c4	0.23068911
198	0xbe1b5373	-0.15168552
199	0x3e7166e7	0.2357441
200	0x3eb10458	0.34573627
201	0x3ce8edd3	0.028433716
202	0xbc313f90	-0.010818377
203	0xbd2b5cb0	-0.04183644
204	0x3e3622d0	0.17786717
205	0x3b6e316f	0.0036345383
206	0xbd1125ed	-0.03543656
207	0x3e803537	0.250406
208	0xbda0113c	-0.07815787
209	0x3ce11d20	0.027479708
210	0xbe051660	-0.12996817
211	0xbdea158c	-0.11429891
212	0x3e1cff5f	0.15331791
213	0xbce849a0	-0.02835542
214	0x3be3d200	0.006952524
215	0x3e49bbec	0.19700593
216	0x3e8dc271	0.2768741
217	0xbe812ba1	-0.252286
218	0x3e214d32	0.15752104
219	0x3e1178b6	0.14206204
220	0x3ebda5f7	0.37040684
221	0xbe30594d	-0.17221566
222	0x3e272512	0.16322735
223	0xbd5f190c	-0.054467246
224	0xbe24a404	-0.16078192
225	0xbcbee588	-0.023302808
226	0x3ea49048	0.32141328
227	0x3ca1ce55	0.019751707
228	0x3e7c3e00	0.24633026
229	0x3e11a60a	0.14223495
230	0x3eb2a82a	0.34893924
231	0x3eb6d9bf	0.35713002
232	0x3ce144b7	0.027498586
233	0xbe3ef97b	-0.18649857
234	0x3d4ac498	0.049503893
235	0x3e73a915	0.23794968
236	0x3e82ddd9	0.2555988
237	0x3de27f00	0.110593796
238	0xbd90891a	-0.070574
239	0xbe1e080c	-0.15432757
240	0x3e187138	0.1488694
241	0x3c698e80	0.014255166
242	0x3e20a62c	0.1568839
243	0x3e388038	0.18017662
244	0x3e13f180	0.14447594
245	0x3d28a5f8	0.041173905
246	0x3e7278e5	0.2367893
247	0x3d2fd451	0.04292709
248	0x3e53c2f1	0.20679833
249	0x3e186643	0.1488276
250	0x3d8bb638	0.06821865
251	0xbdc4a602	-0.09601976
252	0xbddcac30	-0.1077503
253	0x3e197a37	0.14988028
254	0xbd8bcbe9	-0.06826002
255	0xbe1b4d61	-0.15166236

fc2.weight f4 [128, 256]
0	0x3e11f8de	0.14255092
1	0x3d77cc96	0.060497843
2	0x3dd2ed8f	0.10299217
3	0x3da2f4a6	0.07956819
4	0x3e33affb	0.175476
5	0x3e088dc6	0.13335332
6	0xbd0a51e4	-0.033769503
7	0x3e3e63e1	0.18592788
8	0xbca0ceb8	-0.019629821
9	0x3d36edac	0.044660255
10	0xbb01df00	-0.0019816756
11	0x3d47bac0	0.048762083
12	0xbd55f96a	-0.052239813
13	0x3de0a2df	0.10968565
14	0x3d64a020	0.05581677
15	0x3d5f5106	0.05452063
16	0xbd43ff5e	-0.04785096
17	0x3d44f9d8	0.048089832
18	0x3dc627fd	0.09675596
19	0x3e005656	0.12532935
20	0x3da0c9df	0.07851004
21	0xbd1eea8e	-0.038797908
22	0x3db7c3e7	0.08972912
23	0x3e4ee524	0.20204598
24	0x3d2c595c	0.042077407
25	0x3e3c263f	0.18373965
26	0x3d66e835	0.056373794
27	0x3dda227b	0.10651108
28	0x3a069e00	0.0005135238
29	0x3e1b4e98	0.151667
30	0x3e127594	0.14302665
31	0xbd7ee2ba	-0.062227942
32	0x3dd032cd	0.101659395
33	0x3e406355	0.18787892
34	0x3d1b7bc2	0.03795982
35	0xbd58b4c0	-0.05290675
36	0x3e472648	0.19448197
37	0x3e163e61	0.14672233
38	0x3e39abb6	0.18131909
39	0x3e1179e5	0.14206655
40	0x3df42542	0.11921169
41	0xbca49d4c	-0.020094536
42	0x3e2bfb63	0.16795115
43	0x3d4fdde2	0.050748713
44	0xbc8a0cec	-0.016851865
45	0xbd621a90	-0.055201113
46	0x3d3b379b	0.045707326
47	0x3e2cc50f	0.16872047
48	0x3e2eddbb	0.17076771
49	0x3d418c0e	0.047252707
50	0xbc00f670	-0.007871255
51	0x3d5aceea	0.053419985
52	0xbcd14610	-0.025546104
53	0x3de59307	0.11209684
54	0xbd78ef3a	-0.06077502
55	0xbd1aec3a	-0.03782294
56	0x3dd97690	0.10618317
57	0x3da49398	0.08035964
58	0x3e3ccea6	0.18438205
59	0x3d98852f	0.07447278
60	0xbd44cdb2	-0.04804773
61	0xbd6b35b6	-0.05742427
62	0x3d25cf14	0.04048069
63	0x3e043e69	0.12914433
64	0x3e1a00c0	0.15039349
65	0x3dd13a65	0.10216216
66	0xbb82a290	-0.003986664
67	0xbd5b3882	-0.053520687
68	0x3d8589a4	0.065203935
69	0x3d360b30	0.044444263
70	0x3df7f88e	0.12107955
71	0x3d9c902f	0.07644688
72	0xbbc49df0	-0.006000273
73	0x3e2e7ff7	0.17041002
74	0xbd0d1026	-0.03443923
75	0xbc54c178	-0.01298558
76	0x3e2acc1a	0.16679421
77	0xba15e080	-0.0005717352
78	0x3cf3c4c4	0.029756911
79	0x3d47c2c8	0.048769742
80	0xbd4ab9d0	-0.04949361
81	0x3e39dccb	0.18150632
82	0xbc5c6b20	-0.013453275
83	0x3e447406	0.19184884
84	0xbc3b2fe0	-0.0114249885
85	0xbd0be926	-0.034157895
86	0x3ca05c88	0.019575372
87	0x3e56473d	0.20925613
88	0x3d58dea7	0.052946713
89	0x3e3d29ab	0.18472926
90	0x3e49c2a3	0.19703154
91	0xbce5509c	-0.02799254
92	0xbcac0e78	-0.021002993
93	0x3e083c3c	0.13304228
94	0xbd6d6946	-0.057961725
95	0x3c0da498	0.008645199
96	0x3d9fe796	0.078078434
97	0xbd01021e	-0.03149616
98	0x3dd957be	0.106124386
99	0x3e2a3873	0.16623096
100	0x3da2c8e1	0.07948471
101	0x3e14dff6	0.1453856
102	0x3d7d4fce	0.061843686
103	0x3e050de7	0.12993585
104	0x3da722af	0.08160912
105	0x3d6cbbb5	0.0577962
106	0x3e1ec0e6	0.15503272
107	0xbd4e04a2	-0.050297387
108	0x3e46c9aa	0.19412866
109	0x3da944ca	0.082650736
110	0xbccc251c	-0.024920039
111	0x3dc9a862	0.098465696
112	0x3e2462a2	0.1605325
113	0x3e1e29fe	0.15445706
114	0x3cc2f2f8	0.023797497
115	0x3e437cf4	0.19090635
116	0x3daf5b24	0.085623056
117	0xbcf12d7c	-0.029440634
118	0x3ddd934a	0.10819109
119	0x3cba3d30	0.022734255
120	0x3d1754ca	0.036946096
121	0xbc0d8b50	-0.008639172
122	0x3dff5dc2	0.12469055
123	0x3d5ae086	0.05343678
124	0x3abe2840	0.0014507845
125	0x3e277e72	0.16356829
126	0x3de80114	0.11328331
127	0x3d74e298	0.05978641
128	0x3e3599d3	0.1773446
129	0x3e3299f0	0.17441535
130	0x3e1d800a	0.15380874
131	0x3e14eea3	0.14544158
132	0x3e259cbd	0.16173072
133	0x3d6902c8	0.056887418
134	0x3da67bf9	0.08129115
135	0x3d90f969	0.07078821
136	0xbc5a2118	-0.013313554
137	0x3daf936f	0.085730426
138	0x3e268471	0.1626146
139	0x3e1006d6	0.14065108
140	0x3d73e840	0.059547663
141	0xbd2d13c2	-0.04225517
142	0x3c9664a4	0.018358536
143	0xbb999340	-0.004686743
144	0x3dea12f1	0.11429394
145	0x3e25f908	0.16208279
146	0xbc14e270	-0.00908719
147	0x3bcf77e0	0.006331429
148	0x3dcf914e	0.101351365
149	0xbd62e0ce	-0.05539017
150	0x3e39cc66	0.18144378
151	0xbc8bbbb8	-0.017057285
152	0x3cccc9e4	0.024998613
153	0xbb822890	-0.0039721206
154	0xbd461338	-0.048358172
155	0x3d6d16e6	0.057883166
156	0x3ba86150	0.0051385537
157	0x3cef39d0	0.029202372
158	0x3c837e48	0.016051427
159	0xbd4be184	-0.049775615
160	0x3db5dbdb	0.08879825
161	0x3e2dc03e	0.16967866
162	0xbcf1d164	-0.02951879
163	0x3dac230f	0.084051244
164	0xbd31307a	-0.04325912
165	0xbb3a3740	-0.002841428
166	0x3d155adc	0.036463603
167	0xbd585532	-0.052815624
168	0x3d05eec2	0.0326984
169	0x3dec3096	0.115327045
170	0x3c828e10	0.015936881
171	0x3da072e7	0.07834416
172	0x3e3e2964	0.18570477
173	0x3db0d4c2	0.0863433
174	0x3cc1d18c	0.02365949
175	0x3dbd552c	0.09244761
176	0xbc048108	-0.008087404
177	0x3d4d81ea	0.050172724
178	0x3e18a09f	0.14905022
179	0x3de86eea	0.1134928
180	0x3ceb00b8	0.028686866
181	0x3dbeab39	0.09310002
182	0xbd025ab6	-0.03182479
183	0xbc4d9b58	-0.012549244
184	0x3e2a14e6	0.16609535
185	0x3e1905c3	0.14943604
186	0x3db31fd8	0.08746308
187	0x3e29ca8b	0.1658117
188	0x3df191ca	0.11795385
189	0x3e44b351	0.19209029
190	0x3cc21a9c	0.023694329
191	0x3e102d0c	0.14079684
192	0xbd03f438	-0.032215327
193	0xbc6d4468	-0.014481641
194	0x3de0a8cc	0.109696954
195	0x3e2c2ec3	0.16814713
196	0x3da25909	0.07927138
197	0x3d789ffc	0.060699448
198	0xbd2a00ca	-0.04150466
199	0x3e31cad5	0.1736253
200	0x3e131233	0.14362411
201	0x3e1da341	0.15394308
202	0x3de16907	0.110063605
203	0x3d7f7d18	0.062375158
204	0x3d068cf0	0.032849252
205	0x3df67c6c	0.1203545
206	0x3e23ec6f	0.16008161
207	0x3e517727	0.2045561
208	0x3e4942f5	0.19654448
209	0xb6878000	-4.0382147e-06
210	0x3d15c5e8	0.03656569
211	0xbc8b6ab4	-0.017018653
212	0x3e277f7f	0.1635723
213	0x3d68ff76	0.05688425
214	0xbd6061c6	-0.054780744
215	0xbc20ac80	-0.009806752
216	0x3e36cede	0.17852351
217	0xbce08f27	-0.02741201
218	0x3e072f3e	0.13201615
219	0xbca8e2b4	-0.020615913
220	0x3e111732	0.14169005
221	0xbae35040	-0.0017342642
222	0x3d4de6dd	0.050268997
223	0xbd402ea4	-0.04691948
224	0x3d10ed14	0.035382345
225	0x3a301200	0.00067165494
226	0x3e4e9e45	0.20177563
227	0x3e12916a	0.14313284
228	0x3e20a2c4	0.1568709
229	0x3cd0498c	0.025425695
230	0x3dc68cd7	0.09694832
231	0x3e1fb723	0.15597205
232	0x3df9be13	0.12194457
233	0xbcb584e0	-0.022158086
234	0x3e082e90	0.13299012
235	0x3da8904a	0.08230646
236	0x3de44bbe	0.11147259
237	0xbc3c3458	-0.011487089
238	0x3d1e40f2	0.038636155
239	0xbd67695e	-0.05649697
240	0xbd022bf4	-0.0317802
241	0x3d738a38	0.059457988
242	0x3d3fd9da	0.04683862
243	0x3d7a3822	0.06108869
244	0xbcb4e800	-0.022083282
245	0xbc4fafe0	-0.012676209
246	0x3d76b077	0.060226884
247	0x3d8fb18a	0.07016285
248	0x3df50e5f	0.11965632
249	0x3dd302af	0.10303246
250	0xbc727ec8	-0.014800735
251	0x3dfc6977	0.12324803
252	0xbd16253e	-0.03665661
253	0x3e2eefb2	0.17083624
254	0x3e32f797	0.1747726
255	0xbbcea6d0	-0.0063065067

fc2.bias f4 [128]
0	0x3deee1a8	0.11664134
1	0xbd968cc3	-0.07351067
2	0x3d812224	0.0630534
3	0xbccfa980	-0.025349379
4	0xbce0b74c	-0.027431153
5	0x3a368748	0.00069629075
6	0xbb977010	-0.004621513
7	0xbcb06d78	-0.021536574
8	0x3dc09923	0.094042085
9	0x3e026de0	0.12737226
10	0xbc20a238	-0.009804301
11	0x3ccd18d5	0.025036255
12	0x3d11a7b6	0.035560332
13	0x3dc6ea2c	0.097126335
14	0xbc68b320	-0.014202863
15	0x3d8191f6	0.06326668
16	0xbd3ac7d6	-0.045600735
17	0x3d6424a2	0.055699
18	0xbd1d4dcd	-0.038404275
19	0x3c4bab20	0.012430936
20	0x3e068f7b	0.13140671
21	0x3c7cd8ba	0.015432531
22	0x3d01933c	0.031634554
23	0x3ddf4ef1	0.10903729
24	0x3d9aa89c	0.07551691
25	0x3dbf9998	0.093554676
26	0x3d0db15c	0.03459297
27	0x3b7a2540	0.0038169175
28	0x3d959299	0.07303352
29	0x3c70cc2d	0.014697117
30	0x3cd6213c	0.026138894
31	0xbd46e7bb	-0.04856084
32	0x3d6828de	0.0566796
33	0x3d244fc9	0.04011515
34	0x3ccd7094	0.025078095
35	0x3dc4c189	0.096072264
36	0xbca343fa	-0.019929875
37	0x3db81231	0.08987845
38	0xbce28e51	-0.027655752
39	0x3b75898b	0.0037466015
40	0x3d255c0f	0.040370997
41	0xbd08a89e	-0.03336393
42	0xbd32cca9	-0.04365221
43	0x3c593e19	0.013259434
44	0xbceb5c6e	-0.028730597
45	0x3db0beff	0.086301796
46	0xbd779a40	-0.06044984
47	0xbc25fa8a	-0.010130534
48	0xbc2fee1d	-0.010737923
49	0xbd8d675f	-0.06904482
50	0xbd7fdd22	-0.062466748
51	0x3d5dbc02	0.054134376
52	0x3c94888e	0.01813152
53	0xbd6184e3	-0.05505837
54	0xbc538090	-0.01290907
55	0x3cb8b85c	0.022548847
56	0xbca10a50	-0.019658238
57	0x3d101dc2	0.03518463
58	0x3c104e48	0.008807726
59	0x3e092e70	0.13396621
60	0x3cf4d5f0	0.02988717
61	0x3d28bf20	0.041197896
62	0x3da22baa	0.079184845
63	0x3ddbc6be	0.107312664
64	0x3d689492	0.056782313
65	0x3c26aca0	0.010172993
66	0xbd1db8a6	-0.038506173
67	0xbc2ef348	-0.01067812
68	0xbd9a7a88	-0.07542902
69	0x3ce04420	0.027376235
70	0x3c8df8bb	0.017330518
71	0x3d9062df	0.07050108
72	0x3dd5c05f	0.104370825
73	0x3d11b355	0.035571415
74	0xbd41c075	-0.047302682
75	0x3d4322e0	0.04764068
76	0x3d3754cd	0.044758607
77	0xbcce2b68	-0.025167182
78	0xbc44a750	-0.012002781
79	0x3c94c1dd	0.018158847
80	0x3e070fd0	0.13189626
81	0x3c8740c4	0.016510375
82	0xbd3b6364	-0.045749083
83	0xbd379497	-0.04481944
84	0x3dc04f01	0.09390069
85	0x3c84e4d0	0.016222388
86	0x3cbd1d72	0.02308533
87	0x3dd31d46	0.10308318
88	0xbaf90b97	-0.0019000646
89	0xbbba9180	-0.0056936145
90	0x3c9d385f	0.019191919
91	0xbc84c548	-0.016207352
92	0xbd90f6d9	-0.070783325
93	0x3d939de6	0.07207851
94	0x3da22612	0.079174176
95	0xbd37c802	-0.044868477
96	0x3dddb9e2	0.1082647
97	0xbd1bbaf8	-0.038020104
98	0x3d81037c	0.06299493
99	0xbd2acffc	-0.041702256
100	0xbc77eae6	-0.015131688
101	0x3ce682c1	0.02813852
102	0x3d0613c1	0.032733683
103	0x3e193eb8	0.14965332
104	0x3e13ee3d	0.1444635
105	0xbce34a50	-0.027745396
106	0x3db62599	0.0889389
107	0xbc1480d0	-0.009063914
108	0xbd0364e9	-0.032078657
109	0x3d8e9e8e	0.06963836
110	0x3c7a7388	0.015286334
111	0xbccdf13c	-0.025139444
112	0x3c53e968	0.012934066
113	0x3ccc9e0a	0.024977703
114	0xbcf67a73	-0.030087685
115	0x3da1653e	0.078806385
116	0xbd6b151b	-0.057393175
117	0x3de29b1f	0.11064743
118	0x3c372fcb	0.011180828
119	0x3d85f1f1	0.06540287
120	0x3c2ec9a5	0.010668193
121	0x3daf5e42	0.085629
122	0xbd6b4652	-0.05744011
123	0x3c9175ae	0.01775631
124	0x3d455e9a	0.048185922
125	0x3bb079b0	0.0053856
126	0xbcf11f6c	-0.029433928
127	0x3d1eab0d	0.038737345

value.weight f4 [1, 128]
0	0xbe2c2ec0	-0.16814709
1	0x3bd67c4c	0.006545579
2	0xbe628ad1	-0.22123267
3	0x3c8de004	0.017318733
4	0x3c4f05ce	0.012635661
5	0x3d9431cc	0.072360605
6	0x3d31ce56	0.043409668
7	0xbb9e4430	-0.004829906
8	0xbe1d7da3	-0.15379958
9	0xbe15dff1	-0.14636208
10	0x3d6eed02	0.058331497
11	0xbe531037	-0.20611654
12	0x3cb5d3e9	0.022195773
13	0xbe4f7c88	-0.20262349
14	0x3d30b316	0.04313954
15	0xbe31f21e	-0.17377517
16	0xbd0c6e8c	-0.034285113
17	0xbe388dd3	-0.18022852
18	0x3d041619	0.032247636
19	0x3beb9840	0.0071897805
20	0xbe405a36	-0.18784413
21	0xbe623051	-0.22088744
22	0x3dac547f	0.08414554
23	0xbe48a8a3	-0.1959558
24	0xbe430e92	-0.19048527
25	0xbe0f79c7	-0.14011298
26	0xbc301eb8	-0.010749511
27	0x3b885da0	0.0041615516
28	0xbe628bb5	-0.22123607
29	0x3d3b6505	0.045750637
30	0xbdb0901e	-0.08621238
31	0xbd3bb31e	-0.045825116
32	0xbcc603d8	-0.024171755
33	0xbe54f7e2	-0.20797685
34	0xbb924290	-0.0044635013
35	0xbe201df0	-0.1563642
36	0x3d81bd74	0.063349634
37	0xbe62bdd5	-0.22142728
38	0x3c9d0e4b	0.019171854
39	0x3cef24f3	0.029192423
40	0xbe672d3f	-0.22575854
41	0x3d1319d8	0.03591332
42	0x3d8f41a0	0.06994939
43	0xbe4a3f75	-0.1975077
44	0x3d4ceea9	0.05003229
45	0xbe2ab937	-0.16672216
46	0xbd1b735f	-0.037951823
47	0x3d905d4b	0.07049044
48	0x3d6a3026	0.057174824
49	0x3cad0614	0.021121062
50	0xbd318c7e	-0.043346874
51	0x3d8f133d	0.06986091
52	0x3c015641	0.0078941
53	0x3d909d07	0.070612006
54	0xbbc2fe71	-0.005950742
55	0x3d09157c	0.033467755
56	0x3d0f3572	0.03496308
57	0x3d8ea3d9	0.06964845
58	0x3d1eb2ce	0.03874474
59	0xbe25a8f6	-0.16177735
60	0xba37fd00	-0.0007018596
61	0xbe3b3781	-0.18282892
62	0xbe308531	-0.17238308
63	0xbe58af02	-0.2116051
64	0x3d9b03a3	0.07569053
65	0x3c6dd980	0.014517188
66	0xbc5dec60	-0.013545126
67	0x3d26b516	0.04070004
68	0x3d659f38	0.056060046
69	0xbdb1e874	-0.08686915
70	0x3d30aecf	0.04313546
71	0xbe6b5a3b	-0.22983639
72	0xbe3586c4	-0.1772719
73	0x3c961eba	0.018325198
74	0x3d756852	0.05991394
75	0xbd8fb6c4	-0.07017282
76	0xbe3e3c8c	-0.18577784
77	0xbd90b8ce	-0.07066499
78	0xbd2903cc	-0.041263387
79	0xbe4e7a18	-0.20163763
80	0xbe3d9655	-0.18514378
81	0xbc351350	-0.011051968
82	0xbd836822	-0.06416346
83	0x3d3e9e5c	0.046537742
84	0xbe1f85c5	-0.15578373
85	0x3c25dce0	0.0101234615
86	0x3d1c2031	0.038116638
87	0xbe2fee55	-0.1718076
88	0x3d1e0e99	0.03858814
89	0x3d6d8746	0.057990335
90	0x3c1c1ffb	0.009529109
91	0xbc311068	-0.010807134
92	0xbba8feeb	-0.0051573417
93	0xbe561121	-0.20904972
94	0xbe206d75	-0.15666755
95	0x3d5bee96	0.05369433
96	0xbe5da8f8	-0.21646488
97	0x3d92fac3	0.07176735
98	0xbe2c5d35	-0.1683243
99	0x3cbcd894	0.023052491
100	0xbc0615d9	-0.00818392
101	0x3d782fa2	0.0605923
102	0xbe3de4bd	-0.18544288
103	0xbe1cdc3e	-0.1531839
104	0xbe234a20	-0.15946245
105	0x3badb8e0	0.00530158
106	0xbe45b401	-0.19306947
107	0x3d8dcdff	0.06924056
108	0x3ce26dd5	0.027640263
109	0xbe289107	-0.16461574
110	0xbc2400b0	-0.01000993
111	0x3ceee3ac	0.029161297
112	0xbc2b46d0	-0.010453895
113	0xbe4bf59a	-0.19917908
114	0x3d39ce49	0.045362744
115	0xbd153910	-0.036431372
116	0x3d151ba6	0.03640332
117	0xbe5fd850	-0.2185986
118	0x3d6ada23	0.057336938
119	0xbe23add1	-0.15984274
120	0x3d651f5e	0.055938117
121	0xbe35906c	-0.17730874
122	0x3d19f322	0.037585385
123	0xbe3db74c	-0.18526953
124	0xbe6617c2	-0.2247
125	0x3c8fc5fb	0.01755046
126	0xbd7a401e	-0.061096303
127	0x3cfa9265	0.030587384
