kinova-ros/kinova_scripts/src/runs/jaco2_ppo_20240705-215910/best_model_episode_50_20240705-215910/actor_20240705-215910.pth (torch, 256442 bytes, 11 tensors)

log_std f4 [7]
00000000: 1f3e c139 04d8 51bc 39fe 203c 4759 51bc
00000010: 9862 81ba c4e5 56bc 5d88 823b
0.00036858112 -0.01280785 0.009826236 -0.012777633 -0.0009871302 -0.013116304 0.003983541

fc1.weight f4 [256, 17]
00000000: 1992 fb3d 8678 dfbd 8cda 45bd 2b93 e53d
00000010: c949 6abe d8f9 123e ddf1 40bd db5d 003e
00000020: e1c8 133d 7521 d4bc 6503 833d 2e2b 283c
00000030: cd82 bc3d ff37 c2bd 9701 6ebc 81d9 7ebc
00000040: fa4e 0e3d 00fd 7dba e01a 593e 7892 9a3d
00000050: a0fa b8bd 6aff 15be 8483 26bd a440 d6bd
00000060: c22b 9fbd 6044 3e3c 5c0d 143e a8fd 063e
00000070: f5c7 72be 16f6 193e 80c3 8a3d 7494 6b3e
00000080: 1cee 233e 7549 62be a499 6dbe 0189 f6bd
00000090: a3de 593e 9700 2abd ebd3 d13d b416 e9bd
000000a0: 5b30 723e 199c dabd db8b 453e a194 23bb
000000b0: 5be0 f3bd 2339 043e 4088 13be b4e5 973d
000000c0: 03d9 8cbd 3848 dfbc 2e3b 70be beaf fdbd
000000d0: 1e8e fe3d c0bc 7dbd f994 6f3e 311e 3e3e
000000e0: 913d 9abc 71f6 26be 1318 193e 39f2 993d
000000f0: 5f1f 21be 4408 1d3e 636c 163e 1701 653e
00000100: 388d 04be f2a4 17bd c6c7 99bb bef8 003d
00000110: 965a 3bbe c730 2cbe 1f9a fe3d dc49 6dbd
00000120: ff62 f53d 9711 513c 4ac8 c73d 99b0 083d
00000130: 3418 c13d 3167 e73d 0b90 72be 6eaa ff3d
00000140: 0e6d 27be 59ee 3cbe 430f f73c 6251 3abd
00000150: 1a90 093e d2fd 0fbe 2d78 5bbe 2873 353e
00000160: 2b5d 11bd e975 0d3e 920a a03d c946 36be
00000170: a199 513d 47ff 563d 0fc7 1ebe ab64 f0bd
00000180: 5d0b b63d 1a9c 483d 5e4b dbbd c130 90bd
00000190: 43a6 673e 2169 34bd dfdf 173e 9724 ee3d
000001a0: 2d45 0dbe f50d 46be 9b2c 7a3e 430d d13c
000001b0: 1390 0b3e e237 7f3d 5961 833d 7562 3a3e
000001c0: c1e8 7b3e cb3c 1ebe 079c db3c c35e 2e3e
000001d0: e6ba 193e b00e 2e3e 1b6e 25be 4fbe 39be
000001e0: 6f11 1dbe 2c98 ce3c 5c7d 703e a4c0 23be
000001f0: bd9e fa3d 286e 0ebe 349a 57be cecc 3fbd
00000200: 422b 163e 67f0 703e c6f9 16be 65a0 493d
00000210: 8f86 563e 0ae6 163e c79a 153e 6d5e 293e
00000220: a683 283e 0b8f 953d 56f0 22be c0e5 45be
00000230: c53c cdbd a515 92bc 1c19 11be 014c b03d
00000240: dabd aa3d 8ef9 6abd 237a e93d c8ca af3d
00000250: 088d 213e 3488 313e c992 91bd 8090 733e
00000260: 84e6 94bc 4085 08bc 326b 6abe a4d8 1fbe
00000270: 3a17 11be 9c74 d4bd ea92 303e fe50 a2bd
00000280: 9697 39be 381c bf3d 4808 9f3d b0db 203e
00000290: 7e84 00be c063 573d 24d4 b4bd 9c32 5fbd
000002a0: 7beb 45be e261 e2bd c6d5 a1bd eb9c cc3d
000002b0: f161 333d 65c4 673d 0014 743e 7376 6e3e
000002c0: 2a29 2a3e 5b86 c13c c041 33be 6bab 423e
000002d0: d18e 8abd 9e91 c8bc 58b4 56be 71fa 47bd
000002e0: 9c66 22be 11aa 683e 36eb 59be ef96 41be
000002f0: a0ee 06bc 4a4a 06be ccba b13d 9232 bfbd
00000300: c64c e9bd a00f 613c e4c8 333e 29b3 2ebe
00000310: 7042 e93d f28d 1f3e 0ef1 723e 16d5 2dbe
00000320: 0099 703d 36a4 37be ce08 543e 98ad c0bd
00000330: d3ec 163e ac79 223c 2d4c a3bc ffd5 e1bb
00000340: 5634 2c3d 2612 ec3d 760c 213d cea3 a63d
00000350: 9347 63be bc22 3a3e f33b 5c3e e398 523e
00000360: 2126 3d3e ed1a 33be 4611 c1bd 9c38 5a3e
00000370: e479 3fbe c4b4 643e 59c2 3bbe 94db 38be
00000380: 6694 f73d a9c4 2ebe 5615 5abd cade 403e
00000390: 6712 523e 7552 713e e2b0 c7bc 0112 66be
000003a0: d183 893e fa83 6bbd 3478 b5bd c641 6c3d
000003b0: 06d8 29be 1a35 1b3e e56e 143e 1061 4fbe
000003c0: 860b 52be c3a7 f1bc 1819 bc3d 6c91 71bc
000003d0: cd5f 01be 8c6c a839 5efa 63be 379b 2bbe
000003e0: 35ee 29be 76a1 523e c1a9 593e 9b37 a3bd
000003f0: 88c0 8b3c 804f be3d 22a0 dc3c df71 eebd
0.12283725 -0.1091166 -0.048304126 0.11209711 -0.2287971 0.1435312 -0.04710566 0.12535803
0.036080245 -0.02589486 0.06397132 0.010264201 0.09204636 -0.09483337 -0.014526746 -0.015554787
0.034743287 -0.0009688884 0.21201658 0.07547468 -0.09032178 -0.14648214 -0.040652767 -0.10461548
-0.07772018 0.011612982 0.14458221 0.131827 -0.2370909 0.1503528 0.0677557 0.23005849
0.160088 -0.22098334 -0.2320314 -0.1203785 0.21276335 -0.04150447 0.10245498 -0.113812834
0.23651259 -0.106743045 0.19291632 -0.0024960416 -0.11908027 0.12912421 -0.14407444 0.07416859
-0.06877329 -0.027256116 -0.23460075 -0.12387036 0.124294505 -0.061947584 0.23396672 0.18566205
-0.018828185 -0.16304947 0.1495059 0.075169034 -0.15734623 0.15335184 0.14689784 0.22363697
-0.12944496 -0.03702254 -0.0046930043 0.03148722 -0.18296275 -0.16815482 0.1243174 -0.057931766
0.11981773 0.012760541 0.09754999 0.03337154 0.094284445 0.11298979 -0.2368776 0.12483679
-0.16350195 -0.18450297 0.030158645 -0.04548777 0.13433877 -0.14061669 -0.21432562 0.1771971
-0.035489243 0.1381451 0.07814516 -0.1780044 0.051171903 0.052489545 -0.15505622 -0.11737951
0.08888886 0.048976995 -0.107077345 -0.07040549 0.22622018 -0.04404557 0.14831494 0.11628073
-0.1379592 -0.19341262 0.24431078 0.025519019 0.13629179 0.062309153 0.06415052 0.18201621
0.24600507 -0.15452878 0.026807798 0.17028336 0.15012702 0.1699779 -0.16155283 -0.18139003
-0.15338682 0.025219046 0.23485321 -0.15991455 0.12237308 -0.13909209 -0.21054918 -0.046826176
0.14664939 0.23529206 -0.14743719 0.04922523 0.20949768 0.1473619 0.14609824 0.16539927
0.1645647 0.07302674 -0.15911993 -0.19325924 -0.100213565 -0.017832587 -0.14169735 0.086082466
0.083369926 -0.0573669 0.11400249 0.08583599 0.15776455 0.17337114 -0.07108075 0.23785591
-0.018176325 -0.0083325505 -0.22892454 -0.15609986 -0.14169016 -0.10373804 0.17243543 -0.07925604
-0.18124232 0.09331554 0.077652514 0.15708804 -0.12550542 0.052585363 -0.08829525 -0.054491624
-0.1932811 -0.11053826 -0.07902102 0.09990867 0.043794576 0.05658378 0.23835754 0.23287372
0.16617265 0.023623636 -0.1750555 0.19010703 -0.06765521 -0.024483498 -0.20967233 -0.048822824
-0.15859455 0.22721125 -0.21281132 -0.18905233 -0.008235604 -0.13114277 0.08678207 -0.093358174
-0.113915965 0.013736635 0.17557102 -0.17060532 0.11389625 0.15581492 0.23724768 -0.16975817
0.058739662 -0.17933735 0.20706484 -0.094081104 0.14738779 0.009916704 -0.019933784 -0.0068919654
0.0420421 0.11526899 0.039318524 0.08136712 -0.22195272 0.18177313 0.21507244 0.20566134
0.18471576 -0.1749074 -0.09427123 0.21310657 -0.18698841 0.22334582 -0.18335856 -0.18052512
0.12088852 -0.17067207 -0.053243004 0.18834987 0.20514832 0.23566611 -0.024376336 -0.22467805
0.2685838 -0.05749891 -0.088608176 0.057679914 -0.16586313 0.15156975 0.14495428 -0.2025187
-0.20512208 -0.02949894 0.09184474 -0.014744144 -0.12634201 0.0003212433 -0.22263476 -0.16758429
-0.16594775 0.20569405 0.21256162 -0.0796959 0.01705958 0.09292507 0.026931826 -0.11642813

fc1.bias f4 [256]
00000000: 60f1 093e 60a4 d6bb 48f1 9b3d 46f8 98bd
00000010: 8f2d 2fbe 8a6f 243e c8ed e4bc 9bdf 323e
00000020: cc42 65bd f851 52bd 7256 72bd 109d 0ebe
00000030: 69e0 463d d801 823d cee4 d3bd ab64 13be
00000040: 1fcb 413e d8ad 57bc 2ef9 203d b572 0cbe
00000050: e41c 333e 29b4 4c3e 12ab 4f3d 660c 583e
00000060: 7e2e 0b3e 442f 503e 4150 f4bd 1ef9 c1bd
00000070: e80c 11bd f8a0 f9bd a428 f53d ea78 06be
00000080: 628e b93d c5b7 0c3e 33bd 3dbd 6f26 603e
00000090: 8757 fdbd 3340 dc3d 9fdf 223e ddd3 13be
000000a0: f530 ad3b efcd 4c3e 63d1 45be 721c 03be
000000b0: 6b46 75be af0f 233e bab2 273e 8965 163d
000000c0: 9e14 153d a142 6fbe a4fe e03d 7644 fabd
000000d0: 0117 fc3d 39b7 1fbe 5dac 24be 9666 2d3e
000000e0: c286 883d 3e56 90bd 66ed 2abe cbb3 5bbe
000000f0: d5b0 2a3e e86d a9bd 4100 3f3d 90a1 183e
00000100: 1869 75bd b23f f2bd bed3 0fbe 4e38 853c
00000110: f72b 80bc c385 8bbb 21f5 6a3d c92e 65be
00000120: caaa f83d 7973 1dbd ae4e 57be 00cb b3bd
00000130: 90e8 85bb 9b01 543e 0a6d 713e a4a7 b0bd
00000140: 7432 25be 3841 423e 8307 483e 9b05 0c3e
00000150: 10cb 64be 61ad 273d f58d 653d 2e9f 953d
00000160: 843d 2bbe 8651 b03c 405b bfbd a11e 1d3e
00000170: 72c1 21be d753 4d3e d7e8 823d 40df 703d
00000180: 1564 e3bd 74fc 01bc 4467 723d 74d6 3abe
00000190: 4077 0c3d cf25 013e 3cc5 ce3d 0410 503e
000001a0: 90d3 f9bd 35f5 74be 9db3 c5bd 656b 11be
000001b0: f68a 123e baee 963d cfc0 6dbe 9b44 2fbe
000001c0: 7684 5fbe fcaf a23d 5caa 6c3d b2b1 7c3c
000001d0: 3b72 93bd f1e1 4b3e a20f 373e ab72 60be
000001e0: 3499 17be 8eaa 853d 5104 28be 49f4 1b3d
000001f0: fb84 653d 8ebe 35be 7c7a 2f3e 00d3 23be
00000200: ca0d 1bbe def3 2dbd f784 debd f4b6 bc3c
00000210: eac6 1abe b6f5 1b3e 9187 6bbe b6cc a0bd
00000220: 8b70 6d3d 7fd8 933d acba 023e d9a8 85bd
00000230: 8e07 253d d422 46be 1414 a5bd c206 db3b
00000240: f642 64be 59c8 09be c307 953d 5baf 5bbe
00000250: ae90 333e 9934 eebd b9ed c4bd a0b8 0a3e
00000260: 0e6f 96bd 7441 7e3d f996 5b3e bcef 3e3e
00000270: 4815 493e ee90 52be 62e8 653e 3307 a83d
00000280: 19fb 9d3d 7428 82bd 6441 0ebe bf5c 31be
00000290: c6b1 7c3c e6a5 42be a47a 6cbe 95e0 373e
000002a0: 0b05 bbbd 064f 58be 87ec 70be dad1 593d
000002b0: f264 22be 29e4 88bd 6050 1dbe 69e0 e3bd
000002c0: 4606 023e eabe 7f3e 6c4e 0b3e 51cf 5a3c
000002d0: 0f7f ac3c ff14 43be d25f 91bd f06f 0c3e
000002e0: 9670 21be 8214 083e a8ea 14be ef21 5cbe
000002f0: b35b a83d 95fd 673e 6b07 663e e207 27be
00000300: fe0c 4dbe 3902 273e a44e 4bbe 6705 2a3e
00000310: 07d8 7b3e a275 8abb 2ab1 583e be22 4cbe
00000320: 269c 403e e34c 3f3e 0ff8 743e 3823 863d
00000330: a3a9 1a3e 48b5 1abe e44f 063d d54b a53d
00000340: d58f f03c 8cf9 ac3d d400 b23d 8c3d 433e
00000350: d298 3bbe 7a0b a13d a8d3 2ebe 860e 583d
00000360: fede 2f3e 657d 1ebe 086d e2bd e624 28be
00000370: f706 5b3e a8e9 f2bc 3de5 bebd d53a e1bc
00000380: 5be1 9d3a 4812 03be b3f2 8cbd 1c89 19be
00000390: 2a2f 623e 0625 493e 17ea 023e b4a9 8fbd
000003a0: f68f f6bd c5fc 6d3e 07ab 21be 5587 5bbe
000003b0: f015 003e 231f 303e f1e3 2c3e 0e35 7f3d
000003c0: 017e 8dbc 780f 80be 90ec 52bd 6b43 eb3d
000003d0: dd2d c6bd 9318 90bd 46fd ff3d f5a6 9ebd
000003e0: d0b8 9b3c 593e 70be 3911 2dbd 3711 8f3d
000003f0: d4b5 093e 579b 453d 94bf d43d 5fb5 423e
0.13470984 -0.0065503567 0.0761438 -0.074692294 -0.17107223 0.16058174 -0.027945414 0.17468111
-0.055971906 -0.051347703 -0.059164472 -0.13927102 0.048553858 0.06348008 -0.103463754 -0.1439387
0.18925141 -0.013164006 0.039300136 -0.13715632 0.1749149 0.199906 0.050700255 0.2109848
0.13591954 0.2033053 -0.1192937 -0.094713435 -0.0354127 -0.121889055 0.11970642 -0.13132063
0.090603605 0.13741978 -0.046323013 0.21889661 -0.1237021 0.107544325 0.15905617 -0.14436288
0.005285377 0.20000432 -0.19318156 -0.1280382 -0.23952644 0.15923952 0.16376773 0.036717925
0.036396615 -0.2336526 0.10986069 -0.12220089 0.12309075 -0.15597238 -0.16081376 0.16933665
0.06666328 -0.070476994 -0.16692123 -0.21455304 0.16669019 -0.08272916 0.0466311 0.14905381
-0.05991468 -0.11828555 -0.14045617 0.0162622 -0.015645964 -0.004257889 0.05736268 -0.22381128
0.121419504 -0.0384402 -0.21026108 -0.087789536 -0.0040865615 0.20703737 0.23576751 -0.08625725
-0.16132528 0.18970191 0.19534115 0.13674013 -0.22343087 0.04093683 0.056043584 0.07305752
-0.16722685 0.021523248 -0.093435764 0.15343715 -0.1579645 0.20051514 0.06392067 0.058806658
-0.111030735 -0.007933725 0.059180513 -0.1824587 0.034293413 0.12612079 0.10096213 0.2031861
-0.121985555 -0.23921664 -0.09653399 -0.14201124 0.14310822 0.07369752 -0.23218082 -0.17116015
-0.21827874 0.079437226 0.057779655 0.015423225 -0.07199522 0.19910409 0.17877057 -0.21918742
-0.14804536 0.06526671 -0.16407897 0.038074765 0.056035023 -0.17748472 0.17136568 -0.15998459
-0.15141979 -0.042468898 -0.10865205 0.023036458 -0.15114942 0.1523045 -0.23000933 -0.078515455
0.057968657 0.07219028 0.12766522 -0.06526346 0.040290408 -0.19349223 -0.0806047 0.006684155
-0.22291169 -0.13455333 0.07276871 -0.21453612 0.1753566 -0.11631126 -0.096156545 0.13546991
-0.07345401 0.06207414 0.2144431 0.18646139 0.19637024 -0.20563099 0.22451928 0.08204498
0.07713909 -0.06355372 -0.13892132 -0.17320536 0.015423244 -0.19008598 -0.23093659 0.17956765
-0.09131821 -0.21123895 -0.23527728 0.053178646 -0.1585882 -0.06684143 -0.15362692 -0.11126787
0.12697706 0.24975172 0.13604134 0.013355092 0.02105668 -0.19050978 -0.070983544 0.13714576
-0.15765604 0.13289073 -0.1454264 -0.2149732 0.08220615 0.22655328 0.22463767 -0.16311601
-0.20024487 0.16309442 -0.19854218 0.16603623 0.24594127 -0.0042254487 0.21161333 -0.19935128
0.18809566 0.18681674 0.23922752 0.06549686 0.15103774 -0.15108216 0.032791033 0.080711044
0.02936546 0.08446035 0.08691564 0.19066447 -0.18320015 0.07863517 -0.17072928 0.052748226
0.17174909 -0.15477522 -0.11055952 -0.16420326 0.21389376 -0.029652432 -0.093210675 -0.027493874
0.001204531 -0.12799942 -0.06882229 -0.1499371 0.22088304 0.1964303 0.1278461 -0.0701479
-0.12039177 0.23240955 -0.15787898 -0.21438344 0.12508368 0.17199378 0.16883828 0.062306456
-0.017271997 -0.25011802 -0.051495135 0.11487468 -0.096767165 -0.07035937 0.1249948 -0.07746688
0.019009024 -0.23461284 -0.042252753 0.06985705 0.13448268 0.048243847 0.10388103 0.190145

fc2.weight f4 [128, 256]
00000000: a828 0f3d 44fd f83c 8695 903d 387e a33c
00000010: 5f06 4e3d 1dcf 1b3d 9e20 52bd a2c4 19bd
00000020: d965 3e3d a22c 753d 7c0a a0bc 30d0 c43c
00000030: 025d 6c3d 131e 8bbd 91ca 8dbc b712 6e3d
00000040: 235f 16bc be4b ad3c f1af bc3c 35f5 a63c
00000050: 00af 783d ab94 673d f769 46bd d5ac 973c
00000060: 4f46 a43c d42b 4c3c 9d3c 86bc b6a2 f53c
00000070: 11f6 32bc 1836 003d fcf1 113c 3080 293d
00000080: 97df d2bb 5eec 8abc 110f 593d 06f4 2f3d
00000090: 2bf3 cb3c 0fe1 5bbd 46f5 de3c 02a1 d53b
000000a0: 0b88 63bd 484b 20bd 8b7b cd3c aca2 16bc
000000b0: fb05 513d 3226 1a3c bc1f 4cbd 0ef1 ecbb
000000c0: 1648 153d 00d9 703c 5e5e 653d 93b5 1f3d
000000d0: e75f 9f3c b604 6b3d 320f e5bc eab4 ad3b
000000e0: 831d b6bc a09f 7cbc 5a42 383c 8a18 3a3d
000000f0: 380e 4bbc d706 ee3c a52a 4f3d 644b 673c
00000100: f066 03bc a5c1 32bd 67a7 fbbc 6a6a 593a
00000110: a304 ac3c c619 99bb 29e0 3ebd d244 e5bc
00000120: f88e ee3c 80c3 54bb 46df 8ebd 2c11 6abd
00000130: 2ce2 a7bc f49f 81bd 74ec 3f3d 01b8 623d
00000140: 8f58 c0bb f3a5 433d db2e 513c 30d7 c6bc
00000150: bd45 1ebc 0018 54bc a8f8 92bc 64dc 243d
00000160: c021 27bb fa6b f03c 0dfb 1e3d b55d 403d
00000170: 6694 063c d0b4 ed3b 938e 223d 56e8 09bd
00000180: 8927 293b ac43 9a3c 9ab4 2fbb 5466 1ebc
00000190: 94e3 fe3c 0d74 ea3c 2386 28bd e811 76bc
000001a0: 5cb1 0ebd bf85 143d 7785 c43b 42be 613c
000001b0: 2ccb 113d ef05 98bb b2d7 243d 705c 2cbc
000001c0: 8610 2c3d 24f7 e03c 87e4 663d 00f2 9bbb
000001d0: b12d 333c f7b9 6ebd 80fe 573d f020 a13b
000001e0: dc47 093d 85ce 4bbd 00d7 85bb 9bb3 773d
000001f0: a8f1 04bd 80bd 8f3c 0cf3 193d 90b7 113d
00000200: 8e78 6d3d 9865 c6bc e650 28bd ccb9 943c
00000210: 205a 1abc 87c0 29bd c147 66bd 1ec5 643d
00000220: eeec a6bc 96b0 493d 81cb 23bd 0dfd 103d
00000230: eb3e 01bd adfc 3f3d 9d45 793d ed00 613d
00000240: c1f9 eebc 182d 9ebc 79c7 0ebd 4fbd 0dbc
00000250: 36cb a83c 1185 393d db0f e9bc f071 123d
00000260: 1f92 3abc bd7e 973b 50b9 1bbd bd9d c93c
00000270: d0b4 003c f56e 553d 8f77 5f3d 7394 663d
00000280: 3cc8 343d e0d6 933b e575 243d e76c 4d3d
00000290: 3864 3c3d 057c 2e3d 384b 8ebc b4f7 703b
000002a0: 156b debc 186b 1a3d a5c9 69bc 0e5d 6ebd
000002b0: 863f bfbc 2fe4 29bd 681a 593c d2ab 413d
000002c0: d2e6 073b cacb f3bc 093e 64bc 24fe 3bbd
000002d0: 4106 db3c 78d0 2d3d 6b3a 2abd b41a 3c3d
000002e0: 6472 ab3c 90d3 60bd 2a08 2a3d 0160 073c
000002f0: 9666 fcbc 3593 073d e03c d6bc 6127 5a3c
00000300: e0da 853d 8fd4 143d c99d 2b3d e670 05bd
00000310: dd79 0ebd 9abb a33c 61d0 1a3b 5f5d 413d
00000320: b05f 613d e168 523d 75b3 b83c e8aa 20bd
00000330: ac56 8a3b 984a 043c 6fa8 0dbd 31cd c2bb
00000340: ad82 403c 579e 26bd a510 323c 4883 53bd
00000350: 849f 1e3d ec53 d7bc 4e5d 043d c29d 07bc
00000360: 12d0 11bd 4935 b13c 46d7 30bd 4863 163d
00000370: 0f61 cf3b f740 913c 62ca 213d f6bd 243d
00000380: 8705 5c3d a072 313d ae84 bdbb 00a4 09ba
00000390: 9c7d 50bd b2e8 883c 0ee8 dc3a 61b8 483d
000003a0: 32f9 3a3d b7ce 0cbc c2c2 bdbc 619c 3f3d
000003b0: c066 5a3c ee73 f9bc ca98 24bd 6aa1 59bd
000003c0: 980d d63c 3b8b cd3c cfa9 8b3c 62c1 153d
000003d0: 8fa5 c1bc aac8 903d cea1 053d e70d c13c
000003e0: 68e3 90bc e6b6 5dbd f51a 9b3c 9cd4 723c
000003f0: 503f 8f3c d7e2 0c3d d829 f1bc bdae 703d
0.034950882 0.030394204 0.07059769 0.019957647 0.050299045 0.038039315 -0.051300637 -0.03754104
0.04648385 0.05985702 -0.01953625 0.024025053 0.057705887 -0.067928456 -0.017308505 0.058123317
-0.009177956 0.02115428 0.023033114 0.020380596 0.060713768 0.056538265 -0.0484409 0.01851503
0.020053057 0.012461621 -0.016386325 0.029984813 -0.010922925 0.031301588 0.008907791 0.041382015
-0.0064353454 -0.016958412 0.052992884 0.04295733 0.024896225 -0.05368143 0.027216565 0.006519438
-0.055549663 -0.039134294 0.025083324 -0.009194057 0.051031094 0.009408521 -0.04983495 -0.0072308844
0.0364457 0.014700174 0.0559982 0.038991522 0.01945491 0.05737754 -0.027961347 0.0053011077
-0.02223087 -0.015418917 0.011246288 0.04543356 -0.012393527 0.029055996 0.05057778 0.014117096
-0.008020148 -0.043641705 -0.030719472 0.000829375 0.020998305 -0.004672262 -0.046600495 -0.027986918
0.029120907 -0.003246516 -0.0697618 -0.057145283 -0.02049359 -0.06329337 0.04685636 0.05535126
-0.005869932 0.047765683 0.012767519 -0.024272531 -0.009660182 -0.012945175 -0.017940834 0.040249243
-0.0025502294 0.029348362 0.03881364 0.046964366 0.008214092 0.0072542205 0.03968675 -0.03366884
0.0025810918 0.018831097 -0.0026810528 -0.009667952 0.031114377 0.02861979 -0.041143548 -0.015018918
-0.03483711 0.036260363 0.0059973556 0.013778271 0.03559415 -0.004639379 0.040244766 -0.010520086
0.042007945 0.027461596 0.056370284 -0.0047590733 0.010936187 -0.05828282 0.052732944 0.0049172565
0.033515796 -0.0497575 -0.004084468 0.06047402 -0.032457024 0.017546415 0.037585303 0.03557545
0.057976298 -0.024218366 -0.041092776 0.018155001 -0.009420902 -0.041443374 -0.056220774 0.055852048
-0.020376649 0.04924067 -0.039989 0.035397578 -0.031554144 0.04687183 0.060857404 0.054932524
-0.029171826 -0.019308612 -0.0348582 -0.008651092 0.020604711 0.045292918 -0.028449943 0.03575319
-0.011387377 0.0046232627 -0.038018525 0.024611348 0.007855609 0.05210777 0.05455738 0.056293916
0.04413627 0.004511699 0.040151495 0.050152685 0.045994014 0.042598743 -0.017369851 0.0036768736
-0.02715067 0.03769979 -0.014269267 -0.058194213 -0.02334572 -0.04147738 0.013250925 0.047283
0.0020736945 -0.02976026 -0.013930806 -0.045896664 0.02673638 0.04243514 -0.041559618 0.045923904
0.02092857 -0.05488926 0.041511692 0.008262635 -0.030810636 0.033099372 -0.026152074 0.013315053
0.06535888 0.036335524 0.041898523 -0.03257837 -0.034784187 0.019986916 0.0023622739 0.047208186
0.055022895 0.05136955 0.02254651 -0.03922549 0.004221758 0.008074425 -0.03458446 -0.005944871
0.0117499055 -0.04067835 0.010868226 -0.05163887 0.038726345 -0.026285134 0.032315545 -0.0082773585
-0.035598822 0.021631854 -0.04317405 0.036715776 0.006328709 0.017731173 0.039499648 0.040220223
0.05371621 0.043322206 -0.005783639 -0.0005250573 -0.05090104 0.01671252 0.0016853826 0.049003962
0.045647807 -0.0085942065 -0.023164157 0.046779994 0.013330162 -0.030450787 -0.040184774 -0.053132452
0.026129529 0.025090804 0.017048744 0.036561377 -0.023638515 0.07069524 0.032625012 0.0235662
-0.01768656 -0.054129504 0.018933753 0.014821198 0.017486244 0.03439602 -0.029438898 0.058760393

fc2.bias f4 [128]
00000000: fa1f 5cbd fc7d 3dbd c771 803c 976c 753c
00000010: 9cf8 533d 9c75 4a3d 778b f83c d03b 133d
00000020: fb04 a13c 636b cbbc 5ea6 44bc e915 0dbd
00000030: 6193 c73c a1a5 42bd 35aa c03c 813e 2b3d
00000040: 5f7a 06bd 08f1 923c 9282 d0bc 005e 44bd
00000050: 7168 3bbc 0f77 8b3c d07b 02bb ab45 4f3d
00000060: af7e 083b bc53 2e3d 68a6 1dbd eba1 3cbd
00000070: 06e5 7dbc 80b1 debb a8f3 843d 3b17 4bbd
00000080: 6441 aa3a e453 453d 7c78 a93a 4cda 673d
00000090: e9f8 ce3c 4bc0 a03c 9165 1c3d 287e 693c
000000a0: 4c0d 7e3d 52ad 0a3d 4274 27bb 75be 1e3d
000000b0: 407f c3bb 31ba adba cf08 6bbc bcf8 dfbb
000000c0: c640 5ebc 64b6 37bd 6f5c e73c c2c2 7ebc
000000d0: 88e0 213d d0ac 6b3c d0c9 a33c b117 683d
000000e0: 2476 16bd 51cb 7bbb 3062 2abd 419e 333d
000000f0: 486e 3fbc 843d ac3c bed2 413d 203e 25bc
00000100: 4be3 b8bc 6f26 b93c 128e c2bc 7473 db3c
00000110: 403b 9cbc b658 693d 6367 88ba 157f c03c
00000120: 1724 b5bc 30cf cc3c d6ed 4b3d bddf 52bd
00000130: 126a 4c3d 831d 5dbd b9ca 1c3d 829d 04bd
00000140: 634f bb3c 178c 403c e817 4ebd b09e 243d
00000150: dbc5 5ebd 7a95 fdbb a66a 623d a17b 2cbd
00000160: fec3 42bc 6e44 44bd deb8 58bd c33f 783c
00000170: 4941 babc e127 00bd 7009 7d3d a99b 0d3d
00000180: 7c95 60bd d29c 5bbd da20 a13c e6bf 91bc
00000190: 873e a43c 0e98 6cbc c74d 573c f9c0 41bd
000001a0: bc91 53bd f851 25bd 2550 843b 422b 5a3d
000001b0: b2f5 22bd 2b48 23bd e204 953c 8916 f63c
000001c0: b475 3b3b b748 463d cd79 5e3d 42cc c03c
000001d0: e986 41bd 02a9 f03c d26c 4a3c c224 213d
000001e0: 9f21 b23c 7142 5cbd f659 57bd aa1e 113d
000001f0: d453 4abd eaf2 1ebd d436 a5bb 9274 f8bc
-0.053741433 -0.046262726 0.015679253 0.014979503 0.051750764 0.049428567 0.03033994 0.035945714
0.019655695 -0.02483148 -0.012002556 -0.034444723 0.024362268 -0.047521237 0.023518661 0.041807655
-0.032831546 0.017937198 -0.025452886 -0.047941208 -0.011438475 0.017024545 -0.0019910224 0.05060355
0.0020827462 0.042560324 -0.038488775 -0.046052855 -0.015496498 -0.006796062 0.06491786 -0.0495827
0.0012989459 0.048175707 0.0012929584 0.05660467 0.025265174 0.019622942 0.0381828 0.014251269
0.0620244 0.033856697 -0.0025551473 0.038755853 -0.005966097 -0.0013254342 -0.014345362 -0.0068350714
-0.013565248 -0.044851676 0.028242318 -0.015549364 0.03952077 0.014384463 0.019993693 0.05666322
-0.03673376 -0.0038420747 -0.041597545 0.043852095 -0.011684008 0.021025427 0.04732012 -0.010085613
-0.02256932 0.022601334 -0.023749385 0.02678845 -0.019071221 0.056969367 -0.0010406788 0.023498097
-0.022111936 0.025001138 0.049787365 -0.051482905 0.049905844 -0.053983223 0.03827927 -0.032376774
0.022865003 0.01175215 -0.050315768 0.0401904 -0.05438791 -0.0077387663 0.05527749 -0.04211009
-0.0118875485 -0.047916822 -0.052910678 0.015151921 -0.022736209 -0.03128803 0.06177658 0.034572277
-0.05483006 -0.053616352 0.019668985 -0.0177917 0.020049347 -0.01444055 0.013141102 -0.047303174
-0.051652655 -0.040361375 0.0040378743 0.05326391 -0.039785095 -0.039863747 0.018190805 0.030040042
0.0028604092 0.04840919 0.054315377 0.023534898 -0.0472478 0.029377464 0.012355046 0.039341696
0.021744547 -0.0537743 -0.052576028 0.035429634 -0.04939635 -0.03880588 -0.0050419364 -0.030329023

fc3.weight f4 [128, 128]
00000000: 2526 81bc e6ef aebc 1fa1 893c c9fd a73d
00000010: f2e6 663c a770 b03d a8f6 8a3a fede a6bd
00000020: f736 bbbc efab a33d 03d3 8abd e22a 263c
00000030: ddbb a93d e4cc 2abd 171a 93bc e3ed 43bd
00000040: 1d54 7bbd f07e d93b 2534 90bc 4e54 f2bc
00000050: 76f2 833d bd4a 693d d063 993d 9d1b 3d3d
00000060: 03be 673d 95f3 993d 4bdd d7bb 1d84 edbc
00000070: 1ef1 b2bd bbd8 8f3d c149 babc 9ce6 173c
00000080: 8912 283c 9ba5 b33c b410 9f3d caf0 4f3d
00000090: f3fb 99bd 0af0 9fbc 0016 003d 54a1 9c3d
000000a0: f2d4 b6bc 8c1d 35bb f1ae d8bc 855e 83bb
000000b0: b8a4 3ebc e339 323d cc2a c73d 3482 2a3d
000000c0: d407 583d 57cd a43d 9b81 adbd 42a4 8c3d
000000d0: b445 843d 0ad2 b3bd 48bf 0dbd fee5 2ebd
000000e0: 7a0a debc 9542 933d 8011 80bc bb73 c3bc
000000f0: 1ed9 adbd 9818 75bc 4073 05bc 1b7f 023c
00000100: 688b 8bbc bde1 08bd c47c 543b 39a2 813d
00000110: 4c0f 37bc 8b46 b13c cdc8 85bd b757 94bd
00000120: 93fd 2c3d e082 1b3b d046 2e3c b2da 9bbd
00000130: 7f5f 33bd 0887 81bd 72d4 86bd 4c3a 0e3d
00000140: c38e b1bd 695f 01bd f023 3bbd 2ee3 a7bc
00000150: 05eb 53bd a077 95bd b411 f13c e41e d43c
00000160: f311 acbd 5392 823d 18b4 9ebb 1ddb 5e3d
00000170: de64 bbbc 3733 aa3d 929e 16bc 5bd5 103d
00000180: affa a6bc 0354 8c3c 183c 1f3d aecc 95bd
00000190: d456 fcbc 0e0f b93d 8dfd 883d cb10 213d
000001a0: 1d49 af3c 9e5d 813d d20f 88bd 5917 a4bd
000001b0: 882d f63c e247 773d 00cb 723d 1a36 abbc
000001c0: bccc 503d e87e 1b3c a8f5 253c cbf6 1c3d
000001d0: e206 ca3c 6eff 10bd 59c7 77bc 765d 9b3d
000001e0: a2d1 323d c0aa 7a3d 90f1 92bd f068 63bc
000001f0: 92c5 013c 2e49 413d 97ab 4bbd a70b 4d3d
00000200: 3a13 833d 7987 a73d ca1d 7ebd a78e 80b8
00000210: 703e 2dbd d653 3a3d 1d94 83bd 7a86 96bc
00000220: 4caa 47bc 5b3a a0bd b3ea 34bc db5a bbbd
00000230: 5ca2 d13b 7a19 843d 9112 183b 39bc 19bc
00000240: 301c 153d 6eaa 033d a71b 54bc 02e2 b43d
00000250: b1c9 d4bc bf5a b93c 45b7 febb 04a1 8bbd
00000260: b55f 57bc 1d7e 803d 697a ed3c e761 003d
00000270: c909 8e3d 84ac 0ebd 7d8b 113d b658 883d
00000280: e78f 2fbd 6d4e 713d 66cf 9a3d ba8f b23d
00000290: 8f7a 433c 736c 70bd 7642 e03b d6e3 38bd
000002a0: 96da 47bb 8962 4c3d a649 1a3d e319 853d
000002b0: 38ab 4f3c 1b88 9aba 8cf8 a0bd 231a 82bd
000002c0: 7a88 51bb 77c7 ae3d 5ec5 1c3d cbe2 1cbd
000002d0: fc1c 45bd b233 adbd 311e f4bb 92c1 903d
000002e0: c87e abbc 30a5 91bd 6aa6 973d a05b 643d
000002f0: 6abf 90bd 4e35 633d c06f 49bd 1130 36bd
00000300: e0af 90bd 9204 b93c 7297 363d d256 25bd
00000310: a104 71bb 771a 96bc f00c 30bd 95e1 8c3d
00000320: c20c a2bd 54d4 c13c d489 91bd abf2 b23d
00000330: 432d 89bd 53f2 8c3d b0d0 87bc 6585 5fbd
00000340: 1d99 95bd 551b 5bbd 54aa 5dbd 5013 7bbd
00000350: 7043 273c 313a 853d b198 553b fde7 9a3d
00000360: c767 9a3d b481 c03c d2db 353d 88df abbd
00000370: a452 97bc cc43 463d 98cf 283d bbc1 463d
00000380: 60f5 a5bd 8fd3 99bd d8bd 8ebd 917f 71bd
00000390: abae 2b3d d590 a5bc 2829 b3bc 0a1f 93bc
000003a0: 32b8 6fbd aabf 21bd e1a4 b6bc e591 a83d
000003b0: c46f ba3c 2469 3abb 8dab 593d eb0f 29bb
000003c0: 62b8 6a3d 3b77 8fbd 53e9 963d 4834 823d
000003d0: 4e85 f03b f302 133d 97cb 903d 6be2 d73c
000003e0: 7d56 0fbd 7f15 9f3c 6e4e bf3d 5fc7 4fbd
000003f0: 20c3 00bd 9c17 d5bc 952d 13bd 9a7d 703d
-0.015765259 -0.021354627 0.016800461 0.082027026 0.014093148 0.08615237 0.0010602074 -0.08148001
-0.022853358 0.07991778 -0.067785285 0.01014206 0.08287785 -0.041699305 -0.017956777 -0.04783429
-0.061359514 0.0066374466 -0.01760299 -0.029581215 0.0644273 0.05695604 0.07489741 0.046168912
0.056577694 0.07517163 -0.0065876595 -0.02899366 -0.08737396 0.0702376 -0.022740247 0.00927129
0.010258325 0.021929553 0.07766858 0.050766744 -0.075187586 -0.01952364 0.03127098 0.076479584
-0.022318337 -0.002763602 -0.026450606 -0.0040090703 -0.011635952 0.043512236 0.0972496 0.041628078
0.05274184 0.08046978 -0.08471986 0.06867267 0.06458607 -0.08780296 -0.03460625 -0.042699806
-0.027104605 0.07190434 -0.015633345 -0.023858896 -0.084886774 -0.014959477 -0.0081451535 0.007964875
-0.017034248 -0.033418406 0.0032423 0.0632977 -0.011173081 0.021640083 -0.0653244 -0.07243293
0.042234015 0.002372913 0.010637 -0.07610072 -0.043792244 -0.06324583 -0.065834895 0.034723565
-0.08669808 -0.03158513 -0.04568857 -0.02049407 -0.051737804 -0.07298207 0.029427387 0.025893636
-0.08401861 0.063755654 -0.004843246 0.05440818 -0.022875246 0.0831055 -0.00919308 0.03535972
-0.020383207 0.017129904 0.03887567 -0.0731443 -0.030803122 0.090360746 0.06688986 0.039322656
0.021397168 0.06316684 -0.066436425 -0.08012266 0.030051008 0.060371287 0.059275627 -0.020899821
0.0509765 0.009490706 0.01012937 0.038321298 0.024661485 -0.035399847 -0.015123212 0.07586186
0.043656953 0.061197996 -0.07174981 -0.0138799995 0.00792064 0.04718893 -0.049724188 0.05005994
0.064001516 0.08180136 -0.062040128 -6.130087e-05 -0.042295873 0.04549011 -0.06424735 -0.01837467
-0.012186598 -0.078236304 -0.011042285 -0.09148189 0.0063975286 0.06450172 0.0023204426 -0.009383255
0.036403835 0.032144956 -0.012946046 0.0883217 -0.02597508 0.022626279 -0.0077733123 -0.06817821
-0.013145377 0.06274054 0.028989034 0.031343367 0.0693546 -0.034832492 0.035533417 0.06657545
-0.042861845 0.058912683 0.07559089 0.0871882 0.011931076 -0.058697175 0.0068438603 -0.045139156
-0.0030495278 0.049898658 0.037667893 0.06499078 0.012675099 -0.001178983 -0.078599066 -0.063526414
-0.0031972216 0.08534139 0.03827416 -0.038302224 -0.048123345 -0.08457126 -0.007449888 0.070681706
-0.020934477 -0.07111585 0.07404788 0.055751443 -0.07067759 0.055470757 -0.04917884 -0.044479433
-0.070647955 0.022585187 0.044578023 -0.040366 -0.003677644 -0.018323166 -0.04298109 0.06878964
-0.079125896 0.023660816 -0.07106367 0.087376915 -0.06698086 0.06882157 -0.016579002 -0.054570574
-0.07304595 -0.053492863 -0.054117516 -0.061297715 0.010208949 0.0650524 0.0032592232 0.075637795
0.07539325 0.023499347 0.04439909 -0.083922446 -0.018472023 0.0484045 0.0412136 0.0485246
-0.08103442 -0.07511055 -0.069698036 -0.058959547 0.041914623 -0.020210663 -0.02187021 -0.017959137
-0.05852527 -0.039489426 -0.022295417 0.08230952 0.022758372 -0.0028444016 0.05314212 -0.0025796841
0.057304747 -0.07005163 0.07368722 0.06357628 0.00734011 0.035891484 0.07070082 0.026353082
-0.03499459 0.01941943 0.09341131 -0.050727244 -0.031436086 -0.026012234 -0.035932142 0.058713533

fc3.bias f4 [128]
00000000: 6bd4 713d 1991 90bc a235 9b3d 473c 61bd
00000010: 69cd e6bc 7617 adbd 332a 6e3d 2092 6e3d
00000020: cd36 45bd 7bff 453b f770 9fbd 23a5 43bd
00000030: 95d3 0b3d c876 2abd bc19 ebbc 8249 b4bd
00000040: a76a 90bc 163a 143d 2376 563d cea8 783c
00000050: 303e 98bd 5ec0 a33d ce11 98bd cb05 9a3c
00000060: eb60 aa3d 0627 e5bc 8728 cb3c b474 a73d
00000070: c379 94bd 1adf 2d3d 490f 5dbd 1000 f23c
00000080: 8699 e1bc 2cf4 ab3d 9003 b6bd af80 a8bb
00000090: 0a27 85bd 4136 833d 7d17 30bd 4d88 23bd
000000a0: a368 a53d 99db a1bd f173 87bd 93b4 a0bd
000000b0: 6ca9 94bd 5045 e73b b4bc 29bd ff76 af3d
000000c0: 069a 323d bf54 37bd 5b76 80bd 8c65 783d
000000d0: c22c 31bb 5b14 aebb a551 8abd 6b0a 64bc
000000e0: 30f5 a9bd b8a9 70bc 56df 853d 885e 2b3c
000000f0: 03f4 a93d 0200 03bd 67fc 2dbd 9f14 18bd
00000100: 46a2 c03c c3cb b43c 0c64 14bc 29d6 843c
00000110: 6b44 893d ddd5 4cbd 39d3 8c3c 739d c33c
00000120: ff9e 6e3d 2730 893d c481 9b3d 132f cf3b
00000130: b991 8a3c ac79 90bd 22f5 f7bc 6a81 8d3d
00000140: 740f 63bd e0a2 cabb 720c 0b3d abfc df3c
00000150: 52c9 25bd d121 0ebc 840f a53d 3284 3abd
00000160: 46f0 993c 2a31 873d ee85 be3c aa7c 68bc
00000170: afa5 74bd 25e6 98bd 4c57 bebd a551 5e3c
00000180: 239b 943c 8de5 2ebd 3eab 813d f86a 9dbd
00000190: 396a 14bd 895a 62bd 05dd b03c 6eb7 4cbd
000001a0: 628a 8bbd 9276 853d 9010 1abd a5f9 0cbd
000001b0: f699 a13d 2ec9 1d3b bd7b e8bc 0e42 873d
000001c0: 0a27 adbd 605f 643c c269 503d a62d edbc
000001d0: 084e 9bbd de1d 783d e692 9bbd 41e6 6b3d
000001e0: 5582 afbd 6f26 963d 1325 08bd 8bdd c4bc
000001f0: ab9c 90bd 6e67 483d 4cfe 293d 406d 1fbd
0.05904047 -0.017647313 0.07578589 -0.054989126 -0.02817412 -0.084517404 0.058145713 0.058244824
-0.048147965 0.0030212093 -0.07785218 -0.04776491 0.034137327 -0.041617185 -0.028698795 -0.08803083
-0.01762898 0.036188208 0.052358758 0.015176965 -0.07433736 0.079956755 -0.07425271 0.01880159
0.08319267 -0.02797271 0.024799598 0.08176556 -0.07249787 0.042449094 -0.053969655 0.029541045
-0.027539026 0.083961815 -0.08887398 -0.0051422934 -0.06501587 0.064068325 -0.04299115 -0.03992491
0.080765985 -0.07903213 -0.06613911 -0.07846942 -0.07258877 0.0070578232 -0.041439727 0.085676186
0.04360392 -0.044758555 -0.062725745 0.060643718 -0.0027034734 -0.005312485 -0.06753854 -0.013918499
-0.08298719 -0.014688902 0.065367386 0.01045955 0.08298495 -0.03198243 -0.042477038 -0.03712904
0.023514878 0.022069817 -0.009057056 0.0162154 0.06702503 -0.050008643 0.017190563 0.023878789
0.0582571 0.066986375 0.0759311 0.0063227504 0.01691519 -0.07054457 -0.030268256 0.069094494
-0.05543466 -0.006183967 0.033947416 0.027342161 -0.040475197 -0.008675055 0.080596 -0.045536228
0.01879133 0.06601174 0.023257222 -0.0141898785 -0.05972832 -0.074657716 -0.09293994 0.01356927
0.018140381 -0.042699385 0.0633149 -0.07686418 -0.036234114 -0.055262122 0.021589765 -0.04997962
-0.06813504 0.06516756 -0.03761345 -0.034417767 0.07890694 0.0024076211 -0.028379316 0.06604396
-0.08454712 0.013938755 0.05088211 -0.028952431 -0.07583243 0.06057536 -0.07596378 0.057592634
-0.08569781 0.073315494 -0.03323848 -0.024031421 -0.07061132 0.048926763 0.041502282 -0.03892255

fc4.weight f4 [64, 128]
00000000: 4303 65bd 4099 423c 1765 ab3d a7fa 9b3d
00000010: 28b8 f0bc 8c27 8dbd 006a 543a 1557 a03d
00000020: 4053 1f3c d09b ffbc cf4b 8a3d 313b a93d
00000030: d12a b13d c834 72bd 3d8c 9ebd 5df0 a13d
00000040: 8436 78bd 725b 083d e097 cfbb 84e3 0abd
00000050: f010 da3b 3dd3 9c3d 4f22 863d 4a56 22bd
00000060: 8fc3 8a3d 20c7 52bb 37b2 8e3d 101d b6bb
00000070: 0bfc 873d 6443 8bbd 6c70 d0bc f733 8cbd
00000080: e66f d7bc ca8c 6b3d 2055 05bb 79d2 823d
00000090: 2fcd 893d 4e2e 753d b65d 5bbd b380 9ebd
000000a0: 929e 90bd 0414 ce3c 369e 613d 5898 5fbc
000000b0: e330 07bd 5d3d aa3d 80cd ae3c 3bdd a23d
000000c0: 5dfa 19bd a3a5 993d 3146 3bbd 80af 71bc
000000d0: e5af 9d3d e5b5 983d 49bc 21bd 0cd2 b2bd
000000e0: 54ac 58bd 90e6 d63b 5e6a 80bd e0d8 08bb
000000f0: 3880 febc 0679 8dbd 3a0e 473d e49b 53bd
00000100: d0ad 543c 8006 96bb 1ab0 503d d080 fa3c
00000110: 56f5 4a3d aec5 0dbd 5850 0d3c 7cdf afbc
00000120: a348 883d 40e8 b7bb a813 713c 3008 413c
00000130: c33f 853d cfa1 a9bd 1eb3 1b3d 4a47 41bd
00000140: 944b 66bd 1680 6a3d db72 983d 30e9 59bc
00000150: df19 77bd 8e31 133d 2382 68bd c0bb 6f3c
00000160: 33f4 b23d 455a a13d 4cdc f23c 7cb1 9bbc
00000170: 7b18 a13d c89f a9bd 891f a33d fabd 2dbd
00000180: 6d21 9b3d a295 e0bc ccb1 8ebc 91d7 59bd
00000190: d01e 9dbd 2a90 103d 1cda aebc 000b 41ba
000001a0: 2cbd 92bd bdb2 b33d f114 b23d 926b 24bd
000001b0: 71ae ad3d 024e 053d 7a82 7d3d fe0b 513d
000001c0: 609a 3ebb d134 893d 5edd 1c3d 9a54 2d3d
000001d0: e212 6a3d 9496 1cbd 48f9 41bc c0f3 4ebc
000001e0: 50d1 68bc 204a 90bd 0c0d 8dbc 7af7 413d
000001f0: 61b5 a03d 0c07 22bd 88a5 da3c 2f1c 903d
00000200: 7b44 a13d 0054 b4bd 4cc5 88bd f827 073d
00000210: 403f aa3a 066a aabd a79d 1ebd 9178 843d
00000220: cddc 23bd 6caa bd3c f7b4 9f3d 9c01 97bd
00000230: 6a87 aabd f1a0 ab3d 35eb 853d 8eb6 583d
00000240: ca03 b5bd 3204 473d e4cc 12bd 6cc8 c23c
00000250: 189f 0abd 19b0 943d 3643 9cbd 027f 203d
00000260: ae1b d4bc 0084 ba3c 00d3 a8bc 0003 033a
00000270: debb 363d 5025 ec3b 7a90 38bd c0d3 a23c
00000280: c328 8bbd 9c84 f43c 6587 66bd 96de 423d
00000290: 79c2 af3d b2d5 0abd 301d 39bc 3ef1 7e3d
000002a0: 46c2 5f3d 801d 94bd a9e8 a53d ebf8 893d
000002b0: f660 6ebd 4a27 533d c888 053d e091 3bbd
000002c0: 9f69 1abd e0f3 1ebd 9481 d33c dd84 6fbd
000002d0: a918 973d a0c8 a93b 64ae c23c d64a 45bd
000002e0: 4527 873d 6e37 11bd 0efd 7c3d 1408 17bd
000002f0: 446a 133d 4b22 83bd 6514 833d 3008 fd3b
00000300: d414 a4bd ff25 a1bd c233 80bd bc82 b2bc
00000310: e0e2 8ebd 4d56 873d d06b f73c c07a f0bc
00000320: 7044 54bc 927e 9dbd 8854 da3c 7d11 903d
00000330: ca0f 3e3d e099 2ebd 70f9 9cbb 5b13 933d
00000340: 47cc 4cbd 72dd 4e3d 3d42 9d3d 711b b13d
00000350: 0092 443c 7612 493d 6105 18bd 8035 ac3c
00000360: 8696 593d 960d 463d 0c06 9dbd ec12 8e3c
00000370: 1f8a a03d 87da 6abd c4bd 77bd b8cc 35bd
00000380: 37ff 803d 4ee6 2fbd 30bf 613c 2975 ae3d
00000390: 75b6 863d 4866 28bc 642a 8c3c bfd2 90bd
000003a0: 4bd8 853d 737f 49bd f116 56bd d670 533d
000003b0: b7d6 973d da97 3f3d 8049 d3bb 717e 19bd
000003c0: 8eae 213d c585 943d 909a 803c 44ad 54bd
000003d0: a474 8e3c b54e 833d 78b9 f63c 076f 9a3d
000003e0: 009c e9bb 082c 90bd b847 2cbd ccc7 a93c
000003f0: 80a1 6b3c 28b5 45bc c8e3 1d3c 1d8f a3bd
-0.055911314 0.011877358 0.08368891 0.076161675 -0.029384688 -0.068923086 0.00081029534 0.078291096
0.009724438 -0.031202227 0.067527406 0.08263243 0.08650745 -0.059132367 -0.07741592 0.07907174
-0.060598865 0.033290334 -0.0063352436 -0.033908382 0.006654851 0.07657478 0.065495126 -0.039633073
0.06775581 -0.0032162145 0.069675855 -0.0055576637 0.0663987 -0.06799963 -0.025444232 -0.06845849
-0.026298475 0.057507314 -0.0020344928 0.06387801 0.06728589 0.059858613 -0.053556167 -0.07739391
-0.07061495 0.025156029 0.055082522 -0.013647161 -0.033005606 0.08312485 0.021338224 0.079523526
-0.03759228 0.07502296 -0.045721237 -0.014751315 0.07699565 0.07456569 -0.039486203 -0.087314695
-0.05289872 0.006558247 -0.06270288 -0.002088122 -0.031066999 -0.06907849 0.048597552 -0.05166234
0.012980893 -0.0045784116 0.050949194 0.030579 0.049550377 -0.03461235 0.0086251125 -0.02146887
0.06654479 -0.005612403 0.014714159 0.011781737 0.06506302 -0.08282816 0.038012616 -0.047187127
-0.05622442 0.05725106 0.07443782 -0.013300225 -0.060327407 0.03593593 -0.056764733 0.014632165
0.087379836 0.07878546 0.029646061 -0.01900553 0.078659974 -0.08282429 0.07964999 -0.042417504
0.07574735 -0.0274151 -0.017418765 -0.053184096 -0.07671893 0.035293736 -0.021344237 -0.0007364005
-0.07164988 0.08774326 0.086954005 -0.04014165 0.08480538 0.032545097 0.06189201 0.051036827
-0.0029083714 0.06699527 0.03829705 0.04231701 0.057146914 -0.03822954 -0.011839218 -0.012631357
-0.01421006 -0.07045388 -0.017218135 0.047355153 0.07847095 -0.0395575 0.02669026 0.070366256
0.0787439 -0.08805084 -0.066782564 0.0329971 0.0012988821 -0.083210036 -0.038724568 0.06468309
-0.040005494 0.023152553 0.07798188 -0.07373354 -0.083266094 0.083803065 0.06539003 0.052908473
-0.08838613 0.048587985 -0.03583993 0.02377721 -0.03384313 0.072601505 -0.07630007 0.039183624
-0.025892105 0.02276802 -0.020608425 0.00049977005 0.044612758 0.0072065964 -0.04505966 0.01987636
-0.06794884 0.02984839 -0.056281466 0.047575556 0.085820146 -0.033895202 -0.011298463 0.062241785
0.054628633 -0.07232189 0.08101017 0.067369305 -0.058197938 0.05155114 0.032601148 -0.045793414
-0.037698384 -0.038806796 0.025818624 -0.058476318 0.073777504 0.005181387 0.023764797 -0.048167072
0.06599287 -0.035453252 0.06176477 -0.03687294 0.035990015 -0.06403025 0.06400374 0.0077219233
-0.08011785 -0.07868575 -0.06259872 -0.021790855 -0.06976867 0.066082574 0.030202776 -0.029355407
-0.01295577 -0.07690157 0.026651636 0.070345856 0.046401776 -0.042627215 -0.0047904775 0.07181426
-0.0499995 0.050504155 0.076786496 0.08647812 0.0119977 0.04908987 -0.037114505 0.021021605
0.053122066 0.0483528 -0.07667169 0.017343007 0.078388445 -0.05733731 -0.06048371 -0.04438469
0.06298678 -0.042944245 0.013778493 0.0851844 0.0657777 -0.010278292 0.017110057 -0.070714466
0.06535395 -0.04919381 -0.052267972 0.05162128 0.074140005 0.046775676 -0.006447971 -0.0374741
0.03947311 0.07252077 0.015698701 -0.05192305 0.017389603 0.064114965 0.030117735 0.07540708
-0.0071291924 -0.07039648 -0.042060584 0.020725153 0.014381766 -0.012067117 0.009636827 -0.07986281

fc4.bias f4 [64]
00000000: f51a afbd a101 a73d 20c7 c6bb 6eac 2bbd
00000010: 6061 95bc 40ab 873a 6b94 9bbd 426a 753d
00000020: d440 f9bc e8bf 993c 48ef 873c c628 43bd
00000030: ab62 0cbd 2001 9f3c ed6e 1cbd d76c 893d
00000040: 2aaf 163d e4fc 80bc 1822 7f3c 7a41 9ebd
00000050: df57 80bd 2d1b 913d 9a56 3f3d 5172 893d
00000060: 1ec6 4e3d 4570 36bd f385 aebd 8e8b 96bd
00000070: dbd7 b4bd 5a26 1d3d 830f 8d3d 1e02 183d
00000080: 8017 20bc 696b afbd b808 90bd cc34 bfbc
00000090: 08fa 39bc 4bb2 a63d 2ced 9cbd 6b1b a3bd
000000a0: 44f7 a13c 00b2 883c a035 723b 3d0b 00bd
000000b0: 6af0 82bd ed1a 0dbd 7c75 0a3d 0b2d 913d
000000c0: 986e 94bd 506b 403c da67 7a3d c2d0 263d
000000d0: 4623 40bd 98c7 3bbd c0af 123c 24f3 a03c
000000e0: 3c5c cf3c 3175 ac3d c613 263d bfd9 35bd
000000f0: 28b1 a2bc 9421 083d 2e8a 593d c010 b1bb
-0.085500635 0.081546076 -0.006066218 -0.04191249 -0.018234909 0.0010350719 -0.07596668 0.05991579
-0.03042642 0.018768266 0.01659359 -0.047646306 -0.034273785 0.019409716 -0.038191725 0.06710213
0.036788143 -0.015745588 0.015572093 -0.077273324 -0.0626676 0.070852615 0.04671345 0.06711257
0.050481908 -0.044540662 -0.085216425 -0.07350837 -0.08830234 0.038366653 0.06887724 0.037111394
-0.009771228 -0.08565409 -0.07032913 -0.023340605 -0.011351116 0.081394754 -0.076624244 -0.07964214
0.019771226 0.01668644 0.0036958233 -0.031260718 -0.063935116 -0.034449507 0.033803448 0.070886694
-0.072476566 0.011744335 0.061134197 0.04072643 -0.04690864 -0.045844644 0.008953035 0.019647188
0.025312535 0.0842079 0.0405462 -0.044397112 -0.019859865 0.033235148 0.053110294 -0.005403608

mean.weight f4 [7, 128]
00000000: f996 9bbd 7e25 fa3c 2351 b13c 1724 11bd
00000010: b469 4e3d 988d 95bd b7da e1bc d623 633d
00000020: 8387 3dbd ad2f 9e3d 1417 9f3c a3e6 8f3d
00000030: bcd6 dfbc 15e5 7a3d 81db 8c3d 3a99 8a38
00000040: b859 c439 c8ef 423d 4265 893d e7f4 26bd
00000050: 572c a7bb edc3 4cbd 6977 883c 54ce ae3d
00000060: f958 a53d 098b d3bc 269e 9ebd 6424 eabc
00000070: 1b1d 9b3d afff 85bd 423b 893d 087a c33c
00000080: 1def 723d 0eab 4d3d ab8b ee3c 0347 143d
00000090: f727 903d 76a6 a93d 298c b8bd 25c5 b33c
000000a0: ab25 7d3d dff0 f33c baa7 84bd 4497 163d
000000b0: 7dc3 8c3c 60ac 5ebd ccc1 6e3c da08 bb3c
000000c0: db49 6dbd d29d 693d f65b 0f3d b97d 91bd
000000d0: 359c 34bd f3b1 893d 3928 b63c f797 a73b
000000e0: f642 5ebd 8051 013b 4551 833d f0f6 15bd
000000f0: 30bb 90bd e881 43bd 6541 b1bd ad09 ad3c
00000100: 416e 653d 6858 5f3d 5c08 edbc c024 b8bb
00000110: ad38 12bd 9548 33bd fe4f 883c 5624 a13c
00000120: c817 5ebd cfea 093d 4aa0 5dbd cd68 83bd
00000130: 10b1 7cbc 10e6 9ebd 29ae 133d b13e a33d
00000140: 4945 ab3d 84c8 06bd d668 a43c 9825 94bd
00000150: 66b2 ac3d fb87 8b3d bf4a 87bc 7c37 973c
00000160: fd26 79bc ee10 dc3c ad59 393d 2d20 943d
00000170: 3cec b53c 9989 273d 159c cc3c 88f3 89bd
00000180: f6a3 f7bb cd5e 6bbc d225 2c3d 1109 853d
00000190: 0de8 0bbd 3969 6bbd 1796 973d 98f8 51bd
000001a0: 4504 5b3d ff32 37bd 013b acbd 6fa4 8c3d
000001b0: c676 693c 4f91 9e3a 871b 963d 6c67 a13d
000001c0: f191 74bd 421f 573d 763c 7abd 2c28 143d
000001d0: 4d61 cfbd cd10 61bb a722 48bd 9878 94bd
000001e0: 9003 d63c 54a6 57ba a0f0 6f3c 635e 98bd
000001f0: 9f94 853d ec72 d8bc df20 a43d 2f41 c5bc
00000200: 9a76 1ebd 5edf 3ebd fcdc 843d d945 883d
00000210: 045b 233d fc50 883d 6149 f2bc c64c 83bd
00000220: ff5c 9d3d 9f39 063d 781a 15bc f2a4 c23c
00000230: e1bb a3bd b712 82bc 840b b0bd 4bb6 27bd
00000240: 5978 a03d 6e6b f33c 7fe3 03bd b7df 56bd
00000250: 07ad 96bd 5ae5 443a e29c 05bd 2c0a 673d
00000260: 047e 7f3d 10ae dfbb 28b1 3bbd a9f3 34bb
00000270: b2a9 343d 60cf 10bd 8561 1d3d 6ef7 803d
00000280: 27f5 f53c c817 a5bc 7cdd e6bc fa03 ab3b
00000290: 1399 863d cadc 8e3d fff4 12bb 4f54 9f3d
000002a0: 8151 a1bd 63da b8bc e317 953d 3cb7 a53d
000002b0: da01 94bd 0545 22bd 40ba a0bd 7de6 313d
000002c0: 5a15 763d 2940 5cbd 04b1 babc d49b 213d
000002d0: d93f a03c db03 953d 74e3 36bd 7a7e 7e3d
000002e0: 4e33 373d 82b5 aebd 3b5b 6d3c 685e d83c
000002f0: c2ea aa3d 2267 19bd 8f5c 87bd 2f05 7cbc
00000300: fa65 003d ba5e a0bd da0c 8a3d c2c9 31bb
00000310: 3dc7 9dbd 4ecd a7bd d413 90bd 9a27 093d
00000320: f337 95bd f4b5 06bd 5779 08bc c8c9 983d
00000330: d95a 2a3d b621 443d 8e72 733d fac4 a23d
00000340: 46c5 f2bc c5a6 e7bc 5835 a33a f29e a43c
00000350: 706f 54bd 2753 663d 2cf9 9ebd 3ce5 a7bb
00000360: 9c8f 5bbd e42a 6d3c 0eb2 563d e32f 623d
00000370: 72ba 1e3a 45a4 a0bd 4fc3 2fbd 2863 5abd
00000380: 7bfa 99bd 6705 75bc c669 9d3d ce40 4a3b
00000390: ecd4 a8bc 7b8c 2abd 4324 75bd 3cce babd
000003a0: 6376 a03c 9db6 103d d966 2f3d 3cf1 2abc
000003b0: bf1e 0e3d 4655 05bd 538a 7dbd dfa5 863c
000003c0: 071a 933c 00ee cd3c afa0 8a3d 94a4 cf3c
000003d0: 59c6 133d 4832 97bc 52a0 193d a42b 6c37
000003e0: a81d fb3c ba08 2c3d 07a3 8d3d af87 4bbd
000003f0: 63f4 d0bc 84e0 973c 9845 67bb 39eb 9c3d
-0.07597155 0.030535456 0.021645134 -0.03543481 0.050393775 -0.073023975 -0.027570112 0.055454098
-0.046271812 0.07723937 0.019420184 0.07026412 -0.027324073 0.061253626 0.068778045 6.6088935e-05
0.0003745088 0.047591954 0.067087665 -0.0407609 -0.0051017213 -0.049991537 0.016658502 0.08535448
0.08073611 -0.025823133 -0.07745008 -0.028581806 0.07573911 -0.065429084 0.06700756 0.0238619
0.059310067 0.05021196 0.029119333 0.036200535 0.07038873 0.08283703 -0.090111084 0.021944592
0.0618035 0.029777942 -0.06477304 0.036765352 0.01718306 -0.05436361 0.014572572 0.02283137
-0.057931762 0.057035275 0.03499981 -0.07104058 -0.044094283 0.06723394 0.022235977 0.005114551
-0.054263078 0.0019732416 0.06411985 -0.03661245 -0.07066953 -0.04773131 -0.08655051 0.021122778
0.05601335 0.05452767 -0.02893465 -0.0056196153 -0.03569858 -0.04377039 0.016639706 0.019670647
-0.0542219 0.033671197 -0.05410794 -0.064164735 -0.015423074 -0.07758725 0.036054764 0.07970942
0.083628245 -0.03290607 0.02006952 -0.07233733 0.08432464 0.068130456 -0.016515134 0.018459074
-0.015207049 0.026863541 0.045251537 0.072326995 0.022207372 0.040902708 0.02497677 -0.06735903
-0.0075573875 -0.014365864 0.042028256 0.0649587 -0.034156848 -0.057473395 0.07401674 -0.051262468
0.05347087 -0.044726368 -0.084096916 0.06867301 0.014249509 0.0012097749 0.07329469 0.07881054
-0.059709493 0.052520044 -0.061092816 0.036171123 -0.101259805 -0.003434229 -0.048861172 -0.07249564
0.026124746 -0.0008226384 0.014644772 -0.07439878 0.06522488 -0.026421987 0.08014082 -0.024078934
-0.038687326 -0.04659974 0.06487462 0.066539474 0.03988172 0.066560715 -0.029576005 -0.06411128
0.07683753 0.032769796 -0.009100549 0.023760293 -0.079948194 -0.015878065 -0.085959464 -0.040945332
0.078354545 0.029714312 -0.03219938 -0.052459445 -0.07357221 0.00075109827 -0.03262032 0.056406185
0.062376037 -0.00682617 -0.045823246 -0.0027611053 0.044107147 -0.03535402 0.03842308 0.062971935
0.030024124 -0.020152941 -0.028181784 0.00521898 0.06572165 0.06975706 -0.002242386 0.077797525
-0.07876874 -0.022565072 0.07279947 0.0809159 -0.07226916 -0.039616603 -0.07848024 0.0434327
0.060078956 -0.053772125 -0.022789486 0.03945525 0.019561695 0.07276126 -0.04465051 0.062132336
0.044726662 -0.085307136 0.014487083 0.026412204 0.08345558 -0.03745187 -0.06609451 -0.015382095
0.031347252 -0.07830568 0.067407325 -0.0027128314 -0.07704017 -0.08193456 -0.07035032 0.033485033
-0.07286062 -0.032888368 -0.008329711 0.07460362 0.041590545 0.04788371 0.05943542 0.079477265
-0.029635083 -0.028277764 0.0012451811 0.020095322 -0.051864088 0.056231644 -0.077623695 -0.0051237624
-0.053603753 0.014475558 0.0524159 0.05522145 0.0006055004 -0.07843832 -0.04291087 -0.05331722
-0.075184785 -0.014954901 0.0768619 0.003086138 -0.020609342 -0.04163788 -0.059849035 -0.09121367
0.019587701 0.035330404 0.042822693 -0.010433491 0.03469729 -0.032552026 -0.061899494 0.016436515
0.017956747 0.025137901 0.06768929 0.025347032 0.03607783 -0.018456593 0.03750641 1.4076857e-05
0.03065379 0.04200051 0.069158606 -0.049689945 -0.025507158 0.018539675 -0.0035289284 0.07662053

mean.bias f4 [7]
00000000: 0e02 9f3a a444 2f3d 4142 cb3b bfee 1fbd
00000010: 2799 ba3d 6fe4 48bd 7cee 473c
0.001213135 0.04279007 0.0062029664 -0.039046045 0.09111243 -0.049045976 0.012202855
