kinova-ros/kinova_scripts/src/runs/jaco2_ppo_20240705-215910/best_model_episode_50_20240705-215910/critic_20240705-215910.pth (torch, 152975 bytes, 5 tensors)

fc1.weight f4 [256, 17]
000000 ee 6c 6b 3e 46 cc 01 3e bd ea 82 3c aa b9 15 be
       0.22990772 0.1267558 0.015981073 -0.14621606
000010 ef df 9e 3d 5e a3 00 3e aa e9 52 be 85 b6 37 3d
       0.07757556 0.1256232 -0.20596948 0.0448518
000020 c8 04 30 be 70 e3 56 3e 4c 03 14 be 81 45 25 be
       -0.17189324 0.20985198 -0.14454383 -0.16139795
000030 bd 82 62 3e 27 e1 d7 3b 26 b9 5f be 3b 69 9b bd
       0.22120185 0.0065881195 -0.21847972 -0.075884305
000040 d8 eb 1f be a6 0f 7f 3c c1 77 fd 3d f8 c4 22 be
       -0.15617311 0.015567696 0.12376357 -0.1589545
000050 70 b8 51 3d ec 38 43 3d cf 6d e4 bd 68 00 21 bb
       0.051201284 0.047661707 -0.11153757 -0.0024566893
000060 be 97 55 be d5 43 e8 bd b2 68 53 3d ff 14 22 be
       -0.20858666 -0.11341063 0.051613517 -0.15828322
000070 54 13 2d be 25 a5 0d 3e 72 3c 04 bd d3 ff 0c 3e
       -0.16901904 0.13832529 -0.032284208 0.13769464
000080 66 f9 41 3e d9 e4 0f be 70 3f 44 3e ad 8a 6c be
       0.18942794 -0.14052142 0.19164824 -0.23099776
000090 89 4f 66 3e 99 cc d7 bd 37 8c 88 3d 3f 9c 05 3e
       0.22491278 -0.10537071 0.06667369 0.13047884
0000a0 5c 99 4c 3e 44 f0 20 3e f4 d2 3b be 56 fe 0c be
       0.19980377 0.15716654 -0.18342191 -0.13768896
0000b0 3a d2 c4 3d 38 cd 57 be e8 f1 0b be c3 06 44 3c
       0.0961041 -0.21074378 -0.13666499 0.011964503
0000c0 51 b1 69 3e dc f2 74 bd 15 85 40 3e 5a f0 1f 3e
       0.22821547 -0.05980192 0.18800767 0.1561903
0000d0 67 fd 4f 3e c2 c4 a3 3d 05 8e c6 3d cb 81 ca bd
       0.20311509 0.07996513 0.09695057 -0.09888037
0000e0 45 79 5d 3e 66 37 fa 3c e1 71 4d 3e 06 a5 4b be
       0.21628292 0.030543994 0.20062973 -0.1988717
0000f0 de 6d 00 be 8d 0d ab bd 5d 70 dd 3d a1 98 54 3e
       -0.12541911 -0.08352194 0.10812447 0.20761348
000100 4a e1 8b 3c bc 6e 64 bd ea 5a 6e 3e 3a 09 45 be
       0.0170752 -0.055769667 0.23276868 -0.19241801
000110 67 51 07 3e 43 f0 61 be f2 e5 e2 bd 35 9c a4 3d
       0.13214646 -0.22064309 -0.11079015 0.080376066
000120 c3 ac 43 be 03 bc 02 be 1a 98 65 bd a2 1c 2b 3d
       -0.19108872 -0.12767033 -0.05605326 0.041775353
000130 10 a9 d9 3d d7 ff 2c be 49 6c 25 3e 2b 5d 4d 3e
       0.10627949 -0.1689447 0.16154589 0.20055072
000140 30 14 df bd 59 5a dd 3c 1d 8c 00 be 60 4e b3 3d
       -0.10892522 0.02702062 -0.12553449 0.08755183
000150 9e 47 5b 3d 70 ad 6f bd 0a 82 75 3e fd 91 2f 3e
       0.053535096 -0.058515012 0.23975387 0.17145534
000160 5a 12 ae 3d 8d cf 69 be 6e e6 a7 3d e8 46 cb bd
       0.08499594 -0.2283308 0.08198248 -0.09925634
000170 4c 7c 51 bd 73 52 67 3e 9f 28 97 bd e5 96 ef bd
       -0.05114393 0.22590046 -0.07380795 -0.11698703
000180 a4 23 ed bd a5 a5 80 3d 6a 4a e5 bc 98 12 1c bd
       -0.115790635 0.06281594 -0.027989585 -0.03810367
000190 b8 24 ef bd 33 9d 31 be ec 82 c6 bd e1 00 8d 3d
       -0.116769254 -0.17345123 -0.0969294 0.06884933
0001a0 70 cb 24 be 9b 21 00 be 31 26 84 bc 2f b1 92 3d
       -0.1609323 -0.1251282 -0.016131492 0.07162701
0001b0 db b2 45 3d 15 a1 8c 3c d9 69 78 be 02 a1 7c 3e
       0.048266273 0.017166654 -0.24259128 0.24670795
0001c0 ef 44 e8 3d 1f a6 c2 3d c1 69 9d 3d b3 61 20 3b
       0.11341273 0.09504341 0.076861866 0.0024472296
0001d0 aa fd 9b bc 27 e1 75 3d 53 9f 22 be 55 86 50 3e
       -0.019041855 0.060029175 -0.1588109 0.20363744
0001e0 7c 46 5a be ef 1d 2d be cc 93 27 3e 4f de 5a 3e
       -0.2131595 -0.1690595 0.16364974 0.21373866
0001f0 d2 83 c7 bd c5 67 d4 bd 81 dd 22 3e 40 5f d8 3d
       -0.097419396 -0.10371355 0.1590481 0.105650425
000200 a2 4f c6 3d e4 d4 d2 3d f1 b7 59 be 1a 21 be bd
       0.096831575 0.10294512 -0.21261574 -0.09283657
000210 58 de 83 bd b7 23 18 3b b9 78 7d bd b3 ec 07 3e
       -0.06438893 0.0023214647 -0.06188271 0.13273887
000220 18 0f 01 be 2e 2f 41 3e b9 20 26 3d bb 2a 03 3d
       -0.12603414 0.18865654 0.04055855 0.032023173
000230 71 3d 12 be 9f 25 fa bd 9f a5 98 3d ab f2 f4 3a
       -0.1428125 -0.12214207 0.07453465 0.0018688043
000240 bd 0e 85 bd 9e 15 1e be f4 b0 0b be fd bb f6 3d
       -0.06496952 -0.15437934 -0.13641721 0.12047575
000250 77 24 fc 3d d7 74 52 be 57 91 02 be e9 fd 54 bd
       0.123116426 -0.20552383 -0.12750755 -0.05199996
000260 83 87 c2 bd d3 b7 f2 3d 2b 1c af bd 3f 5d 05 be
       -0.09498503 0.11851468 -0.085502945 -0.13023852
000270 46 e7 a8 bb 78 25 6f 3e fc de 1a be ac 27 06 3e
       -0.005154523 0.23354137 -0.15124124 0.13101071
000280 3b 3a ca bd 31 13 0a bd a1 95 76 3e 56 34 0d 3e
       -0.09874388 -0.03370971 0.24080516 0.13789496
000290 7b 9a 75 bd 2a 7c 3e 3e 8d c0 51 3d 03 91 d2 bd
       -0.059961777 0.18602052 0.05120902 -0.10281565
0002a0 0d 69 62 3d 7a 69 1d bd 4d 09 61 3d 39 cb 26 be
       0.055275965 -0.03843067 0.05494051 -0.16288461
0002b0 ac 7a 42 3e bf 2c cf bc e5 e4 c3 3c 9e 0f 41 bd
       0.18992108 -0.025289891 0.023912856 -0.047134034
0002c0 5f b6 34 bc b6 06 51 3d 69 d6 6c 3e aa 03 2a 3e
       -0.011029809 0.05103179 0.23128666 0.1660296
0002d0 43 00 38 be 55 da 41 3e 3d 2a 4d 3e e0 27 07 3d
       -0.1796885 0.18930943 0.20035644 0.032997012
0002e0 d2 3d 86 3d 62 42 67 be 61 ae 2a 3e ee de 55 3d
       0.0655476 -0.22583917 0.16668083 0.052214555
0002f0 ce fc 2d 3e eb 4c e9 bc 98 e6 96 bd 96 7c 9a bd
       0.16990969 -0.02847906 -0.07368201 -0.07543294
000300 6f f4 17 3e 20 17 3c bd 62 6f 5b 3e 2e 6b 0f 3e
       0.14839338 -0.04592049 0.21429208 0.1400573
000310 64 e1 1b bd e5 c6 03 be 1f c7 27 bd 60 e3 36 bd
       -0.038056746 -0.12868841 -0.04096138 -0.044650435
000320 72 4f c9 3d 6f 0f 4d 3e eb cf b7 3c b7 44 00 3e
       0.09829606 0.20025419 0.02243801 0.12526213
000330 d4 4b e5 3d f7 b3 5a be e4 5e 2c 3d 7b 08 0c be
       0.11196104 -0.21357714 0.042082682 -0.1367511
000340 88 b8 08 3e c7 5f d6 3d ab e7 74 3d d7 47 3b 3e
       0.13351643 0.10467487 0.05979125 0.18289123
000350 f2 88 a5 bd 02 f5 01 be 6e 29 00 3e 3b 2f 39 be
       -0.08082761 -0.1269112 0.12515804 -0.18084423
000360 bb 4d f1 3d 26 bb 6d 3c 3d 68 79 3d cd eb e4 3d
       0.11782404 0.014509952 0.060890425 0.11177788
000370 40 69 e7 3c 6f 19 67 be d1 6b c4 3d ec d3 6c be
       0.02824843 -0.22568296 0.09590877 -0.23127717
000380 53 4e 0d 3e 8f ac 0a 3e 33 fd 00 bd a6 cb 3b be
       0.1379941 0.13542388 -0.03149147 -0.18339404
000390 b8 1b 53 bd d8 85 d3 bd 1f 63 95 3d c2 90 70 be
       -0.051540107 -0.10328263 0.072942965 -0.2349272
0003a0 29 cf 6c 3e a9 0a 29 3d 8e 81 cd 3d 24 56 22 3e
       0.231259 0.041269932 0.10034476 0.15853173
0003b0 01 30 66 3e db 21 80 bc ca 75 91 bd 20 fe 31 be
       0.2247925 -0.015641144 -0.071025446 -0.17382097
0003c0 7f 24 ac bd 44 b1 fb 3d e3 fa 3e bc 8c fc a5 3d
       -0.084053986 0.1228967 -0.011656496 0.0810481
0003d0 7a 33 41 3e 52 36 05 bd b5 71 b2 bd ac 32 6a be
       0.18867293 -0.032522507 -0.08713094 -0.22870892
0003e0 48 72 5a be 97 a7 11 3e df 69 5e 3e 1d 4b 30 be
       -0.21332657 0.14224087 0.21720074 -0.17216153
0003f0 0e 41 fa 3d de e8 46 3d 5d a1 b4 bd 21 b7 03 3e
       0.122194394 0.048561923 -0.0881984 0.12862827

fc1.bias f4 [256]
000000 48 1a 68 be c4 54 00 3d d0 7d c1 3d ec 02 31 3d
       -0.22666276 0.03133084 0.09447825 0.043215677
000010 60 2f f2 3d 6a ba 4d 3e d5 f0 33 3e 89 82 3b 3e
       0.11825442 0.20090643 0.17572339 0.18311514
000020 0d 54 2f 3e 7c f5 65 be ec 21 18 be e9 ed 4a be
       0.17121907 -0.22456926 -0.1485669 -0.19817318
000030 c8 7b d9 bd 5c dc e0 3d 1d 52 4d be 0e 96 73 3e
       -0.106193125 0.1097953 -0.20050855 0.2378771
000040 48 02 c6 bd 21 e9 5a 3e ff bf 6f be 2d 3c 1c be
       -0.09668404 0.21377994 -0.23413084 -0.1525733
000050 93 9d 29 be 5f e2 b7 3d 6c bc 11 be 78 65 ed bd
       -0.16564016 0.08978724 -0.14232033 -0.11591619
000060 30 8d 3f bc d0 4d e5 bc 75 d6 03 3e 78 92 9b 3c
       -0.011691377 -0.027991205 0.12874778 0.01899074
000070 65 68 74 be 76 60 60 3d 76 65 1f 3e 25 7a ae 3c
       -0.23867948 0.054779492 0.15566048 0.021298477
000080 46 cd be 3d 80 2d 61 3c ab 6c 8b 3d b4 35 5b be
       0.093164966 0.013743758 0.06807836 -0.21407205
000090 09 49 0f 3e e8 2f b6 bc a4 68 3d 3e 7a 59 fc bd
       0.13992704 -0.02223964 0.18496948 -0.12321754
0000a0 6d 4d 3b 3d 17 22 44 3e e7 98 2e be e4 59 29 be
       0.045728136 0.19153629 -0.17050515 -0.16538197
0000b0 e4 ef 6f be c3 b1 e3 3c 97 81 e3 bd ac e6 6e bd
       -0.23431355 0.027794724 -0.11108702 -0.058325455
0000c0 6f 07 55 be 42 a8 2e 3e 28 79 1c 3e 4f 49 62 bd
       -0.20803617 0.17056373 0.15280592 -0.055245694
0000d0 ce 52 8d 3d b5 c9 bf 3d 10 7d a1 3c 7f 7e 11 3e
       0.06900559 0.093646444 0.019712955 0.1420841
0000e0 d2 4f 30 be a4 98 85 bc 50 27 c6 bd eb 3c 79 3d
       -0.17217949 -0.016308136 -0.09675467 0.06084911
0000f0 fc 4e 40 bd 19 c0 d4 3d e4 4c 14 be 50 fb 18 bd
       -0.046950325 0.10388202 -0.14482456 -0.037349045
000100 98 36 c5 3d bf 2f 61 3e 70 ea 47 be bb 78 2e bd
       0.096295536 0.2199087 -0.19523025 -0.042595606
000110 95 2b 17 be 41 78 2c 3c 84 ec 1f be f8 4d 09 be
       -0.14762719 0.010526718 -0.15617567 -0.13408649
000120 28 92 e4 bd 7d aa ad bc 83 6c e9 bd 51 62 93 3d
       -0.111606896 -0.02119946 -0.1139765 0.07196487
000130 9d 2b 77 3e f0 4d 42 3d b1 d3 6c 3e 0e 60 e8 3d
       0.24137731 0.04743761 0.23127629 0.11346446
000140 e7 25 20 be 63 83 84 bb 8a f1 59 be 0c 96 14 3e
       -0.15639459 -0.004043983 -0.21283546 0.14510363
000150 29 4e c8 bd b9 fd 4f be 6f 80 12 3e 16 04 4c bd
       -0.09780533 -0.20311631 0.14306806 -0.049808584
000160 78 89 6e bc d3 f8 74 be 5b 29 af bb 2d f6 11 3d
       -0.014559142 -0.23923044 -0.005345506 0.035635162
000170 14 fd 54 be 1b ac 3c 3e b0 e5 77 3d 46 b7 d2 bd
       -0.20799667 0.18425028 0.06052178 -0.10288863
000180 f7 50 26 be 12 85 b1 3d 1f 97 32 be 89 60 65 be
       -0.16241823 0.08667959 -0.1744046 -0.22400106
000190 48 d8 1c 3d c9 0f 4f be ec f6 67 3c 07 cd da bd
       0.0382922 -0.20220865 0.014157992 -0.10683637
0001a0 7e f0 17 be 15 df 13 be b1 ca 54 3d 58 24 13 3e
       -0.14837834 -0.14440568 0.051951114 0.14369333
0001b0 13 7c 55 be de 1c 65 be 76 29 22 be 41 c5 aa bd
       -0.20848112 -0.22374293 -0.15836129 -0.083384044
0001c0 9a 9e a4 3d 28 d9 79 3d 53 86 77 be c5 11 2a 3c
       0.08038063 0.060998112 -0.24172334 0.010380213
0001d0 32 bb 37 3e e9 cd f3 3d 8e 46 04 be bd 2a 9b bd
       0.17942503 0.119045086 -0.1291754 -0.07576511
0001e0 93 a1 a4 3d 86 a4 73 3e dc 8d 75 3e 10 97 b1 3c
       0.0803863 0.2379323 0.23979896 0.021678478
0001f0 87 a3 9d bd 37 27 e9 3d 50 ee b7 3c 0a 2e 0a be
       -0.07697206 0.11384433 0.022452503 -0.13494125
000200 d4 a0 76 bd 1d da 5e bd 4d c5 87 3d c5 0c 5a be
       -0.06021197 -0.054407228 0.06629429 -0.21293934
000210 02 45 de bc 8c 4e ed bd b5 ba 56 3e 90 68 16 be
       -0.027132515 -0.11587247 0.2096966 -0.14688325
000220 d6 a0 52 bd fb 4c 7a 3d 34 0d 83 bd 39 e8 45 3e
       -0.051422916 0.06110857 -0.06399003 0.19326867
000230 d9 37 ad bd 10 74 52 3e 3a f1 1b bd fa f0 15 bd
       -0.08457918 0.20552087 -0.03807185 -0.036606766
000240 c1 27 fc 3d 7c 6c 6b be a4 22 22 3e f2 6d 62 3d
       0.1231227 -0.22990602 0.15833527 0.055280633
000250 15 56 c5 bd a4 35 67 bd 10 fa b2 bc 8f 5a 00 be
       -0.096355595 -0.05644764 -0.021847755 -0.12534545
000260 e0 d0 74 3d 84 49 73 be 2d 25 64 be 42 f9 2c 3e
       0.05976951 -0.23758513 -0.22279806 0.1689196
000270 c0 f2 09 bc 0a b6 37 be 97 d8 b3 3d 71 cb 78 3c
       -0.0084196925 -0.17940536 0.087815456 0.015185223
000280 50 b5 03 be c1 f0 1b bd 5b ed b0 3d 7a 92 0a 3e
       -0.12862134 -0.038071398 0.08639022 0.13532439
000290 6b 18 2a 3e be cd 08 3e 07 b0 09 be b8 0a c9 3d
       0.16610877 0.13359734 -0.13446055 0.098164976
0002a0 f6 ad 1c 3e 7a 12 b8 bd 60 88 95 bc 85 47 e3 bd
       0.15300736 -0.08987899 -0.018253505 -0.11097626
0002b0 9a 31 14 be ba 82 5e be b2 f7 fc 3d 4e 44 3e 3e
       -0.14472046 -0.21729556 0.12351932 0.18580744
0002c0 66 15 02 3e 03 68 ad 3b 34 20 18 be 4e da 4e 3e
       0.12703475 0.00529194 -0.14856035 0.20200464
0002d0 70 2f 87 3c 53 58 83 3d ce c1 3e 3e f8 6b b2 3d
       0.016502112 0.06413331 0.18628618 0.08712
0002e0 c6 ff d3 3d 46 ee 6e 3e f7 b7 44 3c 18 28 0f be
       0.10351519 0.23333082 0.012006751 -0.13980138
0002f0 81 26 60 3e 18 22 10 be 67 df b6 3d d0 cd 2f be
       0.21889688 -0.14075506 0.08929329 -0.17168355
000300 68 bb 6c 3d 70 75 de 3c 7e 24 5e be c4 3c 14 3e
       0.057795912 0.027155608 -0.21693608 0.14476305
000310 6e 12 73 3e da bd 97 3d 3b 76 34 bd 6f 15 47 3d
       0.23737499 0.07409258 -0.044058066 0.048604425
000320 f7 63 ff bc 33 a9 c6 bd 85 16 3a 3e 8e d1 f7 bd
       -0.031175597 -0.09700241 0.18172653 -0.12100516
000330 05 8b a7 bd 30 e9 5b 3e 59 4c 95 bd 8f 2d 3a 3e
       -0.08180813 0.21475673 -0.07289953 0.18181442
000340 84 98 56 be 8f a0 54 be 01 45 30 be 38 4a 3f 3d
       -0.20956618 -0.20764373 -0.17213823 0.04670164
000350 16 5f 6a be 2f c1 9d 3d e2 c6 40 3e e2 c0 b6 bc
       -0.22887835 0.077028625 0.18825868 -0.02230877
000360 6f 73 2f bd 02 b3 f2 bb 72 cf 6e 3e 75 f2 f2 bd
       -0.042834695 -0.0074065933 0.23321322 -0.11862651
000370 60 7a 89 3d d0 d9 b4 3d 10 50 11 be 69 6b ab bc
       0.06712794 0.08830607 -0.14190698 -0.02092524
000380 79 9f 46 3c c3 ec 3a be 4b af 18 be 2e 1a 26 3e
       0.012122982 -0.1825438 -0.14910619 0.16220924
000390 55 0d 18 3e eb b8 3c 3e 94 e7 67 be 6e e7 2f be
       0.14848836 0.18429916 -0.22646934 -0.17178127
0003a0 64 d2 1c 3e f2 fc b8 bd e2 01 fb bd 30 b0 dd 3d
       0.15314633 -0.090326205 -0.122562185 0.10824621
0003b0 f8 e6 2d 3e f8 5c cb bd 9a 39 60 be 6f 36 f9 3d
       0.16982639 -0.09929842 -0.21896973 0.121685855
0003c0 de 3a 53 3d aa 84 52 3e ca 2c 49 be 7b 4a a7 bd
       0.051569812 0.2055842 -0.19645992 -0.08168503
0003d0 f0 dd 91 bd 51 1c 3a 3e 00 2f 1f bc 20 85 92 3d
       -0.07122409 0.18174864 -0.0097157955 0.07154298
0003e0 66 0f 6c 3e 0d c4 4c 3e 81 6d d9 3d ac a2 44 3e
       0.23052749 0.19996662 0.10616589 0.1920268
0003f0 eb d2 1a be 84 24 56 3e e0 fd 7b 3c 32 07 61 3e
       -0.15119521 0.20912367 0.015380353 0.21975401

fc2.weight f4 [128, 256]
000000 5d 34 5e bd cd bb fe 3c 7f 9e 20 bd db 25 59 bd
       -0.054249156 0.03109541 -0.039213654 -0.053014617
000010 37 64 6a bd dc 03 9d bc 89 7a 2b bd ca 65 32 3c
       -0.05722448 -0.01916688 -0.041864906 0.010888526
000020 ea 5c 7e bd cf 35 02 bd 42 dd 2b 3d 73 46 0b bd
       -0.06210033 -0.031789597 0.041959055 -0.034002732
000030 24 1d 38 3d f7 1c b5 3c f2 e3 05 bd 04 03 0f bd
       0.044949666 0.022108538 -0.03268809 -0.034914985
000040 70 19 d0 ba 8d f9 35 bd a7 e8 23 bd ad ed 7e 3d
       -0.0015876722 -0.044427443 -0.040016796 0.062238384
000050 ff da 00 3d e6 36 52 bc 94 7b 10 3c b8 3b 85 bc
       0.03145885 -0.012830472 0.008818526 -0.016263828
000060 a4 91 52 bc 4e ff 56 3c 96 15 70 3c de a4 1f 3d
       -0.012852106 0.013122393 0.014653584 0.03897559
000070 a0 24 7b 3d d4 27 86 bd 62 4f 62 bd 08 0f 31 3c
       0.061314225 -0.06550565 -0.055251487 0.010806806
000080 b6 d9 3a bd 5e ec 64 bd 6f 97 eb 3c 2f 39 73 bd
       -0.04561778 -0.05588948 0.028758733 -0.059380706
000090 52 1e d8 3c 90 47 01 3c d0 5e 19 3d 4e 57 30 bc
       0.026381645 0.007890597 0.037443936 -0.010763003
0000a0 73 39 f4 3c df 6c 73 3d fb d2 0c 3d 62 ee eb bc
       0.02981255 0.05943 0.034380894 -0.028800193
0000b0 3c 10 25 bd 42 ae 0b bc c9 c1 77 bd 21 a7 3d bd
       -0.040298685 -0.008525433 -0.060487542 -0.046301965
0000c0 c0 23 00 3d 20 3d f1 bb 50 2f 5c 3d 8d 78 23 bd
       0.031284094 -0.007362023 0.05375606 -0.039909888
0000d0 9c 72 e3 3c 1e c8 1c 3d f4 37 43 3d 46 31 81 bd
       0.027764611 0.038276784 0.047660783 -0.06308226
0000e0 ea e7 b4 bc 0a 1c 26 bd c8 e2 dd 3c 96 ae 86 3b
       -0.022083241 -0.040554084 0.027085677 0.0041101677
0000f0 7b b4 b6 3c 29 61 79 bd fa 7e f0 bc a3 c1 e5 3c
       0.022302857 -0.060883675 -0.029357422 0.028046435
000100 82 6d 37 bd 2a de 5f 3d b8 8c 6b bc de 1e b2 3c
       -0.04478217 0.05465523 -0.014376812 0.021743234
000110 f6 2c 12 3d bd f3 f4 3c 24 62 35 bd f8 ee d7 bc
       0.03568741 0.02990138 -0.044283047 -0.026359066
000120 9c 6a 90 3c a9 07 2b bd 49 6f 2c bd 4d 4c 56 bd
       0.01762896 -0.041755352 -0.042098317 -0.05231886
000130 52 25 c2 bc 41 a5 73 bd fc f6 48 3d 0c 73 17 3d
       -0.023699436 -0.05948377 0.049063668 0.03697495
000140 04 4c d3 bc 50 e1 5a 3d 7a 4d a1 3b 70 3c cd ba
       -0.025793083 0.05343753 0.004922566 -0.001565827
000150 9d 43 ff 3c c1 9f 48 3d e8 dd 40 3d 75 58 2d 3d
       0.03116017 0.04898048 0.047086626 0.042320687
000160 80 fe de 3c ea 4e 29 3d fc 66 3a 3d 0a 93 d5 3c
       0.027220964 0.041335024 0.04550837 0.02607109
000170 fc 7e 8f 3c 0f 87 68 3d 1c c8 f5 3c 2a 42 66 bd
       0.017516606 0.056769427 0.030002646 -0.056215443
000180 cb 3b 5c 3d c1 62 00 3d 3e f2 75 bd 9c 17 e0 3c
       0.05376796 0.03134418 -0.060045473 0.027355008
000190 34 13 40 3a 46 2a 65 3c ec e2 74 3c 41 dc fd 3c
       0.000732708 0.01398713 0.0149466805 0.030988814
0001a0 4f 47 14 3d 4e 1b fe 3c 55 72 17 3d 0b 66 2a 3d
       0.036200818 0.03101888 0.03697427 0.041601222
0001b0 04 e4 64 3c 77 53 69 3d 7b d2 46 3d ad 3f 97 3c
       0.013970379 0.056964364 0.048540574 0.01846298
0001c0 cf 79 a7 bc 60 12 a5 bc 34 87 08 bc 21 53 8f 3d
       -0.020443825 -0.020150363 -0.008333016 0.069982775
0001d0 6a 20 a8 38 2d 99 72 3d fa 0e 63 bc f0 0c 3d 3c
       8.016902e-05 0.05922811 -0.013858551 0.011538729
0001e0 06 11 25 bd 97 da 63 bd 40 8d 01 bc d0 f3 ad bb
       -0.040299438 -0.055628385 -0.007907212 -0.0053086057
0001f0 47 3a e6 bc 20 d7 8c bc de 62 58 bd 3c 57 46 bd
       -0.02810396 -0.017192423 -0.052828662 -0.048423037
000200 d4 26 c1 3c 8b 1c 29 3d 58 f5 80 3d ad 03 f7 bc
       0.023578085 0.041286986 0.062967956 -0.03015312
000210 4d 71 39 bd e6 4c 07 3d c0 20 0a bb 70 e5 2c 3c
       -0.045274068 0.03303232 -0.002107665 0.010552749
000220 33 6b 89 bd 20 a9 85 bc e1 eb 14 bd 32 f8 3c 3c
       -0.067099 -0.016315997 -0.036357764 0.011533784
000230 aa eb 76 3c 31 6c 34 bd 61 e5 35 3d 29 bc 42 3d
       0.015070835 -0.044048492 0.044408206 0.047542725
000240 77 9e a6 bb 00 79 f4 3b 96 dc 2e bd f5 44 96 bd
       -0.0050848085 0.0074607134 -0.042690836 -0.07337371
000250 8f e9 6d bd 26 6b 42 3d c4 61 32 3d f5 bf c0 bc
       -0.058084067 0.047465466 0.043550268 -0.023529032
000260 1c 66 a6 bc 7f de 15 bd 2e 2b 73 bd bc 80 dd bc
       -0.020312361 -0.036589142 -0.05936735 -0.027038924
000270 18 3f fb 3c 65 d7 5f bd 4a 09 59 bd c8 9e 5e 3d
       0.030669734 -0.054648776 -0.052987374 0.054350644
000280 44 9a e4 bc b0 5e e1 bb 0f cb c8 3c e7 10 6b bd
       -0.02790559 -0.0068777427 0.024510888 -0.057389166
000290 de 07 7c bd af a4 3a bc 8b 82 1e bd 29 44 65 3d
       -0.06153094 -0.011391803 -0.038698714 0.055973206
0002a0 04 b0 38 bd 63 9b fd bb ad 9c f0 bb 93 6e c8 3c
       -0.045089737 -0.007739471 -0.007342896 0.024466788
0002b0 3b 69 f5 3c 10 8e 78 bd 0b ef 20 3d b8 a3 74 bd
       0.029957404 -0.060682356 0.03929047 -0.059726447
0002c0 73 7d 56 3d 7f 6c 67 bc b2 33 7f bc a9 ea 3c 3d
       0.05236573 -0.014124989 -0.01557629 0.046122227
0002d0 70 fc 30 bd e0 dd f3 bb ce eb 68 3d 29 7d 2c 3d
       -0.043209493 -0.007442221 0.056865506 0.04211155
0002e0 13 53 31 bd 00 b8 9a bb ce d3 7a bb 8e e1 cd bc
       -0.043292116 -0.0047216415 -0.0038273218 -0.025131967
0002f0 f5 8a 31 bd b4 49 2f bd 26 bc c6 3c 6a c1 e0 3c
       -0.04334541 -0.0427949 0.024259638 0.027435977
000300 06 76 ce 3c 06 87 75 3d 88 98 77 3d 6b d8 5c bd
       0.025202762 0.05994322 0.0604482 -0.05391733
000310 c6 f7 86 bc 56 dd 55 bd 7a dd 2e 3d f8 09 05 bd
       -0.01647557 -0.052213036 0.042691685 -0.03248021
000320 fe f9 22 3d a0 ac 5a bd f5 14 40 bc 7a 2b 8d bc
       0.039789192 -0.053387284 -0.011723747 -0.017232645
000330 55 af 45 bd 3b cd 59 bd a7 ad 82 bc ad 6f 6c bd
       -0.048262913 -0.05317424 -0.015951945 -0.05772369
000340 ff db 6f bd 35 8d ef bc 17 ef d9 bc 38 e6 68 bc
       -0.058559414 -0.029242137 -0.026603265 -0.014215045
000350 d1 34 63 3d ad b0 76 bc 96 8f 16 3d 4a 59 c2 bc
       0.05547029 -0.015056771 0.036758028 -0.023724217
000360 7d 27 57 bd 25 21 90 bd f1 d6 4e 3d 90 c1 a4 bc
       -0.052527893 -0.07037572 0.050497953 -0.020111829
000370 ed af 14 bc e6 60 dc 3a eb 4e 82 3d 17 a3 33 3c
       -0.009075147 0.0016813546 0.06362709 0.010964177
000380 9d f0 c0 3c 55 55 b5 3b c5 26 11 bd 2b b1 d9 bb
       0.023552233 0.005533854 -0.035437364 -0.0066434345
000390 33 78 e8 bb f2 6c 0f 3a 23 21 40 bd c8 99 90 bc
       -0.007094407 0.0005471251 -0.0469066 -0.017651454
0003a0 14 a5 49 3d 79 ba 18 3d 63 e9 53 3d c9 af 39 bd
       0.049229696 0.03728721 0.051736247 -0.045333657
0003b0 96 89 6c bd 54 47 5f 3d 3f 16 d0 bc 3e 08 91 bb
       -0.0577484 0.054511383 -0.025401233 -0.0044260314
0003c0 65 ce dd 3a 79 af 47 3d cb f3 5a bd 0e 60 50 bd
       0.0016922472 0.04875133 -0.053455155 -0.050872855
0003d0 29 b1 85 3c 72 61 63 3d 08 fe e0 b9 57 a9 4f bd
       0.016319828 0.055512853 -0.00042913877 -0.050698604
0003e0 8c 97 93 3b ec 53 30 3d 52 a5 b9 bc 1b 42 09 3c
       0.00450415 0.043048784 -0.022661839 0.008377577
0003f0 2f 43 45 bd 2c 80 4b bd 40 c8 62 bb 42 01 35 3d
       -0.048159774 -0.04968278 -0.0034604222 0.044190653

fc2.bias f4 [128]
000000 f5 93 a0 3c 37 71 1d 3d 8c cc 08 bd 33 f8 dc bc
       0.019601801 0.03843805 -0.033398196 -0.02697382
000010 81 62 cb bc bd c3 8d 3c e1 89 5d 3d 24 d2 7b 3d
       -0.024827244 0.01730525 0.05408657 0.061479703
000020 3a 7a 44 bd a6 68 b2 3c 1e bd a8 3c 1b 65 92 3c
       -0.047968127 0.021778416 0.02059799 0.017870476
000030 0d bd ff bc d3 cf 32 bc d4 fa c5 bc 99 85 18 3d
       -0.031218076 -0.010913807 -0.024167456 0.037236784
000040 fd 2a 15 bd 92 85 24 3d ac e3 56 3d 6a 6b 30 3d
       -0.03641795 0.040166445 0.05246322 0.043071188
000050 d5 43 6a 3d c7 6b 27 bc bf 48 cc bc 9c 61 6c 3d
       0.057193596 -0.010218567 -0.024937032 0.057710275
000060 65 90 53 bd e9 f5 cf 3c 18 c9 53 3d dc f1 4c bb
       -0.051651377 0.025385814 0.05170545 -0.003127209
000070 42 c4 76 3d e7 4d b0 3c f3 17 4a bd 84 96 87 bc
       0.06024576 0.021521522 -0.049339246 -0.016551264
000080 08 fc 47 3d 60 fe f1 bc 71 af da bc 4d a9 70 bb
       0.04882434 -0.02954024 -0.026694985 -0.0036722005
000090 2b 0f 37 3d ae 29 85 bb ca 5c 66 3d 9b e7 2c bb
       0.0446922 -0.0040638065 0.056240834 -0.0026383165
0000a0 af a9 3b 3d 7a d6 11 bd a4 2d 5c bd 85 2b fe 3b
       0.04581612 -0.03560493 -0.053754464 0.007756653
0000b0 f5 3d 7a 3d c3 86 58 3d cc ce e5 3c 0b 69 3a bd
       0.061094243 0.052862894 0.02805271 -0.045510333
0000c0 7a 1f 3e 3d 00 61 02 ba 71 84 59 3d 34 eb b4 bc
       0.046416737 -0.00049735606 0.05310482 -0.02208481
0000d0 44 2c 33 3d 50 d3 04 3d c8 7b e1 3c 62 dd 99 3c
       0.043743387 0.032428086 0.027524844 0.018782321
0000e0 47 74 77 bd ac 1b 6e 3d db 20 28 bd ce d7 1e 3d
       -0.060413625 0.05813186 -0.04104696 0.038780026
0000f0 71 5b bc bc 90 84 9d bc 91 74 11 bd f7 a4 32 3d
       -0.022992821 -0.01922825 -0.035511557 0.043614354
000100 08 b8 97 bb b9 78 1c 3c 47 6e 36 bb b0 ef fa bc
       -0.0046300925 0.009550267 -0.0027836727 -0.03063187
000110 06 aa 2c 3d 8e 56 e3 3b 6a 8c 66 3d 9c e7 fe 3c
       0.042154334 0.0069378084 0.056286253 0.0311163
000120 77 09 f1 3c 91 57 6a bd d6 2e 46 3d 74 ab 64 bd
       0.029423459 -0.057212416 0.04838451 -0.055827573
000130 1d eb 4d bd fc ae 2d 3d 74 bd a0 bc d3 e8 cf 3c
       -0.05027305 0.042403206 -0.019621588 0.025379574
000140 30 6c 27 bd a0 7a 65 bd 2c 7e bf bb 85 4a e0 3c
       -0.04087466 -0.056025147 -0.0058438983 0.027379284
000150 f1 0f 10 bd 77 dd 63 bd 43 b4 66 ba 41 a2 56 bd
       -0.035171453 -0.055631127 -0.0008800665 -0.05240083
000160 67 c0 24 3d e7 69 7a 3c 8c 90 1a bd da d0 20 3c
       0.04022255 0.015284038 -0.037735507 0.009815419
000170 79 0a 77 bd d0 a0 54 bd 09 9c fc bc f5 03 ec bc
       -0.060312722 -0.051911175 -0.030836122 -0.02881048
000180 09 b5 e5 3c 8a 8c 68 3d 73 85 cb bc 33 16 17 bd
       0.028040426 0.056774653 -0.024843907 -0.036886405
000190 4d 5a 8d bc 6f 31 08 bd dd 7c 3a 3d ff 9b b3 bb
       -0.017254973 -0.03325027 0.045529235 -0.0054812427
0001a0 02 60 0b bd 7d 36 55 3d 35 ea e7 bc b4 ac 63 bd
       -0.034027107 0.052053917 -0.02830992 -0.055584624
0001b0 c9 1e cc 3c 50 68 72 3c 56 da e9 3c 51 5b a7 3c
       0.024917023 0.014795378 0.028546494 0.020429285
0001c0 c7 b7 06 3d bf ce 10 3c 9d 9d c2 3c c2 3b c6 3c
       0.032890107 0.008838355 0.023756796 0.024198417
0001d0 e6 ce 18 bd 84 ba 30 bd 58 29 52 bd 02 d2 e4 3b
       -0.03730669 -0.043146625 -0.05130896 0.0069830427
0001e0 1a 18 4f bd d2 ae 08 bd b3 1c 1d 3d 7d 94 0e 3c
       -0.050560094 -0.033369847 0.038357448 0.008702395
0001f0 bb 85 4b bc 36 b9 2a bd 18 fe 98 bc ec 87 35 3d
       -0.012422021 -0.041680537 -0.018675849 0.04431908

value.weight f4 [1, 128]
000000 de 2a dc bb c4 c0 07 3d db 82 9d 3d aa 96 d2 ba
       -0.0067189774 0.03314282 0.07690974 -0.001606663
000010 53 28 4a 3d 37 22 1c bd 4b b5 49 3d 5b 7d 7f 3d
       0.049354862 -0.038118567 0.04924516 0.062375408
000020 e2 0c 5d bd aa 6d 44 3d 87 b0 16 bd 9c 96 68 3d
       -0.053967364 0.047956146 -0.036789443 0.056784257
000030 0b 6c 53 bd d8 53 84 bd c0 92 5b 3b 0d 40 a7 3c
       -0.05161671 -0.064613044 0.0033504218 0.020416284
000040 8f 2c 95 bd 76 ba 1c 3d 96 b9 8b bd b6 13 18 bd
       -0.072838895 0.03826376 -0.06822507 -0.037128173
000050 f6 5d 97 bd c5 68 7e 3d 38 33 52 bd b0 8a 57 3c
       -0.073909685 0.062111635 -0.051318377 0.013155624
000060 c9 33 80 bd aa 3b 80 bd f7 c9 3d 3d e4 d7 42 3d
       -0.06259877 -0.0626138 0.046335187 0.04756917
000070 94 60 bc bc 10 59 a5 bc 16 5f be 3b b2 d1 8e bd
       -0.02299527 -0.02018407 0.005809675 -0.0697359
000080 04 80 bb bc 5c cd 0b 3d 54 64 5b 3c 34 b9 1e 3c
       -0.022888191 0.034131393 0.013390619 0.009687711
000090 3c dd 73 3a b4 ec 4a bd 40 18 ee 3c a9 27 76 3d
       0.0009302681 -0.049542144 0.029064298 0.060096417
0000a0 65 c6 9c bc 32 4e 86 3d 1e c0 12 3d dd 04 64 3d
       -0.01913757 0.06557883 0.03582775 0.0556687
0000b0 63 be 82 bd 31 86 8f bc 88 4c 8f 3d 97 51 9b 3d
       -0.0638397 -0.017520042 0.06997019 0.075839214
0000c0 20 7e 71 3b 20 16 52 3b af 04 94 3d ae fb 66 bc
       0.0036848858 0.0032056645 0.07227456 -0.014098091
0000d0 06 45 3a 3d 00 97 a8 39 0f 56 a4 bd 3c 78 c9 bb
       0.045475982 0.0003215596 -0.08024227 -0.0061483663
0000e0 b3 1a 55 3d 97 97 67 3b 77 8e 17 3c 4e 99 a6 3d
       0.052027415 0.0035338157 0.009250275 0.08134709
0000f0 13 5d 89 3d 83 85 61 bd d2 eb ee 3c b4 a3 9c bd
       0.067072056 -0.055058967 0.029165182 -0.076484114
000100 14 2a 8f 3c d3 bd 86 bd a4 3c 7f 3b 6b d2 96 3d
       0.01747612 -0.06579175 0.0038946057 0.07364353
000110 84 20 b7 3c 49 c5 89 3d 24 b3 db 3c b3 59 97 3d
       0.022354372 0.06727082 0.02681882 0.07390156
000120 1c 5c 5f bd 95 ad 3a bc ec d0 8b 3b 4e 4d df bc
       -0.0545312 -0.011393924 0.004266849 -0.027258541
000130 f7 62 29 3c 3c 23 fb 3b cc b8 a9 3c 9d 64 f5 bc
       0.010338536 0.0076641124 0.020718 -0.029955203
000140 32 51 c4 bc 10 c4 c8 bb 80 e5 fd 3c 48 d2 72 3d
       -0.023964498 -0.006126888 0.030993223 0.05928257
000150 35 a2 a6 bd d7 92 ce bc 00 80 47 bd cc 0a 6c 3d
       -0.08136407 -0.025216503 -0.048706055 0.057627484
000160 3e b9 8a 3d b9 24 32 bd d9 1e 84 3d 21 61 dc bc
       0.067736134 -0.043492053 0.06451196 -0.026901783
000170 d7 fa 77 3d 65 d5 63 3d b2 1d 17 3d 35 42 d1 3c
       0.060541954 0.05562343 0.036893554 0.025544265
000180 bb 30 a0 bd dd 9a 82 bd 39 68 47 3c db bd 39 bd
       -0.078217946 -0.06377194 0.012170845 -0.045347076
000190 6d f3 06 3d 54 6e 4c bc 3e 71 a1 3d 3d 97 20 3d
       0.032946993 -0.012477476 0.07882927 0.039206732
0001a0 ff 5a a4 3c 6e 5c 54 bd 86 0d 10 3c d1 4a 4a 3d
       0.020062922 -0.05184596 0.008792287 0.049387757
0001b0 ca f1 ae 3c ca a7 5b 3d 0c 83 8d 3d 36 84 aa bc
       0.021355528 0.053626813 0.06909761 -0.020814996
0001c0 f8 dc ac 3c 41 47 fd bc 21 a0 58 bc 38 fd 45 bd
       0.02110146 -0.030917766 -0.013221771 -0.04833719
0001d0 41 3a d8 3c a6 32 40 3d 5a 2a df bc db 95 73 3d
       0.026394965 0.046923302 -0.027241874 0.059469085
0001e0 3c 3f 01 3d 1d 26 68 bd 37 f2 9c bc 34 bf 9c 37
       0.031554446 -0.056676973 -0.019158466 1.8685685e-05
0001f0 ad 19 05 bd 5f 36 90 3d ae 73 d9 3b 88 04 db 3c
       -0.03249519 0.070416205 0.0066361045 0.02673556
