kinova-ros/kinova_scripts/src/models/actor.pth (torch, 155649 bytes, 7 tensors)

log_std f4 [7]
000000 90 6e 59 3c 3a d9 6c 3c 97 44 9d 3c b8 2f ec ba
       0.013270989 0.014456088 0.019197745 -0.0018019592
000010 de 2a 55 bc 92 75 64 3b b9 d3 82 bc
       -0.013010709 0.0034860116 -0.015970098

fc1.weight f4 [256, 17]
000000 1c f0 ff 3d 00 3d db bd 48 96 40 bd 40 24 e9 3d
       0.12496969 -0.10704994 -0.04701832 0.11383867
000010 dc cf 69 be 94 f1 14 3e 74 5f 4c bd 1c b3 fc 3d
       -0.22833198 0.1454528 -0.04989572 0.1233885
000020 60 1a 0a 3d 48 47 f3 bc cc c4 89 3d a0 07 44 3c
       0.03371656 -0.029697075 0.06726989 0.011964709
000030 e0 69 b5 3d ce 91 c1 bd e0 db 90 bc f8 de b2 bc
       0.08858085 -0.09451638 -0.01768297 -0.021834835
000040 b8 fd 0f 3d 00 fd 7d ba e0 1a 59 3e 78 92 9a 3d
       0.035154074 -0.0009688884 0.21201658 0.07547468
000050 a0 fa b8 bd 6a ff 15 be 84 83 26 bd a4 40 d6 bd
       -0.09032178 -0.14648214 -0.040652767 -0.10461548
000060 c2 2b 9f bd 60 44 3e 3c 5c 0d 14 3e a8 fd 06 3e
       -0.07772018 0.011612982 0.14458221 0.131827
000070 f5 c7 72 be 16 f6 19 3e 80 c3 8a 3d 74 94 6b 3e
       -0.2370909 0.1503528 0.0677557 0.23005849
000080 1c ee 23 3e 75 49 62 be b1 23 6c be a2 94 ef bd
       0.160088 -0.22098334 -0.2306049 -0.11698271
000090 b2 15 5a 3e 54 79 25 bd b0 92 d4 3d 04 d4 e6 bd
       0.21297339 -0.04039891 0.10379541 -0.112709075
0000a0 1c b1 73 3e 92 28 d2 bd aa 3f 3a 3e 80 38 3c 3b
       0.2379803 -0.102616444 0.18188348 0.00287202
0000b0 aa d6 02 be 5c 51 ff 3d 26 d5 03 be ec 15 92 3d
       -0.127772 0.1246669 -0.12874278 0.071330875
0000c0 f0 6d 8f bd c8 d3 d9 bc 58 c4 6e be b2 86 04 be
       -0.07003391 -0.026590243 -0.23317087 -0.12942007
0000d0 20 4e f1 3d d7 f7 94 bd d2 42 69 3e 1f f7 38 3e
       0.11782479 -0.07273834 0.22779396 0.18063019
0000e0 fa f1 cd bc cf a8 17 be 74 5a 25 3e 18 de 7b 3d
       -0.025139797 -0.14810489 0.16147786 0.061491102
0000f0 fa a7 2e be 93 34 13 3e 0e aa 08 3e 5b 61 6a 3e
       -0.17056265 0.14375524 0.1334612 0.228887
000100 6b 35 fa bd 98 24 d6 bc a8 63 97 bc 41 89 49 3d
       -0.1221722 -0.026140496 -0.018480137 0.04920316
000110 55 51 42 be 28 13 36 be 86 45 01 3e 7f 25 80 bd
       -0.18976338 -0.17780745 0.12624177 -0.06257152
000120 b9 f5 e6 3d 06 2c 05 3c a9 c3 ae 3d e6 c8 71 3d
       0.112773366 0.008128172 0.08533413 0.059029482
000130 30 ef a8 3d 1b 8e ea 3d 5b d7 6b be b4 59 ee 3d
       0.082487464 0.11452886 -0.2303137 0.11638203
000140 29 ca 28 be 3b 8d 35 be ee 82 a7 3c b7 a0 40 bd
       -0.16483368 -0.17729656 0.020448174 -0.04702827
000150 42 b3 17 3e fa 15 0e be be 09 5b be 08 7e 36 3e
       0.14814475 -0.13875571 -0.21390435 0.17821515
000160 4a 52 0c bd a6 6f 0d 3e a8 2d a3 3d 8d fb 3b be
       -0.034258164 0.13812122 0.079676926 -0.18357678
000170 bc 97 40 3d ea 99 75 3d 02 8b 24 be 33 2f e8 bd
       0.047019705 0.059961237 -0.16068652 -0.113371275
000180 fe db ac 3d a0 f5 2a 3d e8 c7 d6 bd da da 99 bd
       0.08440398 0.041738153 -0.10487348 -0.07512446
000190 11 36 65 3e 45 c9 3e bd 74 05 0c 3e 0c 14 d7 3d
       0.22383906 -0.046578664 0.13673955 0.105018705
0001a0 16 8a 20 be ae 35 53 be 02 65 6e 3e 80 7e 4f 3c
       -0.15677676 -0.20625946 0.23280719 0.012664437
0001b0 ea 3c 2a 3e 78 de 4d 3d 10 c1 9f 3d 14 83 39 3e
       0.166248 0.05026099 0.078004956 0.18116409
0001c0 c8 7e 6b 3e fd cd 24 be 00 6a f8 3c 7c 56 39 3e
       0.22997582 -0.16094203 0.030323982 0.18099397
0001d0 0c eb 33 3e e2 49 1a 3e 82 bd 33 be b1 d7 32 be
       0.17570132 0.15067247 -0.1755276 -0.17465092
0001e0 ee 32 16 be e0 9a f9 3c 36 87 77 3e 78 e1 1c be
       -0.14667866 0.030469358 0.24172673 -0.15320385
0001f0 2c 58 04 3e 5e 76 09 be 38 82 69 be 74 24 53 bd
       0.1292426 -0.1342406 -0.22803581 -0.051548436
000200 86 18 0f 3e 62 91 66 3e 30 3d 1a be a8 95 57 3d
       0.13974199 0.22516397 -0.15062404 0.052632958
000210 02 4c 56 3e 06 93 24 3e 10 c8 1a 3e 7e 7d 30 3e
       0.20927432 0.1607171 0.1511538 0.17235371
000220 ec 16 1d 3e 94 4c 80 3d c6 d4 29 be 39 8f 50 be
       0.15340775 0.06264606 -0.16585073 -0.20367135
000230 a6 9a e3 bd 58 5c e7 bc 0c 3b 18 be 68 b9 b5 3d
       -0.11113481 -0.028242275 -0.14866275 0.08873254
000240 04 ba 99 3d 5c f2 60 bd 34 e8 be 3d b0 87 a0 3d
       0.07506183 -0.054918632 0.09321633 0.0783838
000250 9e a1 17 3e 0c 41 27 3e 94 36 a8 bd 90 a6 72 3e
       0.14807746 0.16333407 -0.08213535 0.23696351
000260 08 b2 e5 bc 40 85 08 bc 32 6b 6a be a4 d8 1f be
       -0.028038993 -0.0083325505 -0.22892454 -0.15609986
000270 3a 17 11 be 9c 74 d4 bd ea 92 30 3e fe 50 a2 bd
       -0.14169016 -0.10373804 0.17243543 -0.07925604
000280 96 97 39 be 38 1c bf 3d 48 08 9f 3d b0 db 20 3e
       -0.18124232 0.09331554 0.077652514 0.15708804
000290 7e 84 00 be c0 63 57 3d 24 d4 b4 bd 9c 32 5f bd
       -0.12550542 0.052585363 -0.08829525 -0.054491624
0002a0 7b eb 45 be e2 61 e2 bd 47 5b 70 bd d1 5a f4 3d
       -0.1932811 -0.11053826 -0.0586808 0.11931384
0002b0 64 60 75 3d f0 a3 9a 3d d0 ed 83 3e 6f 03 81 3e
       0.05990638 0.075508 0.25767374 0.25197932
0002c0 34 6b 19 3e 9d fe 00 bc d0 d7 1b be 47 10 52 3e
       0.14982301 -0.007873205 -0.15219045 0.20514022
0002d0 9a 8a 38 bd a1 7a 83 bb 3f ee 65 be 2b 0f 82 bd
       -0.045054056 -0.0040124212 -0.22454165 -0.06350549
0002e0 05 28 30 be 33 2f 74 3e f8 ab 66 be ef 96 41 be
       -0.17202766 0.2384613 -0.22526538 -0.18905233
0002f0 a0 ee 06 bc 4a 4a 06 be cc ba b1 3d 92 32 bf bd
       -0.008235604 -0.13114277 0.08678207 -0.093358174
000300 c6 4c e9 bd a0 0f 61 3c e4 c8 33 3e 29 b3 2e be
       -0.113915965 0.013736635 0.17557102 -0.17060532
000310 70 42 e9 3d f2 8d 1f 3e 0e f1 72 3e 16 d5 2d be
       0.11389625 0.15581492 0.23724768 -0.16975817
000320 00 99 70 3d 36 a4 37 be ce 08 54 3e 98 ad c0 bd
       0.058739662 -0.17933735 0.20706484 -0.094081104
000330 fe fc 10 3e 6f 31 32 3b 81 9e bf bc 48 8c 48 bc
       0.14159009 0.002719011 -0.02339101 -0.012240477
000340 24 70 16 3d de ed e0 3d b4 c3 31 3d 69 be a0 3d
       0.03672804 0.109828696 0.043399528 0.07848818
000350 13 03 64 be c5 53 30 3e 71 ec 53 3e f2 ae 48 3e
       -0.22266798 0.17219456 0.20695664 0.19597986
000360 5f 33 3c 3e a5 9c 2e be a1 e9 ae bd 80 5f 56 3e
       0.18378972 -0.17051943 -0.08540655 0.20934868
000370 eb 8d 38 be 74 50 61 3e d6 54 43 be c6 f1 2e be
       -0.18022887 0.22003347 -0.19075331 -0.17084417
000380 00 d5 f2 3d 00 71 32 be 38 98 63 bd 64 ad 34 3e
       0.11857033 -0.17425919 -0.05556509 0.17644268
000390 6c b8 44 3e 72 e2 6a 3e 5c 95 49 bd aa 09 41 be
       0.19210976 0.22937945 -0.049214706 -0.18851343
0003a0 d4 88 74 3e 30 a0 53 bd 7a 5d cc bd d8 2b 72 3d
       0.23880321 -0.05166644 -0.09978767 0.059123844
0003b0 88 ae 2d be 64 3d 23 3e 1f 63 1d 3e 0c 55 43 be
       -0.1696111 0.15941387 0.15369843 -0.19075412
0003c0 53 42 4a be 2c 2b a0 bc b0 19 d4 3d 3b af ae bb
       -0.19751863 -0.019551836 0.10356462 -0.0053309477
0003d0 1a 57 ff bd 91 6c 7c 3b 65 b4 67 be 76 cb 2d be
       -0.12467785 0.003851686 -0.22627409 -0.16972145
0003e0 36 98 23 be 49 43 4e 3e 96 31 59 3e 63 2f ac bd
       -0.15976033 0.20142855 0.21210322 -0.08407476
0003f0 77 7b 16 3c 8b fd e0 3d 3e 32 e0 3c f4 ba f8 bd
       0.00918471 0.109858595 0.027367707 -0.121450335

fc1.bias f4 [256]
000000 b2 3d 0c 3e 60 a4 d6 bb 5c 37 9e 3d e9 03 a7 bd
       0.1369541 -0.0065503567 0.07725403 -0.08155043
000010 a9 ed 33 be 9c c7 26 3e 70 1b 27 bd 00 e9 39 3e
       -0.17571129 0.16287082 -0.04079765 0.18155289
000020 26 f2 87 bd f8 51 52 bd 3a 94 22 bd 10 9d 0e be
       -0.06637983 -0.051347703 -0.03969214 -0.13927102
000030 ff be 2f 3d 68 4c 7a 3d c7 78 c3 bd 2a 1d 18 be
       0.042906757 0.061108023 -0.09544521 -0.14854875
000040 9a 2e 44 3e a4 d0 2e bc f9 ac 5f 3d bb 8f 0d be
       0.19158402 -0.010669861 0.05460832 -0.1382436
000050 3c a1 38 3e cc aa 4c 3e d8 28 58 3d d4 b0 59 3e
       0.18030256 0.19987029 0.052773327 0.21258861
000060 9e 9a 10 3e 14 2a 48 3e 54 ab fb bd c2 07 b4 bd
       0.14121482 0.19547302 -0.122885376 -0.08790542
000070 10 18 20 bd c9 c5 fa bd 52 63 ff 3d ec ed 08 be
       -0.039085448 -0.12244756 0.12470116 -0.1337201
000080 34 17 a9 3d 9f ca 0c 3e e4 e7 37 bd 08 cf 66 3e
       0.08256379 0.13749169 -0.044898883 0.22539914
000090 bc 15 e9 bd ac 2b da 3d fc 83 28 3e 3d fa 15 be
       -0.11381099 0.10652861 0.16456598 -0.1464624
0000a0 25 47 9c bb 54 5e 40 3e 31 96 45 be 27 3d fd bd
       -0.0047692233 0.18785983 -0.19295575 -0.123651795
0000b0 58 2c 67 be db 5a 36 3e ba b2 27 3e c6 32 e8 3c
       -0.2257551 0.17808096 0.16376773 0.028344523
0000c0 cc f7 59 3d a1 42 6f be a4 fe e0 3d 98 1d ef bd
       0.053214833 -0.2336526 0.10986069 -0.116755664
0000d0 48 31 05 3e 39 b7 1f be 30 69 28 be 81 90 34 3e
       0.1300708 -0.15597238 -0.16446376 0.17633249
0000e0 00 70 8c 3d 3e 56 90 bd a0 7c 20 be 2b a3 59 be
       0.068573 -0.070476994 -0.1567254 -0.2125365
0000f0 54 e1 2e 3e 60 92 ae bd d8 16 57 3d c0 d7 13 3e
       0.17078143 -0.085240126 0.05251202 0.14437771
000100 18 69 75 bd 88 ec d9 bd 2e 30 10 be de 14 8a 3c
       -0.05991468 -0.10640818 -0.14080879 0.016855653
000110 48 6f d4 bc fb 37 6a bb a0 7a 7f 3d 14 44 47 be
       -0.02593197 -0.0035738933 0.062372804 -0.19459563
000120 38 1f fb 3d d4 ca 1c bd d5 2d 56 be 00 cb b3 bd
       0.12261814 -0.03827937 -0.20915921 -0.087789536
000130 00 fb 80 3b 2a b5 70 3e 0a 6d 71 3e f2 67 ba bd
       0.0039361715 0.23506609 0.23576751 -0.09101857
000140 26 85 1d be 4c cf 4c 3e 50 39 49 3e 36 eb 0f 3e
       -0.15382823 0.20000952 0.19650769 0.1405457
000150 ee 86 65 be 80 47 27 3d e9 9b 4f 3d 88 c2 94 3d
       -0.22414753 0.040839672 0.050685797 0.072636664
000160 84 3d 2b be d4 06 21 3d 2c 2e c2 bd 5d e0 26 3e
       -0.16722685 0.039313152 -0.09481463 0.16296525
000170 05 cc 1c be e4 dd 5d 3e 78 b1 8b 3d 40 df 70 3d
       -0.15312202 0.21666676 0.06820959 0.058806658
000180 c6 45 cf bd b0 0a 69 bc 90 b8 92 3d 81 86 3c be
       -0.1012073 -0.0142237395 0.07164109 -0.18410684
000190 78 c5 05 3d 6e 51 04 3e d8 64 c6 3d 04 10 50 3e
       0.032659024 0.12921688 0.09687203 0.2031861
0001a0 c6 2a d4 bd 64 3c 77 be e2 7f b1 bd b6 46 f1 bd
       -0.10359721 -0.24144131 -0.0866697 -0.11781065
0001b0 b4 13 0e 3e 33 0e ad 3d fa 7d 6c be 9b 44 2f be
       0.13874704 0.08449974 -0.23094931 -0.17116015
0001c0 4f 66 5b be fc af a2 3d 50 05 7a 3d 1b d7 3a 3b
       -0.21425746 0.079437226 0.061040223 0.002850956
0001d0 c6 75 82 bd 4e ec 58 3e 5b a7 3d 3e ab 72 60 be
       -0.0637012 0.21183893 0.18520872 -0.21918742
0001e0 82 8f 15 be b0 74 84 3d a1 59 20 be 60 79 14 3d
       -0.14605525 0.06467569 -0.1565919 0.036248565
0001f0 01 f5 37 3d 8e be 35 be d6 f0 2b 3e 2b 35 22 be
       0.04491139 -0.17748472 0.1679109 -0.15840594
000200 ca 0d 1b be d7 d0 de bc 5b 78 ed bd 50 8b a1 3c
       -0.15141979 -0.027199192 -0.115952216 0.01971975
000210 ea c6 1a be 06 f8 29 3e 53 76 6e be 2d f8 a6 bd
       -0.15114942 0.1659852 -0.23287325 -0.081528045
000220 e8 8d 80 3d 70 13 96 3d ac e3 e9 3d 91 3f 61 bd
       0.062770665 0.07327926 0.11420378 -0.054992262
000230 b8 c5 36 3d 94 5a 4e be 3c 9c a2 bd a0 8d 0a 3c
       0.044622153 -0.2015174 -0.079399556 0.008456618
000240 3c 06 67 be 7d 16 0c be 28 48 84 3d 88 e7 3e be
       -0.22560972 -0.13680454 0.06459075 -0.1864301
000250 cc 80 32 3e c6 bd f3 bd 54 a0 a6 bd ad 8f 0f 3e
       0.17431945 -0.11901431 -0.08136049 0.14019652
000260 76 6e 5e bd 51 55 9b 3d a2 8f 59 3e 63 05 4e 3e
       -0.054304563 0.07584632 0.21246198 0.20119242
000270 48 15 49 3e d0 5b 57 be ac 12 68 3e 54 8f a7 3d
       0.19637024 -0.21031117 0.22663373 0.081816345
000280 2c 5d 9f 3d aa 48 82 bd ce 50 0f be ad 7a 33 be
       0.07781443 -0.06361516 -0.13995668 -0.17527266
000290 d4 3c d9 3c 24 0b 34 be 6d 54 62 be da 8c 32 3e
       0.026518263 -0.17582375 -0.22102518 0.17436543
0002a0 5e d3 99 bd ea 3a 56 be 6f ed 5d be 56 5c 85 3d
       -0.07511018 -0.20920911 -0.21672605 0.06511752
0002b0 23 43 11 be 2f 45 74 bd 60 50 1d be 45 52 af bd
       -0.14185767 -0.05963629 -0.15362692 -0.085606135
0002c0 1e 81 ff 3d d8 4a 78 3e 96 37 02 3e 80 d9 7a 3c
       0.12475799 0.242473 0.12716517 0.015310645
0002d0 91 fa 98 3c 28 02 41 be 8e 1a 93 bd 3a c5 24 3e
       0.018674167 -0.18848479 -0.07182799 0.16090861
0002e0 4d c0 28 be 82 14 08 3e d7 e4 fd bd 40 52 62 be
       -0.16479607 0.13289073 -0.12397163 -0.22101688
0002f0 04 22 ae 3d fa 95 69 3e ce 53 74 3e 45 28 1f be
       0.08502582 0.22811118 0.23860094 -0.15542705
000300 a1 2a 3c be 73 1c 13 3e 5a 3f 4e be 53 56 30 3e
       -0.18375637 0.14366321 -0.20141354 0.1722043
000310 e4 b7 77 3e 59 53 21 bc 16 91 59 3e 7b ff 4e be
       0.24191242 -0.009846532 0.21246752 -0.20214646
000320 26 9c 40 3e 5f a2 54 3e 1c a1 73 3e b5 59 9d 3d
       0.18809566 0.20765065 0.23791927 0.07683126
000330 8b ed 24 3e 48 b5 1a be 68 58 0c 3d d0 7b a6 3d
       0.1610624 -0.15108216 0.034264 0.08129084
000340 90 d0 f4 3c 48 13 af 3d 2a 8b 96 3d 6b 9b 4e 3e
       0.029884607 0.085485995 0.07350762 0.20176475
000350 1e 6c 45 be f4 55 aa 3d 70 af 24 be 88 9a 8c 3d
       -0.19279525 0.083171755 -0.16082549 0.06865412
000360 c8 10 2e 3e be 18 1a be dc bf d1 bd 1b 3f 1a be
       0.16998589 -0.15048501 -0.102416724 -0.15063135
000370 6a 4f 56 3e c7 e6 bb bb 9e b2 ba bd 98 e9 d1 bc
       0.20928732 -0.005734298 -0.091161 -0.025624081
000380 55 61 51 bb 88 05 e6 bd 62 47 80 bd 1c 89 19 be
       -0.0031948884 -0.11231524 -0.06263615 -0.1499371
000390 08 b6 5b 3e cc bb 4b 3e 68 c9 15 3e d2 b1 36 bd
       0.21456158 0.19895858 0.14627612 -0.044603176
0003a0 71 31 e6 bd 83 29 6b 3e 94 ff 1a be ea d6 57 be
       -0.11239899 0.22965054 -0.15136558 -0.21078077
0003b0 36 15 0f 3e 40 79 32 3e 98 f2 35 3e c0 bc 48 3d
       0.13972935 0.17429066 0.17768323 0.04900813
0003c0 a0 5b ad bb c4 01 77 be b4 35 54 bd 44 73 0b 3e
       -0.0052904636 -0.24121767 -0.051809028 0.13618189
0003d0 cc d0 d2 bd 78 1e b2 bd c3 0d df 3d 72 22 a0 bd
       -0.10293731 -0.08697218 0.10891297 -0.0781907
0003e0 00 45 11 3c 5f 7b 5f be a2 79 1c bd e9 36 81 3d
       0.008866549 -0.21824406 -0.038201936 0.063093014
0003f0 2c 78 06 3e 30 1a 34 3d 94 bf d4 3d fe a6 43 3e
       0.1313178 0.043970287 0.10388103 0.19106671

fc2.weight f4 [128, 256]
000000 78 40 08 3d 44 fd f8 3c 62 75 7c 3d f4 d8 10 3c
       0.033264607 0.030394204 0.061635382 0.008840788
000010 da 44 1d 3d 53 5e f4 3c 00 19 54 bd a2 b4 28 bd
       0.03839574 0.029830134 -0.051781654 -0.04118789
000020 2e c8 35 3d a2 2c 75 3d d6 97 03 bd 30 d0 c4 3c
       0.04438036 0.05985702 -0.032127224 0.024025053
000030 26 d0 32 3d 5e 3c 4f bd 2a b7 f7 bc e6 96 5f 3d
       0.043655537 -0.05059468 -0.030238707 0.054587267
000040 e8 76 30 bc 96 8a 58 3c 57 7e 53 3c 15 7d c8 3b
       -0.010770537 0.013216635 0.01290854 0.0061184266
000050 29 0b 4f 3d 2a d4 5f 3d b4 f5 73 bd f9 be 0e 3c
       0.050547753 0.054645695 -0.059560493 0.008712524
000060 b4 a6 8e 3c 50 f5 10 3c 9c a1 a7 bc 8c 88 d2 3c
       0.017413475 0.00884755 -0.020462804 0.025699876
000070 58 cc 9b bc cc d3 f9 3c 42 78 0c 3c 34 22 24 3d
       -0.019018337 0.0304965 0.008573594 0.04007168
000080 c0 90 a3 bb ca 11 c6 bc ae 86 45 3d 74 e7 03 3d
       -0.004991621 -0.024178404 0.048224144 0.032203153
000090 08 bb b5 3c 66 76 75 bd f0 ac d2 3c 40 23 aa 3b
       0.02218391 -0.059927367 0.025717229 0.0051921904
0000a0 4f 2b 90 bd b8 ce 7a bd e0 2d 16 3c 8b 87 9e bc
       -0.070395105 -0.0612323 0.009166211 -0.019351741
0000b0 35 8f 24 3d ba 16 52 bb bc 1f 4c bd fe 45 91 bc
       0.040175635 -0.0032057003 -0.04983495 -0.01773357
0000c0 42 46 d8 3c 00 d9 70 3c 5e 5e 65 3d 24 7d 3e 3d
       0.026400689 0.014700174 0.0559982 0.046506062
0000d0 6c c5 a1 3c b6 04 6b 3d 6e f2 1a bd 7b c8 26 bb
       0.019747458 0.05737754 -0.037828855 -0.0025449086
0000e0 bc c2 aa bc a0 9f 7c bc 48 2d 0a 3c ea f2 2e 3d
       -0.02084481 -0.015418917 0.008433647 0.04271213
0000f0 38 0e 4b bc 23 e6 8c 3c ec 1e 46 3d 10 40 0e 3c
       -0.012393527 0.017199581 0.048369333 0.008682266
000100 f0 66 03 bc cf 6d 5b bd 1f e1 2c bd 7a 2b ba bb
       -0.008020148 -0.05357152 -0.04220688 -0.0056814523
000110 b8 ce 4b 3c c3 c1 83 bc 72 8f 66 bd a0 73 37 bd
       0.012439422 -0.016083604 -0.056289144 -0.044788003
000120 1c ee 15 3d 80 c3 54 bb cc f4 7d bd 2c 11 6a bd
       0.036604032 -0.003246516 -0.062001035 -0.057145283
000130 64 79 ed bc a2 14 83 bd 74 ec 3f 3d 5a 91 41 3d
       -0.028988548 -0.0640042 0.04685636 0.04725776
000140 ad 1e 6c bc 0a 15 0c 3d a0 be 36 3c 30 d7 c6 bc
       -0.014411611 0.034199752 0.011153847 -0.024272531
000150 c0 90 7f bb 74 68 b1 bc 7f 3b e2 bc 12 ff 1d 3d
       -0.003899619 -0.021656252 -0.02761626 0.038573332
000160 c0 21 27 bb 3c 37 a8 3c 9c bb cb 3c 34 33 fa 3c
       -0.0025502294 0.02053415 0.024869733 0.030541994
000170 ee 24 6a bb 7a d9 8b bb 4e 81 14 3d 56 e8 09 bd
       -0.0035727578 -0.0042678686 0.036256127 -0.03366884
000180 51 7f e0 bb b4 74 8e 3c b7 b7 47 bc 40 95 37 bc
       -0.006851115 0.017389633 -0.012189797 -0.011205018
000190 f4 67 fd 3c c7 59 99 3c 78 91 36 bd e8 11 76 bc
       0.030933358 0.018719567 -0.044572324 -0.015018918
0001a0 58 f5 38 bd 46 59 06 3d d9 44 18 3b ad 7d 7c ba
       -0.045155853 0.03279998 0.0023234396 -0.0009631764
0001b0 88 4c f8 3c 7d 51 45 bc 7a cc 29 3d 70 5c 2c bc
       0.03030993 -0.012043354 0.04145477 -0.010520086
0001c0 33 e1 dd 3c 24 f7 e0 3c 28 3d 60 3d 9f 46 88 bc
       0.027084922 0.027461596 0.054745823 -0.016635237
0001d0 07 d9 5a 3a 8c 9c 7a bd b3 6a 36 3d f0 20 a1 3b
       0.00083483796 -0.06118445 0.04453535 0.0049172565
0001e0 69 2b 5d 3c ae 5d 67 bd 57 40 8e bc de ba 56 3d
       0.013499119 -0.056485824 -0.017364664 0.052424304
0001f0 f8 ed 19 bd 80 bd 8f 3c a4 d6 15 3d b2 90 0b 3d
       -0.03758046 0.017546415 0.03658165 0.03407354
000200 8e 78 6d 3d 31 3a 1f bd 16 fe 52 bd c4 ff 92 3c
       0.057976298 -0.038873855 -0.051511846 0.017944224
000210 20 5a 1a bc 35 82 54 bd 60 4d 7d bd 46 28 41 3d
       -0.009420902 -0.051881988 -0.06184137 0.04715755
000220 d4 38 0a bd ec 49 5e 3d c3 5b 4e bd c9 0d c4 3c
       -0.0337456 0.054269716 -0.05038048 0.023932355
000230 1c 16 c3 bc 0e 85 38 3d 4a 59 76 3d c4 73 58 3d
       -0.023814254 0.045048766 0.060143746 0.052844778
000240 62 72 20 bd a3 36 cc bc 6a b7 22 bd 85 a6 93 bc
       -0.039171584 -0.024928397 -0.0397257 -0.018023739
000250 d9 97 38 3c dd 25 20 3d fa 6e 19 bd dd fa 05 3d
       0.011266672 0.03909861 -0.03745935 0.032709945
000260 3d 55 a8 bc c2 53 d3 bb e4 1b 28 bd b7 91 ea 3b
       -0.020548457 -0.0064491937 -0.041042224 0.007158484
000270 d0 b4 00 3c de 9e 26 3d 1e 98 37 3d a2 b0 50 3d
       0.007855609 0.04067885 0.044822805 0.0509497
000280 ee 1f 15 3d 80 60 ac ba fa f1 18 3d 98 ff 3e 3d
       0.036407404 -0.0013151318 0.03734014 0.046630472
000290 9c 78 15 3d a0 57 04 3d be 67 e5 bc 00 cb 29 3b
       0.036491975 0.03231013 -0.02800357 0.002590835
0002a0 3c 2b 07 bd d6 18 01 3d 44 5a b5 bc c8 f9 8d bd
       -0.033000216 0.031517826 -0.022137769 -0.069324076
0002b0 8e 8f 0e bd f7 b3 63 bd 68 1a 59 3c 34 64 19 3d
       -0.034804873 -0.05559155 0.013250925 0.037449077
0002c0 3a 2b 2e bc 2c 96 cf bc 48 8b 9f bc 36 ea 4c bd
       -0.010630423 -0.025340162 -0.019475594 -0.05002805
0002d0 47 ee cd 3c db 5c ef 3c ec bd 35 bd 41 43 18 3d
       0.025138034 0.029219082 -0.044370577 0.037173513
0002e0 04 74 af 3c 90 d3 60 bd 5d fa f8 3c 80 43 8c bb
       0.021417625 -0.05488926 0.03039282 -0.0042805076
0002f0 4a 77 05 bd e0 2c fa 3c 15 75 25 bd 75 80 a3 3b
       -0.032584466 0.030538976 -0.04039486 0.0049896785
000300 3c a9 56 3d 0d ab df 3c 90 37 25 3d 50 23 2b bd
       0.05240749 0.027303243 0.04033619 -0.041781723
000310 48 52 15 bd b7 43 54 3c 00 47 4c 3a 90 5d 29 3d
       -0.036455423 0.012955598 0.0007792562 0.041348994
000320 b0 5f 61 3d 2f cb 2c 3d a8 1f 97 3c 01 4f 46 bd
       0.055022895 0.04218596 0.018447712 -0.048415188
000330 cd 39 4a bb 98 4a 04 3c 66 27 1c bd 90 13 fb bb
       -0.0030857206 0.008074425 -0.03812351 -0.007662244
000340 48 d3 04 3c 8c 14 34 bd 4f 73 0a ba 9c d0 82 bd
       0.008107014 -0.043964908 -0.00052814645 -0.06387445
000350 24 71 05 3d 2f 0d 27 bd c4 0f 79 3c ca 7b 84 bc
       0.032578602 -0.040784057 0.015201513 -0.016172308
000360 0a 4b 19 bd 2c 01 83 3c 55 76 5e bd 8d b0 fe 3c
       -0.03742508 0.01599177 -0.05431207 0.031090045
000370 50 36 8e 3b ee a7 c1 3b 62 ca 21 3d f0 38 2b 3d
       0.0043399706 0.0059099114 0.039499648 0.041802347
000380 e8 b8 2e 3d ea 2c 0b 3d a0 2d 19 bc 00 a4 09 ba
       0.04265681 0.03397838 -0.009349257 -0.0005250573
000390 fc d8 79 bd 30 2d 66 3c ea 5f cc bb 31 85 1b 3d
       -0.060997948 0.0140488595 -0.00623702 0.037968818
0003a0 bd 24 1b 3d 4d 66 8c bc 04 37 04 bd fc f5 2c 3d
       0.037876833 -0.017138625 -0.03227903 0.042226776
0003b0 6c e6 b8 3b a5 81 24 bd 6c 20 26 bd 4a 9a 7c bd
       0.005642703 -0.0401627 -0.040558264 -0.06167058
0003c0 b2 bb a8 3c c8 8d bf 3c ae 6d 24 3c 21 af cb 3c
       0.020597313 0.023383036 0.010035915 0.024863781
0003d0 2a e7 13 bd fc f1 74 3d e5 e1 c1 3c 08 68 a5 3c
       -0.036109127 0.059801087 0.023667285 0.020191208
0003e0 c0 6f 4e bc 46 a9 7e bd 13 92 c4 3b b7 d5 9a 3b
       -0.012599885 -0.06217315 0.0059988587 0.004725184
0003f0 e8 10 26 3c 7c c3 f9 3c d8 29 f1 bc 90 8e 6f 3d
       0.010135867 0.030488722 -0.029438898 0.058485568

fc2.bias f4 [128]
000000 43 ee 81 bd 4f 14 25 bd 58 24 9c 3c 54 68 40 3c
       -0.06344273 -0.04030257 0.019060299 0.011743624
000010 02 bb 3c 3d 9c 75 4a 3d 3b ae fd 3c 94 6a 1a 3d
       0.046076782 0.049428567 0.030966869 0.037699297
000020 dd 32 d2 3c 2a 39 ea bc 6b 18 64 bc f0 6a 0e bd
       0.02565902 -0.028591711 -0.013921837 -0.034769952
000030 ac 0f ec 3c 60 07 49 bd 00 53 fe 3c 1f d9 28 3d
       0.028816067 -0.0490793 0.031045437 0.041222688
000040 c7 fd 23 bd 08 f1 92 3c 8b c9 dd bc c0 a3 53 bd
       -0.040036943 0.017937198 -0.027073642 -0.051669836
000050 f1 1f 42 bc 1c 0a 9b 3c 40 fc ba ba 36 eb 38 3d
       -0.011848436 0.018925719 -0.001426585 0.04514619
000060 56 90 46 3c bc 53 2e 3d 30 cf 2b bd 6e 9a 2f bd
       0.012119373 0.042560324 -0.041945636 -0.042871885
000070 10 d0 58 bc 80 b1 de bb 45 0e aa 3d 48 d7 59 bd
       -0.0132332 -0.006796062 0.08303503 -0.053183824
000080 f0 8c c1 3b 19 84 38 3d 00 9c 9c 3b 08 93 5c 3d
       0.0059066936 0.045047853 0.004779339 0.053851157
000090 2c 43 91 3c 43 d0 da 3c ea f5 11 3d 28 91 68 3c
       0.017732225 0.026710635 0.035634913 0.014194764
0000a0 58 69 9a 3d 3f 1a ef 3c c0 2a 55 bb 26 e9 f4 3c
       0.07539624 0.02918732 -0.0032526702 0.02989633
0000b0 40 7f c3 bb 53 75 3f bb cc 0d 68 bc af 89 2d bc
       -0.005966097 -0.0029214218 -0.014163446 -0.010591908
0000c0 00 f6 3b bc fc 3c 41 bd 14 8a c3 3c 40 a3 77 bc
       -0.011472225 -0.0471773 0.023869552 -0.015114605
0000d0 2c 78 1d 3d d0 ac 6b 3c 64 fa 99 3c 84 02 64 3d
       0.038444683 0.014384463 0.018796153 0.05566646
0000e0 24 76 16 bd 0d e8 73 3c 60 18 8d bc 5e 65 25 3d
       -0.03673376 0.014886868 -0.017223537 0.040379874
0000f0 48 6e 3f bc 84 3d ac 3c be d2 41 3d 33 55 8f bc
       -0.011684008 0.021025427 0.04732012 -0.01749668
000100 ec c1 e4 bc 8c 1c b4 3c 8c b9 ea bc bc 9f c4 3c
       -0.0279245 0.021986268 -0.028652929 0.024001949
000110 77 de e2 bc cb 96 70 3d ce 10 85 3c 0c c7 db 3c
       -0.02769397 0.058737557 0.016243365 0.026828311
000120 2f 4e 61 bc 30 cf cc 3c d6 ed 4b 3d d3 c5 66 bd
       -0.013751551 0.025001138 0.049787365 -0.056341004
000130 1b c1 33 3d f0 36 5b bd 45 b5 7a 3d fa b0 1a bd
       0.04388533 -0.05351919 0.06120803 -0.037766434
000140 b2 6f 87 3c 22 de 15 3c 2e bf 41 bd f6 f4 22 3d
       0.016532753 0.009147199 -0.047301464 0.039784394
000150 c1 ef 03 bd f4 92 60 3c 94 f5 5f 3d 20 38 23 bd
       -0.03221107 0.013706911 0.05467756 -0.039848447
000160 b8 0d 38 bc 4c 5e 4f bd a9 a6 5e bd 94 bd 86 3c
       -0.01123374 -0.050627038 -0.05435816 0.01644782
000170 93 8f a6 bc 5a 7d 3b bc 18 2a 64 3d 1f 1f c1 3c
       -0.020332133 -0.01144346 0.055704206 0.02357441
000180 ef 4b 1d bd 13 83 6a bd ca 67 b7 3c 80 67 84 bc
       -0.038402494 -0.05725391 0.022388358 -0.016162634
000190 ef e7 e3 3c de db 82 3a 61 51 2b 3c f4 c8 39 bd
       0.027820555 0.0009983738 0.010456414 -0.04535766
0001a0 a7 a2 57 bd 6a 32 2d bd c0 56 17 3b 42 50 47 3d
       -0.05264535 -0.042284407 0.0023092479 0.048660524
0001b0 b2 f5 22 bd 92 97 28 bd 57 25 a9 3c 5a 8e 0d 3d
       -0.039785095 -0.041160174 0.020647688 0.034559585
0001c0 36 6e 20 3a 1e 45 2d 3d e8 87 4d 3d 30 76 c7 3c
       0.00061199383 0.042302243 0.05017844 0.024348348
0001d0 d0 10 5c bd 59 b2 a1 3c 78 e4 46 3c 52 fd 6e 3d
       -0.05372697 0.019738363 0.012139432 0.058347054
0001e0 e4 12 9a 3c 87 81 5c bd 65 08 55 bd 1d 97 5a 3d
       0.018807836 -0.053834464 -0.05200996 0.05336677
0001f0 02 00 1f bd ea f2 1e bd 8c 27 00 bc c4 96 d9 bc
       -0.038818367 -0.03880588 -0.007821929 -0.026561148

mean.weight f4 [7, 128]
000000 5d a3 ca bc c2 08 1c bd d4 71 96 3c bf d1 a0 3d
       -0.0247361 -0.03809429 0.018364824 0.07852506
000010 bc bf fc 3b a7 70 b0 3d 33 27 0f bc b9 84 a5 bd
       0.007713286 0.08615237 -0.008737373 -0.080819555
000020 ff c9 aa bc 06 08 a0 3d 43 6a 92 bd 18 66 26 3c
       -0.020848272 0.0781403 -0.07149174 0.010156177
000030 dd bb a9 3d bd 2f 5b bd 80 a6 8b bc 9f d0 4a bd
       0.08287785 -0.053512324 -0.017047167 -0.049515363
000040 6f 9c 7d bd f0 7e d9 3b d0 27 bb bc 77 eb f2 bc
       -0.061916765 0.0066374466 -0.022846133 -0.029653294
000050 c6 dd 85 3d 6e f1 68 3d e7 17 96 3d 30 d9 1d 3d
       0.065364406 0.05687087 0.07328778 0.038537204
000060 2a 86 11 3d 95 f3 99 3d 88 d0 05 bc 92 5f ec bc
       0.03552834 0.07517163 -0.0081673935 -0.028854165
000070 1e f1 b2 bd bb d8 8f 3d ce 4d 26 bd 29 08 2d 3b
       -0.08737396 0.0702376 -0.040601544 0.002640257
000080 78 6d 55 3c 39 08 72 3c c9 ca a2 3d 66 99 25 3d
       0.013026588 0.014772468 0.079488344 0.040429495
000090 99 3b 98 bd eb 50 0b bd 29 bc a9 3c a3 2a a3 3d
       -0.07433242 -0.034012716 0.020719605 0.07967117
0000a0 74 68 54 bd a8 57 00 bc a4 b1 b9 bc a3 5e e9 bb
       -0.051857427 -0.007833399 -0.022667713 -0.0071218773
0000b0 b8 a4 3e bc 33 f4 09 3d b1 f5 b9 3d 08 aa 10 3d
       -0.011635952 0.033680152 0.09080065 0.035318404
0000c0 72 13 5c 3d 45 bc 91 3d cf d2 aa bd a7 cf 82 3d
       0.053729482 0.07115988 -0.0834099 0.06387263
0000d0 36 bf 59 3d 0a d2 b3 bd 48 bf 0d bd 8a ec 24 bd
       0.05316087 -0.08780296 -0.03460625 -0.040264644
0000e0 7a 0a de bc 18 7c 55 3d cf e8 2f bd 86 db 12 bd
       -0.027104605 0.0521203 -0.042946633 -0.035853885
0000f0 1e d9 ad bd 98 18 75 bc 40 73 05 bc fb 77 2a bc
       -0.084886774 -0.014959477 -0.0081451535 -0.010404582
000100 40 68 73 bc e3 41 26 bd 20 63 e3 3b 9f bc 8b 3d
       -0.014856398 -0.04059018 0.006939307 0.06823086
000110 8e 4b d4 bc b6 4e cc 3a 16 16 b5 bd df 4f 92 bd
       -0.025914934 0.0015587423 -0.08842103 -0.071441405
000120 a5 1d da 3c e0 82 1b 3b d0 46 2e 3c c7 d8 98 bd
       0.026625464 0.002372913 0.010637 -0.07463222
000130 a8 07 87 bd 3e 92 86 bd 3d 37 ac bd f2 85 19 3d
       -0.06593257 -0.06570862 -0.08408973 0.037481256
000140 35 ad ba bd 10 e5 22 bd c6 5b 36 bd 08 06 bd bc
       -0.09115068 -0.039769232 -0.044521116 -0.023074165
000150 f6 05 ac bd 92 39 c5 bd 38 d0 e9 3c e4 1e d4 3c
       -0.083995745 -0.09630121 0.02854167 0.025893636
000160 62 4e af bd 06 2e 68 3d 1b 99 9a bb 81 7c 3c 3d
       -0.08559872 0.056684516 -0.0047179586 0.046017174
000170 d7 79 d6 bc 88 d0 63 3d 7f 17 a7 bc 26 6f a9 3c
       -0.026181145 0.055618793 -0.020396946 0.020682883
000180 00 7d 18 bd 85 35 b8 3a 7d 35 23 3d a8 15 93 bd
       -0.037228584 0.0014054036 0.039845932 -0.07181865
000190 dd 77 70 bd 81 9c 90 3d 14 43 60 3d 44 27 0b 3d
       -0.05870806 0.07061101 0.05475147 0.033972993
0001a0 63 f1 3b 3c 6d 1a 88 3d 45 c2 98 bd 2f 35 a7 bd
       0.011471125 0.06645665 -0.07458929 -0.08164441
0001b0 88 2d f6 3c ed 2b 6e 3d 3a 8d 63 3d bc 20 a8 bc
       0.030051008 0.05814736 0.055554606 -0.020523421
0001c0 66 02 1e 3d 88 12 b9 3b 09 36 1c 3c d3 98 29 3d
       0.038576506 0.005647961 0.009534367 0.04140551
0001d0 5c 67 01 3c 29 d4 41 bd 04 13 85 bc f8 83 6f 3d
       0.007898178 -0.047321472 -0.016244419 0.058475465
0001e0 92 9b 52 3d 98 2d 7f 3d 8c ed bb bd d8 d8 0b bd
       0.051417895 0.06229934 -0.09176168 -0.034142345
0001f0 94 57 14 bc 2e 49 41 3d 3d 6f 5b bd c6 d2 5d 3d
       -0.009054083 0.04718893 -0.053572882 0.054156087
000200 04 73 68 3d b7 89 ad 3d 66 3f 85 bd b8 89 16 bc
       0.056750312 0.08473533 -0.06506233 -0.009188108
000210 fa ca 4c bd d6 53 3a 3d aa d3 82 bd 50 32 b1 bc
       -0.04999826 0.04549011 -0.06388028 -0.021630436
000220 1f a6 8b 3c fb 90 9a bd 25 a1 a9 bc 08 71 b1 bd
       0.017046986 -0.07547184 -0.020706723 -0.08664137
000230 80 0a 21 3b c9 3c 85 3d c0 c4 89 3a a8 5d 5e bc
       0.002457291 0.065057345 0.0010510907 -0.013572134
000240 e6 12 e0 3c 6e aa 03 3d ec a6 7d bc 6a de a9 3d
       0.027352761 0.032144956 -0.015481692 0.08294375
000250 4b d1 ed bc f0 25 b0 3c 88 11 0f bc f2 71 93 bd
       -0.029030463 0.021502465 -0.008732207 -0.07199468
000260 de 06 20 bb 1d 7e 80 3d 78 0a 0c 3d 1a 77 ff 3c
       -0.0024418156 0.06274054 0.03418967 0.031184722
000270 d9 65 86 3d 84 ac 0e bd 81 35 35 3d 8e cd 70 3d
       0.06562395 -0.034832492 0.04424048 0.058789782
000280 7d fd 15 bd 4d 41 42 3d 27 a0 98 3d e3 98 b0 3d
       -0.0366187 0.047425557 0.07452422 0.08622911
000290 20 39 ff 3b dd 98 4f bd 95 13 b3 38 84 d0 3c bd
       0.0077887923 -0.05068289 8.5390326e-05 -0.046097293
0002a0 a7 22 c6 3b 78 ec 2c 3d 4e 3e 13 3d f0 a6 72 3d
       0.0060466114 0.0422177 0.03594809 0.059241235
0002b0 38 ab 4f 3c 4c 05 f1 bb 27 53 8d bd 1d d3 91 bd
       0.012675099 -0.0073553678 -0.06900626 -0.07120345
0002c0 40 0e 8b 3a 7d b8 a2 3d 07 a7 fe 3c 46 5e 2f bd
       0.0010609105 0.079453446 0.031085504 -0.042814516
0002d0 32 d1 39 bd b2 33 ad bd 70 52 dc 3b 15 bc 8d 3d
       -0.04536552 -0.08457126 0.0067236945 0.069206394
0002e0 c8 7e ab bc fb 46 68 bd 44 db b3 3d dd c2 46 3d
       -0.020934477 -0.056708317 0.08782056 0.04852568
0002f0 6a bf 90 bd 4e 35 63 3d c0 6f 49 bd d3 19 41 bd
       -0.07067759 0.055470757 -0.04917884 -0.04714377
000300 03 a8 95 bd 60 b2 5c 3c 16 1c 3a 3d d0 ab 2b bd
       -0.07307436 0.013470262 0.04543694 -0.0419119
000310 f3 50 2c bc ae 6b 13 bc 13 ee 09 bd 53 df 88 3d
       -0.010517347 -0.008997841 -0.03367431 0.06683221
000320 be 7b 69 bd 54 d4 c1 3c d4 89 91 bd e3 a8 a4 3d
       -0.057002775 0.023660816 -0.07106367 0.08040025
000330 c6 b0 85 bd 5e eb 7e 3d 62 ea ba bb c4 bb 66 bd
       -0.065278575 0.062236182 -0.00570421 -0.05633141
000340 97 b1 89 bd e4 62 5c bd 6d 66 66 bd 25 d0 86 bd
       -0.06723326 -0.053805247 -0.056250025 -0.06582669
000350 5a cc cb 3c 07 94 93 3d 80 e3 78 ba f5 50 98 3d
       0.024877716 0.07205968 -0.00094943494 0.07437316
000360 e5 d5 9d 3d b5 c6 d0 3c 04 84 2a 3d f8 16 b3 bd
       0.07706813 0.025485376 0.041629806 -0.08744615
000370 9d 2c b8 bc 86 19 6f 3d ed ed 11 3d 46 56 22 3d
       -0.02248221 0.05837395 0.035627294 0.039633058
000380 32 0d 96 bd 4e f4 a4 bd e0 08 91 bd 37 c8 71 bd
       -0.073267356 -0.0805441 -0.07081771 -0.05902883
000390 44 84 31 3d 49 22 fe bb 74 d9 09 bd 58 dc e9 bc
       0.04333903 -0.007755552 -0.033654645 -0.02854745
0003a0 64 b3 68 bd 5d 52 18 bd 0b 3b d5 bc d5 ea b4 3d
       -0.056811705 -0.037187923 -0.02602913 0.08833853
0003b0 c4 6f ba 3c e9 2a da bb df 5c 43 3d 10 67 9b bb
       0.022758372 -0.0066579473 0.04769599 -0.0047425106
0003c0 9e 77 54 3d 5d 3f 97 bd cf 88 8b 3d 93 fe 77 3d
       0.05187189 -0.073851325 0.068132035 0.060545515
0003d0 ac 3d 73 3b 3c 8b dd 3c f1 04 88 3d a3 37 12 3d
       0.0037115617 0.027043931 0.066415675 0.03569759
0003e0 54 51 63 bd 49 cf 70 3c 5f 22 bc 3d e3 4d 30 bd
       -0.055497482 0.014697858 0.09186243 -0.04304303
0003f0 f5 6e e3 bc 9c 17 d5 bc ad 45 2b bd 9e 4f 58 3d
       -0.02776287 -0.026012234 -0.041814495 0.052810304

mean.bias f4 [7]
000000 4f 22 71 bb fb 31 96 3d c0 bd 9c ba 94 03 c9 bc
       -0.003679413 0.07333752 -0.0011958405 -0.024537839
000010 93 fa a4 bc aa 20 3d 3c 0f d0 36 bd
       -0.020139014 0.011543432 -0.044632014
