kinova-ros/kinova_scripts/src/best_model_episode_200/actor.pth (torch, 155713 bytes, 7 tensors)

log_std f4 [7]
00000000: 4d03 e8bd 853a f4bd eee7 d2bd 2663 d6bd
00000010: 73c9 b0bd c9bf dbbd 1dc4 7cbd
-0.113287546 -0.11925224 -0.10298143 -0.1046813 -0.086321734 -0.107299395 -0.061710466

fc1.weight f4 [256, 17]
00000000: 1b30 003e 63ad dbbd 40b5 3fbd c5b3 e83d
00000010: 1708 6abe 5ab9 143e 737e 4bbd b042 fc3d
00000020: 7d39 093d a485 f1bc af34 8a3d 9c8b 473c
00000030: e1f9 b43d 5021 c1bd ce1b 8fbc 491e b1bc
00000040: 3d1e 0f3d 00fd 7dba e01a 593e 7892 9a3d
00000050: a0fa b8bd 6aff 15be 8483 26bd a440 d6bd
00000060: c22b 9fbd 6044 3e3c 5c0d 143e a8fd 063e
00000070: f5c7 72be 16f6 193e 80c3 8a3d 7494 6b3e
00000080: 1cee 233e 7549 62be 785c bebe 0454 63ba
00000090: c316 ad3e ee8c 843d d4c2 593e 0328 debb
000000a0: d813 b73e 2cd6 6cbe 55ba 923d 291c 033e
000000b0: 2766 1cbc 7a57 763e 46b9 69be f48c ffbc
000000c0: 3c93 52be 16a9 c9bd 0729 9dbe 7409 83be
000000d0: 48ca 853e aef4 533d d2cc b73e 24ce a13e
000000e0: b3b4 da3d 0cec 5fbd ad3a 2c3d 0823 9cbc
000000f0: 12e3 6cbd 055a 833e aaf4 803e a7d6 053e
00000100: a632 6fbe 012b 20be 23c3 a1bd ad1e 24bd
00000110: 85f0 a5be 2aaa 14bd f0cf 743e 7c20 8e3d
00000120: 5a99 7d3e 148b 0f3e 0226 413e 37f5 76bd
00000130: 771e 2dbc 81ee 643e 47f7 e4bd 689b 693e
00000140: 1f6e 85be 7ab7 91be 19c5 d2bd 7cc9 00be
00000150: 1501 6e3d e8fa 71be 89a7 f7bd 1486 923e
00000160: 570e 7c3d 93af 6d3e 29f1 333e 6a56 adbd
00000170: 3c14 71bd b691 42bd c017 84bd 2191 5dbc
00000180: e675 473e 8782 55bd 471a 40be 171f 36be
00000190: 892f f73d 4bff 32be c076 8ebc 807b 803e
000001a0: 1681 4cbd bfa2 9dbd d1f0 bb3e 098b 123e
000001b0: 99a7 8a3e 900f a4bd e419 89bc 45ab 9a3e
000001c0: df8a ae3e 9663 3fbd 5b05 45bd f813 9e3d
000001d0: 1d74 843d f055 a93d 7e22 87be d3b7 32be
000001e0: 2f46 12be 313b f93c 585b 793e b97e 1abe
000001f0: 7b6f 063e 4704 09be 5cd0 69be 3df3 3fbd
00000200: 2227 113e 12a4 603e 1294 18be 4def 4e3d
00000210: 08dd 533e 9059 273e 739e 1a3e 1086 2c3e
00000220: ec16 1d3e 944c 803d c6d4 29be 398f 50be
00000230: a69a e3bd 585c e7bc 0c3b 18be 68b9 b53d
00000240: 04ba 993d 5cf2 60bd 34e8 be3d b087 a03d
00000250: 9ea1 173e 0c41 273e 9436 a8bd 90a6 723e
00000260: 08b2 e5bc 2a98 933c f932 80be fd5b 14be
00000270: f0bd 21be c6b3 f9bd 40eb 1f3e f164 69bd
00000280: e578 2fbe 37fb 9f3d b2d7 823d 2143 203e
00000290: 150b 00be ea7e db3c 6363 97bd a276 75bd
000002a0: e843 4bbe 13fb e1bd 3cad 61be 9a83 733e
000002b0: 5fd0 1c3e 9466 383e 0a63 bb3e 3612 b73e
000002c0: 1624 8f3e f3a4 e8bd 0ad4 8abe 8ed3 973e
000002d0: 2468 383d 0720 ad3d 69c7 9abe 9fa5 12be
000002e0: 6355 90be 4a3b 113e 449f 92be ef96 41be
000002f0: a0ee 06bc 4a4a 06be ccba b13d 9232 bfbd
00000300: c64c e9bd a00f 613c e4c8 333e 29b3 2ebe
00000310: 7042 e93d f28d 1f3e 0ef1 723e 16d5 2dbe
00000320: 0099 703d 36a4 37be ce08 543e 98ad c0bd
00000330: 047f 103e 1126 323b 4b2f 94bc 5ee4 8ebc
00000340: ab0f 013d 9215 d73d 8ac6 163d 36f5 b13d
00000350: f4ac 60be 2efa 253e b0a7 503e 9cad 443e
00000360: 256f 343e 3abd 2fbe ea9c d1bd 6cdc 4a3e
00000370: 42ef 2cbe 5955 613e 764c 43be e432 2fbe
00000380: bf54 f33d dac7 31be 31a3 62bd 3cd3 343e
00000390: a0bb 443e e7e2 6a3e 0cba 49bd 5409 41be
000003a0: 4e80 743e 00b1 53bd 6102 cebd ed2f 723d
000003b0: 45b1 2dbe c73a 233e 2498 003e ab46 2ebe
000003c0: f707 50be 9542 d3bb a337 f23d 02ae 083c
000003d0: d51f 04be ca96 9a39 cef3 5dbe 7bf2 25be
000003e0: ba5b 29be a09d 4a3e c18d 673e b745 c8bd
000003f0: 4947 ca3b 078c ed3d 963a 243d bd2d 83be
0.12518351 -0.1072643 -0.046803713 0.11362413 -0.22854649 0.14523831 -0.04968114 0.12317407
0.03350209 -0.02948267 0.0674833 0.012179282 0.08836723 -0.09430182 -0.017469313 -0.021620886
0.034940947 -0.0009688884 0.21201658 0.07547468 -0.09032178 -0.14648214 -0.040652767 -0.10461548
-0.07772018 0.011612982 0.14458221 0.131827 -0.2370909 0.1503528 0.0677557 0.23005849
0.160088 -0.22098334 -0.37179923 -0.0008671882 0.33806428 0.06472193 0.21265727 -0.006779672
0.35757327 -0.23128575 0.07164446 0.12803711 -0.009545839 0.24056807 -0.22824582 -0.031195141
-0.20563978 -0.09846704 -0.30695364 -0.2559315 0.2613089 0.051747017 0.35898453 0.31602585
0.10678997 -0.05466847 0.042048145 -0.019059673 -0.05783374 0.25654617 0.25186664 0.13070165
-0.23359165 -0.15641405 -0.078985475 -0.040068317 -0.32410064 -0.036295094 0.23907447 0.0693979
0.2476553 0.14017898 0.18862155 -0.06029245 -0.010566345 0.22356607 -0.11179977 0.22813189
-0.26060578 -0.28460294 -0.102915 -0.1257686 0.0581065 -0.2363087 -0.12092502 0.28617918
0.061537113 0.23211507 0.17572464 -0.08463748 -0.058857188 -0.047502242 -0.064498425 -0.013523371
0.19478568 -0.052126434 -0.18760024 -0.17785297 0.120696135 -0.17480199 -0.017390609 0.25094223
-0.049927793 -0.07697057 0.36707166 0.1431085 0.27080992 -0.08010781 -0.016735978 0.30208793
0.34090325 -0.046725832 -0.04810081 0.077186525 0.06467459 0.082683444 -0.26393503 -0.17452936
-0.14284585 0.030423732 0.24351251 -0.15087403 0.13128464 -0.13380538 -0.22833389 -0.04686283
0.14175084 0.21937588 -0.14900234 0.050521184 0.20689785 0.16342759 0.15099506 0.16848016
0.15340775 0.06264606 -0.16585073 -0.20367135 -0.11113481 -0.028242275 -0.14866275 0.08873254
0.07506183 -0.054918632 0.09321633 0.0783838 0.14807746 0.16333407 -0.08213535 0.23696351
-0.028038993 0.018016893 -0.2503889 -0.14488216 -0.15795112 -0.12192492 0.15617085 -0.05698103
-0.17135961 0.07811587 0.06388797 0.15650608 -0.12504227 0.026793916 -0.073920034 -0.05992759
-0.19850123 -0.11034217 -0.2203874 0.23780671 0.15313862 0.1800788 0.36598998 0.3575608
0.2795722 -0.113595866 -0.27114898 0.2965359 0.04502119 0.08453374 -0.30230263 -0.14320992
-0.28190145 0.14182773 -0.28637135 -0.18905233 -0.008235604 -0.13114277 0.08678207 -0.093358174
-0.113915965 0.013736635 0.17557102 -0.17060532 0.11389625 0.15581492 0.23724768 -0.16975817
0.058739662 -0.17933735 0.20706484 -0.094081104 0.14110953 0.0027183334 -0.018088957 -0.017442878
0.031509083 0.10502161 0.036810435 0.086893484 -0.21940976 0.16208717 0.20376468 0.19206852
0.17620523 -0.17162028 -0.10235007 0.19810647 -0.16888145 0.22005214 -0.19072136 -0.17109257
0.118813984 -0.17361394 -0.055331413 0.17658705 0.19212198 0.22938119 -0.049249694 -0.18851215
0.2387707 -0.051682472 -0.100590475 0.059127737 -0.16962154 0.1594039 0.12558037 -0.17019145
-0.20315538 -0.006447146 0.11827018 0.008342268 -0.12902768 0.00029485516 -0.21675035 -0.1620578
-0.16538897 0.19786692 0.22612669 -0.09778922 0.0061730486 0.11598974 0.040094934 -0.25620833

fc1.bias f4 [256]
00000000: 8105 0c3e 60a4 d6bb 567e 3b3e bef2 4d3d
00000010: bb3a 33bd bb7c 843e 9660 b73d 2813 3c3e
00000020: 26f2 87bd c672 8abd aabe 863d 109d 0ebe
00000030: ae18 1c3d 576e 7a3d dc7a a7bd f7a0 3bbd
00000040: 8d48 453e 8558 e93d d930 143e 5b81 f8bc
00000050: a516 223e bb53 473e 5243 333e d9ff 4b3e
00000060: 877b 8c3e ddb6 473e 31a0 c3bb 6b4e c83c
00000070: f212 9e3d e8fc 76bc 67c1 723e 7cec 47bc
00000080: 89e7 493e 8768 fb3d 9046 983d 798e a63e
00000090: 1051 283c f17d f33d 5381 283e 96ca 12be
000000a0: d0b1 3a3b 3576 933e a991 b2bd 796e f7bd
000000b0: dc9a 88be f0b6 953e bab2 273e 26eb 143e
000000c0: c5dc 1d3e 492d 83be 1ee9 f53d e641 b0bc
000000d0: 6dc8 823e 39b7 1fbe 5645 14be b276 983e
000000e0: e5ac 473e 3e26 a3bd 3a64 18bd dc78 4cbe
000000f0: 3e29 973e fc10 153d 8e36 573d c0d7 133e
00000100: df02 723d 2371 413b 94cd 01be f162 bcba
00000110: 30b2 9cbc ecf8 e43d 382b 4f3d 4264 68be
00000120: 84f9 fa3d 7f76 48bd d52d 56be 00cb b3bd
00000130: 00fb 803b e12d 563e 3614 6c3e f875 c4bd
00000140: 1e84 49bd 82e9 9f3e a7ca 2d3e 36eb 0f3e
00000150: eea6 fbbd 8047 273d bf32 033d 88c2 943d
00000160: 843d 2bbe 68c2 f53d 0770 e3bd 27de 8b3e
00000170: b890 6cbd 85f7 a23e 51a5 873d 40df 703d
00000180: a70f e9bd e6d0 e8bb 84c5 723d 8186 3cbe
00000190: 0c4b 1b3e a3a4 7b3e 15f5 4b3e eb0a 503e
000001a0: b84b a03b af8c 09be 8aec d3bd 6878 aabc
000001b0: 9c5d f63d 9897 923d 2f7d 75be 9b44 2fbe
000001c0: 0503 5abe 65a3 4e3e 74bc 873d 58ef 0a3e
000001d0: aa2e 5d3d 9a87 643e 4dea 963e ab72 60be
000001e0: afca 1dbe d574 843d b833 37bd ccbe 1a3e
000001f0: a08b 253e 8ebe 35be e9f2 1e3e 03e9 51bd
00000200: ca0d 1bbe a8a1 693d a1a1 5dbc a22b 103d
00000210: 0a52 ffbc e562 8c3e 90c2 6abe 42e7 9ebd
00000220: b1c1 393e f134 a03d c335 7b3e 230c 9fbd
00000230: a3d1 203e 8f66 b9bd b002 adbd ab0c 64ba
00000240: 4050 5bbe a84c 16be f32b 343d 80e4 5abe
00000250: dc72 353e a180 dcbd 7bcf 9bbd d5bd 8b3e
00000260: 01c3 e4bd af86 323e 7f69 a83e 328a 9b3e
00000270: 4815 493e d05b 57be 0133 a43e dead 3f3e
00000280: 311a 3e3e b075 48bd d2d3 39bd e19c 31bd
00000290: 587d a63c 72bd 44be 8fb7 edbd 8765 323e
000002a0: c9ae b0bd 5ab1 c6bd 8e6d f0bd df50 0f3d
000002b0: d8fd 3ebe 1453 98bd 6050 1dbe 7edc 07be
000002c0: 75b8 7d3e b8a7 7a3e 6167 f13d 7f31 103e
000002d0: 2c76 003d 5d81 9ebd a7fd 8fbd 02ab 073e
000002e0: 0a75 67bd 7273 fe3d 349d 1bbe 4052 62be
000002f0: a5f5 5b3e da8a 603e 45a4 b33e 7ef9 1ebe
00000300: 147d 55be 706e 8e3e ad85 bebd 86cb 2d3e
00000310: e4b7 773e 135e 6c3b 802c 5b3e 80e0 4cbe
00000320: f280 3e3e 085e 9e3e 2fd2 be3e 7180 303e
00000330: f9b7 103e 48b5 1abe 9297 133e a435 b73d
00000340: 7863 243e cf60 4a3e 5dcc 573e 1977 9f3e
00000350: 6383 4abe b695 343e 3f40 c5bd 0798 1f3e
00000360: c810 2e3e c12c 10bd 52b5 d53b 96cb 73bd
00000370: c550 a43e c53f ae3d 41c7 a5bd 9bf3 08bd
00000380: 2a29 eb3d c010 0abe 6247 80bd 1c89 19be
00000390: 7346 b33e dcf7 9c3e be58 c33d 3b4f 623d
000003a0: 90d2 f6bb 5755 ba3e cbcb 31be cd54 51be
000003b0: e70b 083e c45f 973e 12db 3d3e c0bc 483d
000003c0: 85b9 aa3d e57d 0fbe 5bd4 5bbd c4a7 593e
000003d0: ccd0 d2bd 011e a9bd f3ae 123e 320b b5bd
000003e0: fdde f13b d4b0 d4bd 49e0 4ebd 7889 3e3e
000003f0: 8050 6c3e 8828 103d 94bf d43d 9d5b 343e
0.13673975 -0.0065503567 0.18309912 0.050280325 -0.04375718 0.25876412 0.08953969 0.18366683
-0.06637983 -0.067601725 0.06579335 -0.13927102 0.038109474 0.061140385 -0.081777304 -0.045807805
0.19265957 0.11393837 0.14471759 -0.030335119 0.1582895 0.19465534 0.1750615 0.19921817
0.27437994 0.1950335 -0.005970024 0.024451455 0.07718457 -0.015074946 0.2370659 -0.012202378
0.1971723 0.122757964 0.07435334 0.32530573 0.010273233 0.11889256 0.16455583 -0.14335093
0.0028487332 0.28801122 -0.08719189 -0.12081618 -0.26680648 0.29241133 0.16376773 0.14542827
0.15416248 -0.25620487 0.12007354 -0.021515798 0.25543538 -0.15597238 -0.14479575 0.29778057
0.19499548 -0.079662785 -0.03720496 -0.19967979 0.29523653 0.03639315 0.05254226 0.14437771
0.05908477 0.0029516898 -0.12676078 -0.0014372749 -0.019127935 0.111802906 0.050578326 -0.22694495
0.122546226 -0.04894113 -0.20915921 -0.087789536 0.0039361715 0.20915939 0.23054585 -0.09592813
-0.049198262 0.3123284 0.16971837 0.1405457 -0.12287699 0.040839672 0.032030817 0.072636664
-0.16722685 0.11999971 -0.11105352 0.27317926 -0.057755202 0.31829467 0.066233285 0.058806658
-0.113799386 -0.0071049808 0.059270397 -0.18410684 0.15165347 0.24574523 0.1991771 0.20316665
0.004891839 -0.13432573 -0.103478506 -0.020809367 0.12029573 0.071578205 -0.23973535 -0.17116015
-0.21290214 0.20179518 0.066277415 0.13567865 0.05399958 0.22317353 0.29475632 -0.21918742
-0.15409349 0.064675964 -0.044727057 0.15111846 0.16166544 -0.17748472 0.1552235 -0.051247608
-0.15141979 0.057038933 -0.013527305 0.03519786 -0.031167049 0.274192 -0.22925782 -0.07758953
0.18140294 0.07822598 0.24532227 -0.07765987 0.1570497 -0.090527646 -0.08447778 -0.00086993974
-0.21417332 -0.1467768 0.043987226 -0.21376228 0.17719597 -0.107667215 -0.07607933 0.27293268
-0.111700065 0.1743419 0.32892987 0.30378872 0.19637024 -0.21031117 0.32070163 0.18718669
0.18564679 -0.04894036 -0.045368023 -0.043362502 0.02032344 -0.19212893 -0.11607277 0.17421542
-0.086270876 -0.09701796 -0.11739646 0.034989234 -0.18651521 -0.07437721 -0.15362692 -0.13267705
0.24777396 0.24478042 0.11787296 0.14081381 0.031362697 -0.07739518 -0.07030802 0.13248828
-0.0565081 0.12424363 -0.15196687 -0.22101688 0.21480425 0.21927968 0.35086265 -0.15524861
-0.20848495 0.27818632 -0.093028404 0.1697217 0.24191242 0.0036066815 0.21403694 -0.20007515
0.18603876 0.30931115 0.37269732 0.17236497 0.1413268 -0.15108216 0.14413288 0.08945778
0.1605357 0.19763492 0.21074052 0.31145552 -0.19776683 0.17635235 -0.096313946 0.15585338
0.16998589 -0.03519893 0.006521859 -0.059520327 0.32092872 0.08508257 -0.08094645 -0.033435445
0.11482461 -0.13482952 -0.06263615 -0.1499371 0.35014686 0.30657852 0.095384106 0.05525134
-0.007532425 0.36393234 -0.17362897 -0.20442505 0.1328579 0.2956525 0.185406 0.04900813
0.08336166 -0.14012869 -0.053669315 0.21255404 -0.10293731 -0.08257676 0.1432455 -0.08840026
0.0073813186 -0.1038529 -0.050506864 0.18607128 0.23077583 0.035194904 0.10388103 0.17613073

fc2.weight f4 [128, 256]
00000000: 7fab d73c 44fd f83c 1209 493d acc9 093c
00000010: b162 183d 6d37 ef3c a476 7abd 2b83 1fbd
00000020: 2ec8 353d c2d2 583d bff4 06bd 30d0 c43c
00000030: 5a8e 303d fb2c 4ebd a9cb f8bc f4eb 2f3d
00000040: 8d54 28bc de1e 563c 43c8 943c 2c0c bf3b
00000050: d180 4f3d aed7 443d 0c74 76bd e3f8 103c
00000060: b4a6 8e3c d8d4 e73b d3af 93bc 8232 843c
00000070: 3e4d eebc 7cf2 943c e4cb 083c 97f3 043d
00000080: 9727 4bbc fb8e c4bc b186 453d bae7 023d
00000090: a077 1d3c 6676 75bd 4cc1 d23c 428f 02bb
000000a0: 32af 8dbd b8ce 7abd 1e43 343a 470f 9fbc
000000b0: b007 233d d38e 8bbb bc1f 4cbd 3b3d 9ebc
000000c0: 5ad7 d43c 6e65 903b 5e5e 653d dca1 113d
000000d0: 6cc5 a13c b604 6b3d c06e 3ebd bc35 3bbb
000000e0: 7b1c ecbc babf 88bc 4912 98b9 09f3 2e3d
000000f0: 85fd b9bc 374f 833c 1672 463d 1040 0e3c
00000100: f066 03bc 4a60 60bd 44a3 18bd 228a bdbb
00000110: f322 9f3b 93d9 88bc 4321 7dbd 6ca4 36bd
00000120: 1a07 163d 80c3 54bb ccf4 7dbd 2c11 6abd
00000130: 6479 edbc 3be4 82bd a1c8 383d 89be 233d
00000140: 9732 72bc 8faa f13c 1719 843b 30d7 c6bc
00000150: cb1f 61bc 7468 b1bc 53d2 e0bc 12ff 1d3d
00000160: c021 27bb e685 a63c 7d7b cb3c 4916 e53c
00000170: d5e6 8ebb 9043 96bb 6f87 ef3c 56e8 09bd
00000180: 2f94 dcbb b474 8e3c 1818 80bb 4095 37bc
00000190: f467 fd3c 4697 943c c290 36bd b6c3 76bc
000001a0: 6938 3cbd 4659 063d be2f 223b a088 05bb
000001b0: 164d f83c 43ec 31bc 198f 0e3d 705c 2cbc
000001c0: dd93 dd3c 4c26 7c3c e36e 413d 12ee 6cbc
000001d0: a943 d539 8c9c 7abd e41f 353d f020 a13b
000001e0: 4e28 553c ae5d 67bd 5ff2 97bc 6d4f 2e3d
000001f0: be02 05bd 80bd 8f3c 8556 ef3c 1f70 bc3c
00000200: 8e78 6d3d 8041 20bd 343f 45bd c4ff 923c
00000210: 205a 1abc b3f2 58bd 62fe 6ebd b0f7 503d
00000220: 2e92 2cbd 40fa 403d 415e 66bd ea5e c13c
00000230: b63a 03bd 581e 0d3d 3354 5f3d c473 583d
00000240: 9b00 1fbd f811 ccbc 6ab7 22bd fd42 91bc
00000250: 2449 9b3c bc47 0f3d 94cf 19bd 6d3d 033d
00000260: 4bbc abbc 92b1 d7bb 6966 4bbd 3b98 383c
00000270: d0b4 003c de9e 263d 1e98 373d 7e53 1d3d
00000280: ee1f 153d 5c1b 81bb 4193 d83c b60d 0b3d
00000290: b432 3f3d 393d 053d e232 edbc 4085 293b
000002a0: a207 07bd d088 c13c 97d0 c0bc 8d6d 8dbd
000002b0: 075a f2bc 0f80 67bd 681a 593c 4c0a 1b3d
000002c0: 8742 3cbc 2c96 cfbc 01b4 dabc 7c02 56bd
000002d0: 49b7 a83c fff7 ea3c c3bd 35bd c0a9 3c3d
000002e0: 3be8 123c 90d3 60bd 44d8 f33c 8043 8cbb
000002f0: 417a 32bd a57c b43c d53c 2dbd ce12 1c3c
00000300: ed2a 573d dedd dd3c 9c20 0a3d 9d76 0bbd
00000310: 4852 15bd 7c4e 563c a6ad e0ba 9e7a 1d3d
00000320: c751 573d 64ab 283d a81f 973c f6a0 48bd
00000330: ac1b 35bb 984a 043c 7d18 50bd 9013 fbbb
00000340: 48d3 043c f18d 6abd aaf6 cbba cba0 84bd
00000350: 3699 cf3c 0e65 30bd 59dc 6b3c 3b00 85bc
00000360: 0a4b 19bd 8145 c53b e1f3 61bd 61f3 fd3c
00000370: a73b b2bb f874 9f3b 62ca 213d aa3b 0c3d
00000380: ab49 2c3d 45d1 1c3d a02d 19bc 00a4 09ba
00000390: ce47 7bbd 8c6f bd3b 1c9f cbbb 9afe 163d
000003a0: fdbb 143d 19ca 90bc 1682 25bd 6fe6 363d
000003b0: 1298 a63b 36fe 0fbd 3f1a 44bd 4a9a 7cbd
000003c0: 75d0 a93c 1a37 293c f35c 213c 381d ca3c
000003d0: 2ae7 13bd 495f 573d ab1d 0a3d 0868 a53c
000003e0: ae1f 69bc f4c0 69bd 91b7 c43b e42f 813b
000003f0: e810 263c 4581 b63c d829 f1bc 11c2 523d
0.026326893 0.030394204 0.049080916 0.008409899 0.037203494 0.029201234 -0.0611483 -0.03894345
0.04438036 0.05293537 -0.03294825 0.024025053 0.043104507 -0.050335865 -0.03037055 0.04294963
-0.010274065 0.013068883 0.018161898 0.0058303084 0.05065996 0.04805725 -0.060169265 0.008848402
0.017413475 0.0070749335 -0.018028175 0.016137365 -0.029089566 0.018182032 0.008349393 0.032458868
-0.012399576 -0.02399396 0.048224155 0.031959273 0.00961104 -0.059927367 0.025726937 -0.0019921814
-0.069181815 -0.0612323 0.00068764563 -0.019416464 0.039802253 -0.0042589693 -0.04983495 -0.019316306
0.025981594 0.0044066226 0.0559982 0.03555475 0.019747458 0.05737754 -0.04649234 -0.0028565964
-0.028822174 -0.016692985 -0.00029005323 0.042712245 -0.022703895 0.016028984 0.048448645 0.008682266
-0.008020148 -0.05477933 -0.037265077 -0.005784289 0.004856461 -0.01670531 -0.0617993 -0.0445904
0.036627866 -0.003246516 -0.062001035 -0.057145283 -0.028988548 -0.06391188 0.04511321 0.03997663
-0.014782569 0.029500274 0.0040313113 -0.024272531 -0.01374049 -0.021656252 -0.02744404 0.038573332
-0.0025502294 0.02032752 0.024839157 0.027964728 -0.0043610134 -0.004585691 0.029239384 -0.03366884
-0.006731532 0.017389633 -0.003909122 -0.011205018 0.030933358 0.018138539 -0.044571646 -0.01506131
-0.045952234 0.03279998 0.0024747695 -0.0020375624 0.030310195 -0.010859552 0.034804437 -0.010520086
0.027048046 0.01538999 0.04722489 -0.014461057 0.00040676937 -0.06118445 0.044219866 0.0049172565
0.013010098 -0.056485824 -0.018548189 0.042556215 -0.03247332 0.017546415 0.02921606 0.023002682
0.057976298 -0.039124966 -0.04815598 0.017944224 -0.009420902 -0.05296583 -0.058348067 0.051017463
-0.042131595 0.047113657 -0.05624223 0.023604829 -0.032038413 0.034452766 0.054523658 0.052844778
-0.038818937 -0.024910912 -0.0397257 -0.017732138 0.018955775 0.03498052 -0.037551478 0.032041002
-0.020963809 -0.0065824473 -0.049658213 0.011266763 0.007855609 0.04067885 0.044822805 0.038409702
0.036407404 -0.003940029 0.026437404 0.033948623 0.046679214 0.03252909 -0.028954927 0.0025866777
-0.032966264 0.023624808 -0.023536963 -0.06905661 -0.029583944 -0.05651861 0.013250925 0.037851617
-0.011490471 -0.025340162 -0.02669716 -0.052248463 0.02059521 0.028682707 -0.044370424 0.046060324
0.008966501 -0.05488926 0.02976621 -0.0042805076 -0.04357362 0.022032091 -0.042294342 0.009525968
0.05253117 0.027083334 0.033722505 -0.034048665 -0.036455423 0.013080236 -0.0017141595 0.038447015
0.052568223 0.041179076 0.018447712 -0.04898163 -0.0027634902 0.008074425 -0.050804604 -0.007662244
0.008107014 -0.057264272 -0.0015561183 -0.06475981 0.025341611 -0.043065123 0.014395797 -0.016235461
-0.03742508 0.0060202484 -0.05516422 0.030999841 -0.00543924 0.0048662387 0.039499648 0.034236588
0.042062443 0.038285512 -0.009349257 -0.0005250573 -0.061347775 0.0057811197 -0.0062140357 0.0368639
0.036312092 -0.017674493 -0.040407263 0.044653352 0.005084046 -0.035154544 -0.047876593 -0.06167058
0.020729283 0.010328079 0.009848821 0.024672136 -0.036109127 0.052581105 0.0337197 0.020191208
-0.014228744 -0.05706878 0.006003328 0.0039424766 0.010135867 0.022278437 -0.029438898 0.051454607

fc2.bias f4 [128]
00000000: 7280 82bd b97b 983d 5824 9c3c ca62 073e
00000010: fd2e 163d 99bb 4a3d 0240 0e3e 9a12 2c3e
00000020: 9764 363c 545b 13bd 7fdb aebc d364 35bd
00000030: 4949 993c 456f 53bd 7999 cb3c 3e62 213e
00000040: 5f35 923d 08f1 923c 6a22 b53d f8e0 9b3d
00000050: 82ff b7bc 5e9b 5c3c 32ad 06bb 27bf 313d
00000060: ed53 03bc 7576 223e e55b 54bd 8653 8a3d
00000070: deb7 bc3d 560c 7fbc 6e26 313e eee4 653d
00000080: 016c e6bb 3ea4 323d e29b 9c3b ae0a 1e3e
00000090: 7574 0f3e 533e 4c3c ad8c 183d d8c7 78ba
000000a0: e675 703d 1884 143e af26 f63d d2f5 e53c
000000b0: d408 de3d 0928 2f3c f123 61bc b596 82bc
000000c0: 7ce6 3bbc bc96 883d 1202 193e c398 c4bc
000000d0: 5c7e 1b3e d0ac 6b3c a3c2 8c3c ee10 423e
000000e0: 2476 16bd c6ba 98bb 948f 3dbd 5822 163e
000000f0: ee7d cf3d 843d ac3c bed2 413d 0c99 5fbc
00000100: 4d8f a03d 4f12 0f3e 1bf6 b43d fe99 863c
00000110: 3e66 dbbc 31f6 453d 9fa6 99bb 13c3 db3c
00000120: 1a8b debc 30cf cc3c 3acf 493d 36a6 7e3d
00000130: cb09 253e 5bfe 65bd 3b34 183e 4301 35bd
00000140: d68f a43c 8b26 823b 02a2 68bd a9af 063d
00000150: 1758 7fbd 1d75 d63d 7800 603d d1f2 30bd
00000160: b80d 38bc b7ea 69bd 983b 5bbd 7d89 cb3b
00000170: 11a5 d1bc f933 a23d 15de 763d 5ee9 db3c
00000180: 5b45 7b3d c029 56bd 629b bb3c c87b b1bc
00000190: 96d8 803c 1820 9cbc 265b 213c b95f 47bd
000001a0: 2b36 853d b483 59bd 96fc a33a 6424 263e
000001b0: 496c 2ebd 9a1d 8f3d 81a3 0c3e f1a5 d03c
000001c0: c5c9 013b a287 263d 44b6 373e 6756 c43c
000001d0: 42af 56bd 07bf 0f3e 96ca 013e 2ec6 213e
000001e0: 7d8a a43c 5152 8a3d 67df 6cbd fbe6 0f3d
000001f0: 6a1e 74bd eaf2 1ebd 4fc2 d7bb 565a f3bc
-0.06372155 0.07445473 0.019060299 0.13221279 0.036665905 0.049495313 0.13891605 0.16803971
0.011132381 -0.03597577 -0.021344898 -0.044285607 0.018711703 -0.051619787 0.024853455 0.15760133
0.07139086 0.017937198 0.088444546 0.07611269 -0.022460703 0.013464777 -0.002055001 0.043395188
-0.008015615 0.158655 -0.05184545 0.06754212 0.092147574 -0.015566906 0.17299816 0.056126527
-0.007031918 0.043613665 0.004779325 0.15433761 0.14009269 0.012466031 0.037243534 -0.0009490228
0.058706187 0.14503515 0.12019097 0.028071318 0.108415276 0.0106906975 -0.013741479 -0.015941003
-0.011468526 0.06669375 0.14942196 -0.023998624 0.15184921 0.014384463 0.017182654 0.1895177
-0.03673376 -0.004660937 -0.046279505 0.14661539 0.10131441 0.021025427 0.04732012 -0.013647329
0.078398325 0.13971828 0.088360034 0.016430851 -0.026782151 0.04833049 -0.0046890522 0.026826417
-0.027165938 0.025001138 0.049269892 0.06217023 0.16117017 -0.056150775 0.14863674 -0.044190656
0.020088118 0.00397188 -0.056795128 0.032882366 -0.06233987 0.10471556 0.054687947 -0.043200318
-0.01123374 -0.057108607 -0.05352363 0.0062114582 -0.025591405 0.07920069 0.060270388 0.026844677
0.06134544 -0.05228591 0.02290124 -0.021665469 0.015728276 -0.019058272 0.009848392 -0.048675273
0.06504472 -0.053104118 0.001251119 0.1622482 -0.042583738 0.06988068 0.13734247 0.025469752
0.0019804102 0.040656693 0.17940623 0.023966981 -0.052413233 0.14037715 0.12674937 0.15798256
0.020085568 0.06753982 -0.05783024 0.03513239 -0.059599318 -0.03880588 -0.0065844427 -0.029706161

mean.weight f4 [7, 128]
00000000: 881e 97bc e909 1dbe d471 963c 167b 2abd
00000010: e4f7 643c 2ef4 af3d abc6 ebbd abcc 64be
00000020: f485 f2bc a51b a43d 1a29 a1bd 6a92 283a
00000030: 4b55 943d 241d 52bd a8fe 97bc 796b 28be
00000040: 8b74 31be f07e d93b fc68 0dbe 148f 2cbe
00000050: 7ad2 653d 0591 633d 2199 853d b2e9 1e3d
00000060: 8ead 2e3d ca70 2cbd 9964 a2bc 073c 12be
00000070: 0a79 4cbe e58b 7b3d a5d5 15be d684 ebbd
00000080: 8471 ae3b e9fb 873c c9ca a23d d2cd 98bd
00000090: e64e 5ebe ac2f bdbc d1b4 013d 0924 803d
000000a0: 2875 f9bc 905c 04be b25e 14be 2919 0dbb
000000b0: 0960 02be 01ec 2d3d 60f8 ab3d 6eb6 483d
000000c0: b115 5c3d e4c7 3dbd b869 51be 1760 783d
000000d0: 0a5a 99bd 0ad2 b3bd 4ea5 a0bd 5b92 3cbe
000000e0: 7a0a debc bc1f 873d a427 a5bc 1740 07be
000000f0: 5ff2 4ebe 9818 75bc 4073 05bc 5287 b23b
00000100: 22da 1dbe 2e9f 21be 3109 0abe 6f76 783d
00000110: d57a 91bc c4ee 923c 88d6 97bd ff45 92bd
00000120: 3876 143d e082 1b3b 670a db3b 9c10 4cbe
00000130: 9ca0 2fbe 3650 71bd 9743 3abe e6f2 e93c
00000140: ebe7 bbbd 4fce 33bd cd5f 5dbd 67a7 c5bc
00000150: e00e 78bd 9939 48be 089d 033d 710d e73c
00000160: 624e afbd 6d3d 6c3d e81c 6abc 1d55 3d3d
00000170: 5b39 9abc 92fd 12bd 4698 e6bc 7e9b d53c
00000180: 24ca 0fbe ef24 963b 37c8 e53c 8e8d 86bd
00000190: 64db 0bbd 54ff ab3d fcc0 813d 07c6 1b3d
000001a0: 4685 cbbd 81a4 643d 3ff5 a2bd e774 55be
000001b0: e9e0 033d df0a 69bd 4686 8abd c6b5 e4bc
000001c0: 8419 363d ac41 4d3c 934f 04be 40a3 103d
000001d0: 9171 8d3b 2197 1fbe 6838 10be e483 3fbd
000001e0: b943 443d 0803 7bbd 918a 91bd c02c a8bc
000001f0: d078 a83b 2e49 413d 2e48 38bd 3909 693d
00000200: 3c89 6b3d 4993 553e 663f 85bd 7fd1 fa3d
00000210: 6d40 43bd 5a4b 3b3d ce10 673d 1d7b f43d
00000220: c023 c9bb 5d24 89bd 894d dcbb 60f9 9dbd
00000230: ea80 5b3c 29be 803d ce19 a63b 3479 e63d
00000240: 584a 123e 6eaa 033d 902f d53d 597c 673e
00000250: 68fb 69bc b3de bb3c 3521 6b39 dd22 6fbd
00000260: 3c4f b03b 3a8c 373e ef44 3c3d 2415 163e
00000270: 715b 363e af0b d5bc e065 243e 6b4a 3b3e
00000280: 4470 cfbc 1b20 5a3d 27a0 983d c7c6 543e
00000290: d57c 193e 9a12 58bd e000 03bb 3184 edbc
000002a0: 7023 acbb 5e11 353e 1c6f 263e 0308 843d
000002b0: 689f 023e 2c89 7fbb 23b9 89bd 6184 9fbd
000002c0: 9a9c 8a3a 1b61 523e 8bb5 243e 11c7 14bd
000002d0: 05ae a53d b233 adbd 79d8 0e3d 27dc 583e
000002e0: c87e abbc 50b7 83bd af08 9c3d 80dd 1b3e
000002f0: f200 3c3d 4e35 633d c06f 49bd 3215 63bd
00000300: a439 893d 587b 0d3e aff6 3f3e 52a5 0cbd
00000310: afcb 47bc b53b a4bc 42aa 21bd b1cf 883d
00000320: b408 78bd 54d4 c13c 9437 7ebd f112 553e
00000330: 7a80 723d 7f55 793d 3102 ce3d 6f83 c8bc
00000340: 3b7f 88bd 55f1 39bd 3d63 3fbd f225 67bd
00000350: 6f52 c23b df2b 383e f1db 9fba a0d2 913d
00000360: e5d5 9d3d 00ab d23c ff6f 613d fb76 9cbd
00000370: 1432 afbc 5efa 223e 8338 453d 235a 243d
00000380: abe6 303d 3e0d 95bd c153 5ebd f617 7ebd
00000390: 259a 093d d926 8abc cbd1 0bbd a41e e6bc
000003a0: edc7 893d e26e d8bc d7c9 7cbc 16a7 5a3e
000003b0: 010b a43c 52e9 ef3d 507c 393e d63d 303b
000003c0: 7687 523d d453 94bd b9d4 5a3e dca0 8a3d
000003d0: 99c4 b33c 9cff 1c3e d89b 473e 0ede 1a3e
000003e0: 3f7d 41bd f630 103e 1371 a93d dfd5 3ebd
000003f0: a500 0abd 9c17 d5bc 5a2b 37bd aa94 483d
-0.018447176 -0.15335812 0.018364824 -0.04162129 0.013975117 0.085914955 -0.11512502 -0.223437
-0.02960489 0.08013085 -0.078691676 0.0006430509 0.07242831 -0.051297322 -0.018554047 -0.16447248
-0.17329614 0.0066374466 -0.1380958 -0.16851455 0.05610893 0.055558223 0.06523348 0.038797088
0.042645983 -0.04209975 -0.01982336 -0.14280711 -0.19968048 0.06141271 -0.1463228 -0.11499946
0.0053235907 0.016599612 0.079488344 -0.07461132 -0.21709785 -0.02309402 0.03166658 0.06256873
-0.030451372 -0.12925935 -0.14489248 -0.002152989 -0.12731947 0.0424614 0.08396983 0.049002104
0.053731624 -0.04633321 -0.20450485 0.060638513 -0.07487877 -0.08780296 -0.07844029 -0.18415205
-0.027104605 0.0659785 -0.020160504 -0.13208042 -0.20209645 -0.014959477 -0.0081451535 0.0054482603
-0.15415242 -0.15783378 -0.13480069 0.060659822 -0.017758766 0.017936118 -0.074139655 -0.07142257
0.036245555 0.002372913 0.0066845897 -0.19928211 -0.17151111 -0.058914386 -0.18189846 0.028558206
-0.09175094 -0.043897923 -0.05404644 -0.024127675 -0.06056106 -0.19553222 0.03213218 0.028204652
-0.08559872 0.057675768 -0.014289118 0.04622375 -0.018826177 -0.035886355 -0.028148782 0.026075121
-0.14041954 0.0045820395 0.028049571 -0.06569968 -0.034144774 0.08398309 0.06335637 0.03803065
-0.09937529 0.055820946 -0.07956933 -0.20845376 0.032196913 -0.056895133 -0.06763892 -0.027918708
0.044457927 0.012527864 -0.1292098 0.035311937 0.0043165167 -0.15584995 -0.14084017 -0.04675664
0.047916148 -0.061282188 -0.071065076 -0.020529151 0.005141355 0.04718893 -0.04499071 0.05689356
0.057503924 0.20856966 -0.06506233 0.122469895 -0.047668863 0.045726158 0.05641251 0.119375445
-0.006138295 -0.06696389 -0.00672311 -0.0771358 0.013397435 0.0628627 0.005068994 0.112535864
0.14286172 0.032144956 0.104094625 0.22606029 -0.014281131 0.02293334 0.00022423717 -0.058382858
0.005380539 0.17924586 0.045964178 0.14656502 0.1780832 -0.026006548 0.16054487 0.18290107
-0.025322087 0.053253274 0.07452422 0.20778953 0.14989026 -0.052752115 -0.0019989535 -0.028993698
-0.005253248 0.17682406 0.16253322 0.064468406 0.12756121 -0.0038991673 -0.06724765 -0.07788921
0.0010575235 0.20544855 0.16084878 -0.036322657 0.08089832 -0.08457126 0.034874413 0.21177731
-0.020934477 -0.064314485 0.07618844 0.15221214 0.04589934 0.055470757 -0.04917884 -0.055440135
0.06700447 0.13816583 0.18746446 -0.03433735 -0.012194558 -0.020048002 -0.03946901 0.06680239
-0.060555175 0.023660816 -0.062064722 0.20808007 0.059204556 0.06087255 0.10059012 -0.024476735
-0.06664892 -0.045396168 -0.0467255 -0.05643267 0.005930237 0.17985485 -0.0012196285 0.07120252
0.07706813 0.025716305 0.05503845 -0.07639881 -0.021386184 0.1591582 0.048149597 0.040125024
0.043188732 -0.07277916 -0.054279093 -0.06203457 0.03359427 -0.016864227 -0.03413562 -0.028090782
0.06727586 -0.02642006 -0.015428982 0.213528 0.020024778 0.11714424 0.18113828 0.0026892326
0.051398717 -0.072425514 0.2137021 0.06768963 0.021944331 0.15331882 0.19493043 0.1512377
-0.047238585 0.14081177 0.0827352 -0.046590682 -0.03369202 -0.026012234 -0.044719078 0.048969902

mean.bias f4 [7]
00000000: cb38 c0bd ccc7 2e3e d18c ec3d 5d31 c1bd
00000010: 0033 a63d 2f13 babd b90d cc3b
-0.093858324 0.17068404 0.11550296 -0.094332434 0.08115196 -0.0908569 0.006227222
