kinova-ros/kinova_scripts/src/runs/jaco2_ppo_20240705-180648/best_model_episode_100_20240705-180648/actor_20240705-180648.pth (torch, 419941 bytes, 9 tensors)

log_std f4 [7]
00000000: bd40 5e3c 1095 073c b4ac 053c 107f f13b
00000010: 3f6e b43b c339 1e3c 628c 0a3c
0.0135652395 0.008275285 0.008158851 0.0073698834 0.0055063064 0.009657326 0.008456321

fc1.weight f4 [256, 17]
00000000: 571e 023e 7ce6 debd d540 38bd 6ffe e43d
00000010: f2df 6bbe 5bde 123e 4974 43bd b8b8 fd3d
00000020: b443 0d3d d783 0dbd 9cb6 933d 5b85 ce3b
00000030: c174 b03d 4313 bebd 540d 81bc 43e8 a8bc
00000040: 97cb 053d 55eb 03bb e8bb 5a3e 8b88 963d
00000050: 2fd8 b4bd 17eb 11be 6217 1bbd 2e37 ddbd
00000060: 4872 9abd b8d4 673c 547e 123e dbcc 073e
00000070: 51f1 73be b467 1a3e 8013 8f3d 6043 623e
00000080: 7aba 243e 35eb 60be b323 6cbe d594 efbd
00000090: b315 5a3e d679 25bd 8092 d43d 34d4 e6bd
000000a0: 1cb1 733e 7c28 d2bd a640 3a3e ec2c 3c3b
000000b0: eed5 02be 1450 ff3d d7d4 03be 4d17 923d
000000c0: d26d 8fbd 69d5 d9bc b3c4 6ebe 408a e8bd
000000d0: 6015 063e 546a 6dbd 3e80 763e 1fc8 453e
000000e0: e216 4dbc 11ce 24be a7b7 153e a650 9c3d
000000f0: 5b61 26be 4d7a 203e 52b6 103e b62e 5c3e
00000100: 7078 0bbe 184d 1cbd 09b6 c1bb c316 083d
00000110: ac65 3abe b92c 30be d178 073e 08b9 6abd
00000120: 91a0 f13d 5976 5b3c f455 a43d 161d 4b3d
00000130: 0553 c63d 3b6d 003e ea4d 71be d950 093e
00000140: 7769 28be ad89 3abe 4f93 6d3c e648 34bd
00000150: 2f20 143e 3629 0fbe 6265 5bbe 82f5 333e
00000160: 2fa8 0fbd 7eb7 0c3e 9382 a13d 6e0f 3bbe
00000170: c71d 523d 85f3 573d 8080 24be 5902 dfbd
00000180: 2b9f a73d e8d2 1a3d 8d75 d2bd 8116 9abd
00000190: c96e 5f3e d670 3ebd 2a57 0d3e fd06 d73d
000001a0: fdc8 1fbe 4289 53be 0e67 6d3e b572 423c
000001b0: ffab 2a3e 9f1b 593d 3f0c a33d 799f 3a3e
000001c0: b710 693e a060 24be 63ef f83c 93aa 383e
000001d0: 4db6 373e 5a17 193e f5c6 34be 6ae7 38be
000001e0: e1ae 13be 0c9f d63c bbd6 7a3e 51e9 17be
000001f0: dbf0 083e 4d24 0dbe 58dd 6abe 6419 54bd
00000200: eb8b 0d3e fa43 6a3e d5a0 18be e396 4f3d
00000210: 6a49 543e d3df 1c3e 8e62 1f3e 728d 363e
00000220: 5ace 1c3e d1e4 7a3d 4717 28be 890b 52be
00000230: 6da7 e6bd 748b f4bc 3011 17be d7f1 b03d
00000240: 5a5f 943d d294 5fbd aabf be3d 8f02 9d3d
00000250: d1a3 163e 7754 263e ea40 a4bd 7ddb 723e
00000260: 61da e1bc cb0c 4ebc e03d 6ebe f7d3 1dbe
00000270: c9a6 13be f845 dabd 2d13 2e3e 446c 9dbd
00000280: 4c33 32be 1ab3 cf3d 1751 873d a3b0 283e
00000290: f444 0fbe c45f 5a3d 3e72 b3bd a7b2 4ebd
000002a0: c0f1 36be 4f33 e7bd 4515 a2bd 964a d83d
000002b0: 4d24 2b3d 1f68 7e3d 360a 7a3e f44f 743e
000002c0: c92e 273e 03bb 933c 5f42 21be d57f 353e
000002d0: 9850 77bd 9fd1 c6bc a08e 58be bc4a 3ebd
000002e0: 9fb4 21be bd47 6c3e 9e7a 50be 7254 3fbe
000002f0: 6df3 fdbb 7ae9 05be 976f b13d 2e16 bfbd
00000300: 2899 e9bd 3b6a 623c 7109 363e d63a 26be
00000310: 3f38 e43d b051 223e 84ac 723e 7e06 3bbe
00000320: 825d 813d fa93 38be f713 4d3e 389a c4bd
00000330: 9df6 183e 0147 9f3b 6961 88bc 56d9 25bc
00000340: 3674 1f3d f544 e53d 599d 283d 9bf7 8b3d
00000350: 144e 60be a955 3a3e 6e9b 523e 2a6d 563e
00000360: d47c 393e bb28 32be 120f b4bd 24a1 593e
00000370: 33c1 3fbe 0b2c 653e 61f7 45be 8507 2cbe
00000380: f94e ed3d 351d 35be a8a2 6ebd 11df 373e
00000390: a0a0 3c3e 515f 723e ffd1 60bd fa7a 33be
000003a0: cff8 6e3e b955 40bd 73a2 c9bd 9ac1 7b3d
000003b0: 3fc5 2fbe 1a51 203e b182 1c3e 2eb9 46be
000003c0: 6ece 49be 8518 bfbc 7098 cc3d 4ef4 14bc
000003d0: 355d f7bd 7261 ed39 76c2 69be bf8f 2abe
000003e0: 78ac 28be de5b 523e 4f3f 5a3e 8cba a8bd
000003f0: 9626 3d3c 61b9 d93d c222 f83c 6283 fdbd
0.12706886 -0.10883805 -0.044983704 0.11181342 -0.23034647 0.14342634 -0.04771832 0.12388748
0.034488395 -0.03454956 0.07212564 0.0063025183 0.08616019 -0.09281018 -0.015753426 -0.020618564
0.03266486 -0.0020129282 0.21360743 0.07350262 -0.08830296 -0.14249836 -0.037864096 -0.1080154
-0.07541329 0.014149837 0.14306003 0.1326174 -0.23822524 0.15078622 0.06986141 0.22096014
0.1608676 -0.21964724 -0.23060493 -0.11698309 0.2129734 -0.040399395 0.10379505 -0.11270943
0.2379803 -0.10261628 0.18188724 0.00287133 -0.1277692 0.124664456 -0.1287416 0.071333505
-0.070033684 -0.02659102 -0.23317222 -0.11354494 0.13094091 -0.05796273 0.24072358 0.19314621
-0.012517663 -0.16094233 0.14620839 0.0763257 -0.16248076 0.15671654 0.1413205 0.21502194
-0.13620162 -0.03815946 -0.005911593 0.033224832 -0.18202847 -0.1720456 0.13229682 -0.057305366
0.11798204 0.0133949155 0.08024207 0.049588285 0.096838035 0.12541668 -0.23564878 0.13409747
-0.16446482 -0.18216582 0.014500453 -0.044014834 0.14465402 -0.13980564 -0.21425393 0.17574123
-0.0350725 0.13741872 0.07886233 -0.18267605 0.05129793 0.052722473 -0.16064644 -0.1088912
0.08184656 0.037798792 -0.10276327 -0.075238235 0.21819605 -0.046494327 0.13802782 0.1049938
-0.15604015 -0.20657828 0.23183843 0.011868169 0.16667174 0.053004857 0.0796132 0.18224896
0.22760282 -0.16052485 0.030387586 0.18033819 0.17940636 0.14950314 -0.17654021 -0.18057027
-0.1442218 0.026198886 0.24495976 -0.14835097 0.13373129 -0.13783379 -0.22935998 -0.051782027
0.13822906 0.22877494 -0.14905103 0.050681006 0.2073113 0.15319757 0.1556494 0.17827395
0.15313092 0.061253373 -0.1641513 -0.20512213 -0.11262403 -0.029851653 -0.1475265 0.08639877
0.07244749 -0.054585285 0.09313901 0.07666504 0.14710928 0.16243158 -0.08020194 0.2371654
-0.027569951 -0.012576292 -0.23265791 -0.1541289 -0.14419092 -0.10657877 0.16999502 -0.07686666
-0.1740238 0.10141583 0.066072635 0.16473632 -0.13991147 0.053313985 -0.08762024 -0.050463345
-0.17865658 -0.11289083 -0.07914213 0.10561101 0.041782666 0.062111016 0.24417958 0.23858625
0.16326441 0.01803351 -0.15747975 0.17724545 -0.060379595 -0.024269877 -0.21148157 -0.04645799
-0.15791558 0.23074241 -0.20359275 -0.18684557 -0.007749966 -0.13077345 0.08663862 -0.09330402
-0.11406165 0.013819273 0.17777039 -0.16233382 0.111435406 0.15851474 0.23698622 -0.18264195
0.06316663 -0.18025199 0.20027147 -0.095997274 0.14937826 0.0048607592 -0.016648011 -0.010122618
0.038929187 0.11194793 0.041165683 0.06834336 -0.21904784 0.1819674 0.20567104 0.2094008
0.18114024 -0.1739835 -0.08791937 0.21252877 -0.18726043 0.22380082 -0.19332649 -0.16799743
0.115873285 -0.17686923 -0.05826059 0.17956187 0.18420649 0.23669173 -0.054887768 -0.1752738
0.233371 -0.04695675 -0.09845438 0.06146393 -0.17165087 0.15655938 0.1528423 -0.19406578
-0.19707653 -0.023327122 0.09990013 -0.00909145 -0.12078325 0.00045276765 -0.22828087 -0.16656397
-0.16472042 0.20542857 0.21313213 -0.08238706 0.011544844 0.10631061 0.030290011 -0.12378575

fc1.bias f4 [256]
00000000: b72a 0a3e dae1 a3bb 2737 9e3d 86eb 8bbd
00000010: 8289 2ebe b6f1 253e 7a37 27bd 361c 3c3e
00000020: a0a6 8abd 99d2 5cbd 9875 59bd c0c2 0ebe
00000030: 676d 383d a740 6f3d 4b28 cbbd 31ad 15be
00000040: a8d5 453e ae4e 4abc 651d 123d 57b0 12be
00000050: 2875 313e ff9c 4e3e f2ba 503d ee5f 5c3e
00000060: 407a 0e3e ab1f 443e 6236 f9bd 24f3 aebd
00000070: 2bee 23bd ea9d f9bd e63b 003e db24 07be
00000080: bc0d a53d fb92 073e 4fe1 39bd fc30 613e
00000090: 8a3f eabd af57 da3d 14de 253e 455a 15be
000000a0: f5dc f93b 545e 403e b39a 43be 8e36 02be
000000b0: 67dc 74be bee7 2a3e bab2 273e 9677 153d
000000c0: bd75 2f3d bfbb 6ebe 8398 e63d b3a2 eebd
000000d0: 47b2 013e 8b13 20be f408 2abe 9dba 333e
000000e0: 8059 913d 13c8 90bd 0e1f 1ebe 64ce 59be
000000f0: 68c3 2c3e a2d6 a1bd 3d8d 4e3d b12b 0d3e
00000100: 1869 75bd 7bce dfbd ba3f 01be 95a4 b43c
00000110: fbb2 c3bc c5e8 803a 9ac2 863d e806 5fbe
00000120: 381f fb3d 3244 1cbd d52d 56be b335 b0bd
00000130: 25aa c03b af6b 583e df7c 723e ef2e babd
00000140: e7c0 2abe 4f38 493e 96da 4a3e c64c 113e
00000150: aa82 64be 8047 273d a340 633d 88c2 943d
00000160: f504 26be 0611 973c d941 c9bd de7c 183e
00000170: 758b 25be 943c 533e 451e 893d 40df 703d
00000180: 52e6 e2bd 7326 61bc 51cc 773d 8186 3cbe
00000190: 78c5 053d 87fe 053e 3b6b c63d 5d57 543e
000001a0: 000b febd 55cc 78be 8c20 c8bd 347c 06be
000001b0: 3448 0d3e 899f 983d 90c8 6abe 9b44 2fbe
000001c0: 54c4 5fbe fcaf a23d fdb7 793d f1f5 8c3c
000001d0: 32ab 8ebd adb4 593e 48e2 3d3e 4baa 57be
000001e0: 3a93 1cbe b074 843d 7ba6 29be 4163 103d
000001f0: 6bc6 523d 0b1c 37be 63bb 283e 2b35 22be
00000200: 043f 1dbe 2905 21bd 884c e9bd 09bd a23c
00000210: eac6 1abe dc89 1a3e 0372 65be 0600 a0bd
00000220: 3c95 833d 7f87 893d 0021 f73d 35a6 8abd
00000230: 81a8 5a3d 5c6b 4fbe 4431 9fbd 57f3 ca3b
00000240: 4499 5cbe 47f5 09be b978 823d 5caa 5cbe
00000250: 4a6f 333e 4f93 f5bd fbd8 c9bd 596f 113e
00000260: 6d11 8ebd 50b6 863d f069 583e 9797 3c3e
00000270: 4815 493e a048 59be ac12 683e 638e a73d
00000280: 1ac4 983d b585 74bd c9dc 0fbe 3387 34be
00000290: 96bd 7a3c 0266 3fbe f65c 71be 57e5 393e
000002a0: b7a9 b9bd af54 57be 4d95 6ebe 9fca 493d
000002b0: 98c5 21be a011 79bd 6050 1dbe d170 e9bd
000002c0: 66b9 073e e7a2 783e 91cd 003e 13df 8c3c
000002d0: 3d0b b13c c82c 45be 8e1a 93bd f8db 123e
000002e0: 4dc0 28be 4d70 083e d6fc 12be 25b7 62be
000002f0: d4fb b23d ca4c 6a3e 5aa1 673e 351a 28be
00000300: 55d3 53be 3165 253e 47cb 4ebe 6f48 233e
00000310: c7d4 743e 84d2 63ba 57b6 583e 940d 4bbe
00000320: 9a18 403e e90a 403e 1c24 713e 77c8 803d
00000330: a7b1 183e 798b 18be 30e6 0b3d 65eb a33d
00000340: e268 f03c 7a6e a93d 1cf6 b83d 122c 4a3e
00000350: bc59 47be 56f1 ae3d a4ed 2cbe 4c7d 643d
00000360: 7531 313e 857f 1fbe 7f34 d3bd b132 27be
00000370: b720 573e 99a0 e9bc 38f1 babd abe0 d2bc
00000380: f626 0c3b 561f 09be f1ac 7dbd 826f 1bbe
00000390: e508 673e b9a2 4a3e d7c0 043e 576a 84bd
000003a0: f1eb fcbd 3782 733e 1032 1abe 5d06 5abe
000003b0: b602 fd3d 4077 2d3e 4537 353e 26b4 693d
000003c0: 9700 b6bc 9f08 78be 47a2 49bd ddd2 ee3d
000003d0: 5e1e d4bd c42c afbd fce1 003e 553e a7bd
000003e0: a865 083c d9aa 70be 04c8 40bd b541 913d
000003f0: 621a 093e ea24 313d 94bf d43d 0f74 433e
0.13492857 -0.005001289 0.07725363 -0.06832032 -0.17044643 0.16205487 -0.04082439 0.18370137
-0.067700624 -0.05391178 -0.05309066 -0.13941479 0.04502621 0.058411267 -0.09919795 -0.14616849
0.19319785 -0.01234786 0.035672564 -0.14325081 0.17329848 0.20177077 0.050959535 0.2152097
0.13913822 0.19152705 -0.12168576 -0.08542469 -0.040022057 -0.12188323 0.1252285 -0.13197653
0.0805926 0.13239662 -0.045380887 0.21991342 -0.114379 0.106612556 0.16197997 -0.14585216
0.007625217 0.18785983 -0.19101982 -0.12716123 -0.23912202 0.16689965 0.16376773 0.036491
0.042836893 -0.23313807 0.11259558 -0.11652126 0.12665664 -0.15632455 -0.16604978 0.17551656
0.07097149 -0.07069411 -0.15441534 -0.21270138 0.16871417 -0.07902266 0.050427664 0.13786198
-0.05991468 -0.10928055 -0.12621966 0.022051135 -0.023889055 0.0009834996 0.06580086 -0.21779978
0.12261814 -0.038150974 -0.20915921 -0.08603992 0.005879658 0.21134828 0.23680447 -0.09090983
-0.16675149 0.19650386 0.19809946 0.14189443 -0.2231547 0.040839672 0.055481564 0.072636664
-0.16212828 0.018440735 -0.098270126 0.14891383 -0.1616648 0.20628577 0.066952266 0.058806658
-0.11079086 -0.013742077 0.060497586 -0.18410684 0.032659024 0.13085376 0.09688421 0.20736451
-0.12404442 -0.24296696 -0.09771833 -0.13133317 0.13797075 0.07452304 -0.22928071 -0.17116015
-0.21852237 0.079437226 0.06096648 0.017207118 -0.06966247 0.21260329 0.1854335 -0.21061055
-0.15290537 0.06467569 -0.16567414 0.035250906 0.051458757 -0.17881791 0.16477732 -0.15840594
-0.1535607 -0.03931156 -0.1139155 0.01986553 -0.15114942 0.15091652 -0.22406773 -0.078125045
0.064249486 0.06715297 0.12066841 -0.06769983 0.053383354 -0.20255798 -0.077730685 0.006193559
-0.21542841 -0.13472472 0.06370682 -0.21549362 0.17522922 -0.119909875 -0.09855839 0.14202632
-0.069369175 0.06577742 0.21134162 0.18417202 0.19637024 -0.2121911 0.22663373 0.08181455
0.074592784 -0.059697825 -0.14049067 -0.176297 0.01530399 -0.18691257 -0.23570618 0.18153892
-0.09065574 -0.21028398 -0.23299141 0.0492655 -0.15798032 -0.060807824 -0.15362692 -0.11398471
0.13254318 0.24280892 0.12578417 0.017196214 0.021611804 -0.19255364 -0.07182799 0.14341724
-0.16479607 0.1332409 -0.14354262 -0.22140177 0.08739439 0.22880855 0.22620144 -0.16416247
-0.20686086 0.16151883 -0.20194732 0.159456 0.23909293 -0.0008690732 0.21163307 -0.19829398
0.18759385 0.18754162 0.23548931 0.06288236 0.14911519 -0.14896955 0.03415507 0.08003882
0.029346887 0.08273025 0.09031317 0.19743374 -0.19467825 0.08542125 -0.16887528 0.055783555
0.17304023 -0.15575989 -0.10312747 -0.16327931 0.21008573 -0.028518962 -0.0912804 -0.025741896
0.0021385527 -0.1339086 -0.061932508 -0.15179256 0.22561987 0.19788636 0.12964188 -0.06465595
-0.1234969 0.23780142 -0.1505816 -0.2129149 0.12354033 0.16940022 0.17696865 0.05705657
-0.022217078 -0.24222039 -0.049227025 0.11661313 -0.103573546 -0.0855346 0.12586206 -0.08166186
0.008325018 -0.23502673 -0.04706575 0.07092611 0.1338897 0.043248095 0.10388103 0.19087242

fc2.weight f4 [256, 256]
00000000: aabb 083d bbf0 f23c bf77 7c3d 0031 833c
00000010: 19a0 3f3d 3f29 173d b997 56bd 147c 2cbd
00000020: 0ad0 323d 735c 6e3d d1ea cfbc 6338 cb3c
00000030: 9d77 503d b22c 3fbd 7f73 bdbc 1a24 5d3d
00000040: 60bd 3fbc 41c4 a03c f260 a53c 5051 653c
00000050: 5e5b 6b3d 1e66 623d 0ad7 57bd 81ac 833c
00000060: ea7c 883c 08d7 043c a233 afbc 3c3e ca3c
00000070: 9412 98bc fe3a e63c 19c6 703c 0f55 1e3d
00000080: 3390 afbb 0b02 96bc 8ed5 483d 2f56 223d
00000090: 0184 b33c a964 78bd a453 d13c 9517 aa3b
000000a0: 61fc 78bd b8ce 7abd 6bca 653c 4a23 49bc
000000b0: 604b 443d 074c 5e3b bc1f 4cbd ecce 38bc
000000c0: 147f 073d d7fa 743c c6ff 5e3d 582f 413d
000000d0: d213 9b3c 5fb7 6b3d 807a 1ebd dc18 083b
000000e0: 351e b5bc 6613 87bc a5c6 ef3b 6840 293d
000000f0: 9817 3dbc 74d2 fb3c abf7 423d 08af 143c
00000100: f066 03bc dbe2 3abd eb9a 0cbd d074 333a
00000110: 823e 1c3c 688b 1cbc f6f4 5ebd edb2 18bd
00000120: 1cee 153d cc10 0cbb ccf4 7dbd aa7c 66bd
00000130: 4669 edbc ddd5 6bbd 935b 3b3d 16c9 433d
00000140: f9c6 e9bb 9995 2d3d 5aa4 293c df05 c6bc
00000150: 68a2 8dbb 7468 b1bc 35c9 adbc 12ff 1d3d
00000160: e893 53ba b45c de3c 3204 063d 5263 1b3d
00000170: 2427 5e3b ef69 263b c911 0f3d 56e8 09bd
00000180: 7c0f 80b9 0f60 873c 97fa 85bb 4095 37bc
00000190: f467 fd3c d4e6 d03c d8d1 36bd 72a1 90bc
000001a0: adb4 1bbd b1c3 063d 1458 173c f2e1 c63b
000001b0: e700 f33c 6f7d a0bb ea6a 563d 705c 2cbc
000001c0: cf29 0d3d 24f7 e03c 3109 5e3d f28a 18bc
000001d0: 35e9 fb3b cff7 7dbd 86b8 523d d687 3a3c
000001e0: beac a63c ae5d 67bd 95bc 1bbc a5e6 533d
000001f0: ca0e 00bd bff9 853c a214 143d b290 0b3d
00000200: 1cb5 6c3d 7b40 02bd 9d8d 3dbd 90c1 893c
00000210: 205a 1abc 9d40 39bd 1d40 7abd e69e 513d
00000220: e695 0cbd e266 5a3d bcc4 32bd 1bc5 f83c
00000230: 5831 b0bc fb38 363d 07d2 663d 60bc 563d
00000240: 7491 03bd 4db7 95bc 48a8 24bd fe21 2bbc
00000250: 1b4e 913c e967 313d 948e fdbc 79e7 1e3d
00000260: 63a3 68bc a344 7637 9289 2dbd cf27 603c
00000270: d0b4 003c 065c 1f3d 1e98 373d bdb3 503d
00000280: 72ac 163d 6e1b 03bb 67b5 153d ded7 3d3d
00000290: e5a8 2a3d 525f 1e3d 89e5 a1bc 4fc4 a33a
000002a0: 500d ddbc 419f 023d b70a 83bc 0e04 7ebd
000002b0: 9747 e6bc bba9 4ebd 681a 593c c2de 333d
000002c0: 14f2 60bb 984e d4bc 0676 9fbc 2f32 50bd
000002d0: 4008 df3c ae99 153d ecbd 35bd 7c51 353d
000002e0: 0474 af3c ae3b 5ebd 3264 173d ff69 9dbb
000002f0: d6cf 04bd d2c4 053d 1213 0bbd d4fc 2b3c
00000300: 254d 763d 5884 0c3d 6a35 243d 590a 1dbd
00000310: a22f 1cbd 7bac a33c 9d14 c539 bc42 373d
00000320: 59de 5e3d b1c5 463d e518 963c e41a 2bbd
00000330: 8bac 853b 05ef e43b e778 1dbd 191e 0dbc
00000340: c2e1 003c cbeb 37bd e6e7 c43b c64d 64bd
00000350: 74ad 033d bf25 04bd 6727 be3c 7f8a 12bc
00000360: edc4 1ebd 0807 873c fc72 36bd 6747 193d
00000370: 3a9f bc3b 03e6 543c 1ccb 223d b48b 2d3d
00000380: fbf6 4b3d 139e 2b3d fadb 0abc fd69 0ebb
00000390: 1414 5fbd e297 853c db05 5039 a198 373d
000003a0: 3214 343d f2ad 38bc 7b34 fdbc d5c7 283d
000003b0: 418c 333c 23f4 0abd cab1 29bd c895 8fbd
000003c0: ffef e13c ce5c b63c 66d7 843c 8c9f 033d
000003d0: e968 06bd ef66 7e3d 26b1 f23c e7cd 9f3c
000003e0: d1b3 68bc 3481 64bd 5011 503c 4b37 323c
000003f0: 556e 213c fbfe ed3c d829 f1bc 23f2 6a3d
0.033382095 0.029655805 0.061637636 0.016014576 0.04678354 0.03690457 -0.052390788 -0.042110518
0.043655433 0.058193635 -0.025380524 0.02480716 0.050895322 -0.046673484 -0.023126362 0.053989507
-0.011702865 0.019624831 0.020187829 0.013996437 0.05746018 0.055273168 -0.05269531 0.016073467
0.016661126 0.008107908 -0.021386925 0.024687879 -0.018563546 0.028104302 0.014695668 0.038655337
-0.005357766 -0.018311521 0.049031787 0.039632972 0.02191353 -0.060642872 0.025552578 0.0051907995
-0.060787562 -0.0612323 0.014025311 -0.01227648 0.047923446 0.0033919828 -0.04983495 -0.011279803
0.033080176 0.014952383 0.054443143 0.04716429 0.01893035 0.057547923 -0.038691044 0.002076677
-0.02210913 -0.016488742 0.0073173814 0.04132119 -0.01154127 0.03074 0.047599476 0.009074934
-0.008020148 -0.045626502 -0.03432743 0.00068457145 0.009536387 -0.009554721 -0.05443283 -0.037280012
0.036604032 -0.0021372316 -0.062001035 -0.056271233 -0.028980862 -0.057577003 0.04574163 0.047799192
-0.007134315 0.042378996 0.010354126 -0.024172721 -0.004322339 -0.021656252 -0.021214107 0.038573332
-0.0008071051 0.027143814 0.032718845 0.037936516 0.0033897841 0.0025392731 0.03492907 -0.03366884
-0.000244256 0.016525296 -0.0040887105 -0.011205018 0.030933358 0.025500692 -0.044633716 -0.017655108
-0.038014103 0.03290147 0.009237308 0.0060694152 0.029663516 -0.0048977653 0.052348055 -0.010520086
0.0344637 0.027461596 0.054207984 -0.009310471 0.0076877126 -0.062003907 0.051445507 0.011384925
0.020346042 -0.056485824 -0.009505411 0.05173363 -0.031264104 0.01635444 0.03615249 0.03407354
0.057789907 -0.031799775 -0.04627763 0.01681593 -0.009420902 -0.045227636 -0.0610963 0.051176928
-0.03432264 0.053320773 -0.04364465 0.030367425 -0.021507904 0.044487935 0.05635264 0.052425742
-0.032121137 -0.018275881 -0.040199548 -0.010445116 0.017737439 0.043311987 -0.030951776 0.03879497
-0.014199111 1.4678723e-05 -0.042367525 0.013681366 0.007855609 0.03890612 0.044822805 0.05095266
0.03678555 -0.0020005363 0.036549952 0.046348445 0.041664977 0.038665123 -0.019762771 0.0012494418
-0.026983887 0.031890158 -0.01599632 -0.062015586 -0.028110309 -0.050454836 0.013250925 0.04391361
-0.0034323977 -0.025916383 -0.019465458 -0.05082911 0.027225614 0.036523513 -0.044370577 0.044267163
0.021417625 -0.054256134 0.036960788 -0.0048038955 -0.03242477 0.032658406 -0.033953734 0.010497291
0.060132165 0.0343059 0.040090002 -0.038339946 -0.038131364 0.019979706 0.00037590126 0.044741377
0.054411266 0.048528377 0.018322418 -0.04177369 0.0040794066 0.006986501 -0.03844538 -0.008613133
0.007866325 -0.044902604 0.0060090898 -0.055738233 0.03214784 -0.03226256 0.023212148 -0.008944153
-0.03876202 0.016482845 -0.04454325 0.03742161 0.005756286 0.012994292 0.03974448 0.04236956
0.049796086 0.0418988 -0.008475298 -0.0021730654 -0.054462507 0.016307775 0.00019838607 0.044823293
0.043964572 -0.011271941 -0.030908814 0.0412062 0.010958732 -0.033924233 -0.04142932 -0.070109904
0.02758026 0.02226105 0.016215991 0.032134578 -0.032814894 0.062109884 0.029625487 0.019507362
-0.014203028 -0.05578728 0.01269944 0.010877441 0.009852965 0.029052248 -0.029438898 0.057359826

fc2.bias f4 [256]
00000000: c0c4 5ebb 7cbb cb3b c04e cebb c016 01bc
00000010: 8703 aebc a32e 32bb 9d2f dabb dee6 59bd
00000020: e886 1c3d 7a04 dc3c 6a59 01bd ecd5 42bd
00000030: 3e9c 443d 3066 f13c e3f6 bbbc c6d2 063d
00000040: 673d e93c 1852 4dbd e9fd 63bd b571 1dba
00000050: 12c4 003b 7371 aa3c 8ab8 ecb9 f3e7 483d
00000060: 4ea2 803d a041 653c ea34 32bd bd57 5abd
00000070: 9d6e 7fbd 10d6 083c 48db 2cbd c802 5f3d
00000080: d0ac 18bd 2899 1f3d 0fb0 8c3c 5267 483c
00000090: c06c 483c ad52 093c 2b21 17bd b04b ef3c
000000a0: 69c4 0ebb aff5 343d fa4b 493d 52b2 3b3d
000000b0: 330a 63bd ed89 2a3d 0d15 1abd ad91 163c
000000c0: bb8f 323c c10d 713d 058a 61bd 806d ccba
000000d0: 36f1 32bd 3063 46bc fff0 1a3d 6366 673d
000000e0: b2ac 073d a1e5 67bd bcfa 59bd 3c47 08bc
000000f0: c499 f33c 000b 283d 685f 36bc 9a3a 473d
00000100: 1041 0dbd d839 573d 3bd9 a2bc b1aa 643c
00000110: f55f 28bd a197 42bd 6ff1 2d3c 7077 82bc
00000120: 0968 0bbd 8fea e63c 9539 ef3c 686a 1f3d
00000130: f9e7 3d3d d96f 113d 2f62 713d 60a4 4e3d
00000140: b716 90bc ddb1 853a 4060 a73c 8f1a 03bd
00000150: 19fa 403d 499e 14bd 7d1c 393b a838 1abc
00000160: d91c e0bb 1097 f23b 7c06 66bc cb8b 183d
00000170: 0ad7 603d 7905 6b3d e8d2 30bd 1496 2d3d
00000180: b266 0b3d bfee 943c c51d 16bc 215f cdbc
00000190: 0326 663c 2174 4ab9 e539 2bbd 0b1b eb3c
000001a0: 3343 4abc cf9c c53c e6c4 913c 28d0 70bd
000001b0: 0810 82bd 19d9 3a3d 9db2 c03c a44e 79bc
000001c0: 8a02 2cbd 4aa9 c3bc a225 453a c344 bdbc
000001d0: 88b1 613d 3f1d f9bc 3944 24bc e271 5a3d
000001e0: 050d 573d 6db6 eabc d772 a43b aac4 f83b
000001f0: 7a87 283c c082 e0ba 7e6b 56bc 44bb d238
00000200: 6c5d 87bc 11cd 48bd 141d 113c fa8e 393d
00000210: d4d3 803c ed7a 8cbc 0fe1 573d b461 033d
00000220: dbf0 d93c 7820 32bd 77f0 11bc 14bc 793d
00000230: 8a7f e03c bd72 02bd 730b e23c 1923 ce3b
00000240: b6e2 3a3d 7338 16bb 1bf0 8fbb 757b fc3b
00000250: d057 f4bc 0446 38bd c409 a03c ddac 1c3d
00000260: f5de 99bc 0a32 61bd 0383 f0bc 2f0b 3dbc
00000270: c2a1 6dbd 6ed2 f8bc 8508 163d e24f 013d
00000280: 910e 7abd 5ccd 61bd e897 213d 188a 883c
00000290: 9492 c63b 10ea d9bb e0f8 603c ae1f 853d
000002a0: 6aa7 a03c 5dd6 f43b 3696 033c 8d8f 7bbd
000002b0: 7304 413d 3408 2dbd 713f d13c 7efe 58bd
000002c0: da42 72bd a487 6dbd a7e0 34bd 4339 0a3d
000002d0: 65e4 213d 3735 343d 7871 103d 648c 20bd
000002e0: 6952 843c 49c0 10bd d80d 5d3c 462a 02bd
000002f0: 00a6 4b3d d232 343d 8934 563d 3751 4d3d
00000300: 8d55 a6ba cc5a 53bd ed3f 423d e5f2 603d
00000310: bea1 6abd 856e a03c 5b58 35bd d3f2 60bd
00000320: d2d3 0f3d da5a 013d 3cb5 36bd 9da8 df3c
00000330: be1d eebc ae83 7a3d c025 773d 1384 733c
00000340: e84a 123d d531 21bd 6f57 48bc e827 c53c
00000350: c4b0 543d f85c 573c 90cc 3d3c 58c4 aabc
00000360: 3c2e 7a3d de59 533c 86ff 38bb e038 64bd
00000370: aa43 2e3c 9534 253d 852d 22bd 8d3b d93c
00000380: 45a3 c9bb 800d 5c3d 991f 5abd a693 fabb
00000390: 8013 c13c 678e c5bc 480a d1bc de7d 40bd
000003a0: cbc3 11bd ce46 a33b ab7a f33c 053d 4e3d
000003b0: 9ec9 c33c 58f3 12bd e094 e13c 563e d7bc
000003c0: a015 5cbd 341d 873c 988c 31bd a879 44bd
000003d0: db9f 14bd d901 c6bc b81e 183d f18d 0f3d
000003e0: 4852 87bc d027 6e3d 64ed 33bd df23 fb3b
000003f0: 29a5 0fbd 23f5 263c c09a 05bd c32d c83c
-0.0033991784 0.0062174182 -0.006296009 -0.007878959 -0.021241916 -0.0027188442 -0.006658508 -0.053198688
0.038214594 0.026857603 -0.031579413 -0.047567293 0.048000567 0.029467672 -0.022944873 0.032915853
0.028471662 -0.05012712 -0.05566207 -0.00060060184 0.0019648117 0.02080605 -0.0004515092 0.04904933
0.06280957 0.013992697 -0.043507494 -0.05330633 -0.06236135 0.008351818 -0.04220131 0.05444601
-0.03727418 0.03896442 0.017173795 0.012231665 0.012232959 0.008381528 -0.036896866 0.029210895
-0.002178455 0.044179615 0.049144723 0.045824356 -0.05542965 0.041635443 -0.03761773 0.009190005
0.010898526 0.058851007 -0.055063266 -0.0015596598 -0.043687068 -0.012108609 0.037827488 0.056494128
0.03312368 -0.056615476 -0.053217635 -0.008317765 0.029736407 0.041026115 -0.011131145 0.04863987
-0.034485877 0.0525454 -0.019878974 0.013956712 -0.041107137 -0.047507886 0.010616644 -0.015926093
-0.034034763 0.028188018 0.029202262 0.038919836 0.046363804 0.035507057 0.058931526 0.05044973
-0.017588956 0.0010200102 0.020431638 -0.03200775 0.04711351 -0.036283765 0.002824574 -0.009412922
-0.0068393764 0.007403262 -0.014039632 0.037242692 0.054892577 0.057378266 -0.043169886 0.042379454
0.034033485 0.01818025 -0.009162371 -0.025069775 0.014047149 -0.00019307483 -0.04180326 0.028699419
-0.012345123 0.024122624 0.017794084 -0.058792263 -0.06350714 0.045617197 0.02352267 -0.015216503
-0.04199461 -0.023884434 0.00075205613 -0.023104077 0.055100948 -0.030409453 -0.010026031 0.053331263
0.05250265 -0.02865144 0.005018573 0.0075918036 0.010286206 -0.001712881 -0.013087152 0.00010048461
-0.01652404 -0.04902369 0.00885703 0.04530237 0.015726008 -0.01714846 0.052704867 0.0320756
0.026604107 -0.043487996 -0.008907429 0.06097038 0.027404565 -0.031847704 0.02759335 0.006290805
0.045626365 -0.002292183 -0.0043926365 0.007705147 -0.029827029 -0.044988647 0.019535907 0.038250793
-0.018783072 -0.05497936 -0.029359346 -0.011538311 -0.058015592 -0.030373778 0.03662922 0.031570323
-0.061049048 -0.055127487 0.03945151 0.01666741 0.006059954 -0.006650217 0.013731211 0.06500183
0.01961108 0.007471843 0.008031419 -0.061416198 0.047123384 -0.04224415 0.025542947 -0.052977078
-0.059145786 -0.057990685 -0.044159558 0.033746015 0.039524455 0.043996062 0.035264462 -0.039196387
0.016152577 -0.035339627 0.01349207 -0.031778596 0.049718857 0.04399378 0.052296195 0.05012628
-0.0012690291 -0.051600263 0.047424246 0.054919142 -0.057283156 0.01958395 -0.044273715 -0.054919075
0.035114117 0.031580783 -0.044606432 0.02730208 -0.029066917 0.061160736 0.060338736 0.014863032
0.035715967 -0.039354164 -0.012227877 0.02406688 0.05192639 0.013144724 0.011584416 -0.020845577
0.06107925 0.012899844 -0.0028228476 -0.055718303 0.01063625 0.04033335 -0.039594192 0.026517654
-0.0061534964 0.053723812 -0.05325279 -0.0076469956 0.023568869 -0.024115754 -0.025517598 -0.046995036
-0.035587113 0.004982806 0.029721579 0.05035116 0.02389985 -0.035876602 0.02753681 -0.026274841
-0.05373156 0.016493417 -0.04334697 -0.047967583 -0.036285263 -0.024170803 0.03713867 0.035047475
-0.016518727 0.058143437 -0.043927565 0.0076641883 -0.03506962 0.010190281 -0.032618284 0.024435883

fc3.weight f4 [128, 256]
00000000: 17d3 d8ba c777 143d ec64 3b3d b179 653d
00000010: aab1 553d 64f9 4cbd b66d 70bd 461e 473d
00000020: 304e f6bb 2709 62bd 6188 5c3d 98cf a43c
00000030: 3f08 433d 961e 3b3d 5a50 ceba 467a 053b
00000040: 7ebc ed3c 4832 0d3d 5071 81bd fc3c e0bb
00000050: 5a8a d9bc c581 7b3c f3cb e73c 3d06 1e3d
00000060: 2a23 3ebc 0662 4e3d 98b5 2d3c ab1e 86bd
00000070: 785b 60bc 0444 9dbc 4cc7 df3b 26e3 4bbd
00000080: 70e4 543d 1f4e 193d e082 d1bc 3340 cebc
00000090: 6baf 32bc c953 19bc ec1c 53bd 9498 d23c
000000a0: 4c87 733d 2581 04bd 1829 523d bc42 8bbc
000000b0: bb09 783b 5f1d 7b3d 84fd 49bd ac14 13bd
000000c0: 8341 5ebc 24cf 18bd 300e 4f3b e15a 073d
000000d0: fc7f 3f3d 500e 44bc 4648 27bc 9447 41bd
000000e0: 4af6 733d 1059 4f3c d0b6 5b3d bfd9 fb3c
000000f0: fc4b b93c 603d d8bb c889 0d3c 3352 1f3c
00000100: 281c 9f3c 63d3 ffbc 1be8 2d3d 6253 2cbd
00000110: 3dc3 c4bb 4cd5 953c 1083 76bc b78c fb3c
00000120: 18d0 a43c e077 18bd 7c02 f63c 5689 36bd
00000130: fc5a 4e3d 31a5 e8bc bf6a 3cbc f1c7 1dbc
00000140: 7069 0abd c9a1 a13c 1a87 613d 2a73 33bc
00000150: 7322 683d 1e74 2fbd 7091 3bbd 8fdc cd3c
00000160: 9baf a63c e0eb 7b3c 01d1 303d 8e63 b73c
00000170: 436d 913c e332 34bb e76e 14bd 106f 4dbd
00000180: 44ff 26bc fc34 b03b 9a6f 2b3d dc19 3ebd
00000190: 86fb 403d 1a48 973b 114f 1c3d df79 abbc
000001a0: 18f2 613d e3c8 353c ea3f bf3b 0095 8b39
000001b0: 3c0b 4a3d 8636 683c 4aa9 3c3d 598f 0dbd
000001c0: 32f6 10bd 5fe8 5ebd 9e34 c7bc 70e6 21bd
000001d0: 1438 95bc 0395 803c 2a19 143c 6399 3ebd
000001e0: b425 13bc ac66 803c 411f 6fbd ed30 6a3d
000001f0: 528c 203d 6652 783d 5fee 9fbc b83f 433c
00000200: c232 67bd 4cf3 12bc db5d b13c 2d1f 51bb
00000210: f255 88bd b8c2 a03c f9d4 3ebc aa2b 423d
00000220: 12e4 49bc d39c 8ebc a9d0 993c ac7a 45bd
00000230: 9927 e3bc cab7 4ebd 2ee1 1e3d cc71 383d
00000240: 7c6f 42bd 07b2 36bd b880 f8bc c88f 68bd
00000250: 025f 34bd a317 cbbb 6a54 e23a d9a2 c93a
00000260: b8ca bf3b 003a 2db9 be9a df3b 93b3 013d
00000270: 8399 7e3c ef36 19bd d649 493c b999 7c3d
00000280: ed10 54bd 2c7a 443d a006 ce3c c8de 423d
00000290: 7532 123d fce5 0cbd c808 2ebc 9f0f e6bc
000002a0: bd5c 463d 12d9 3b3d b1f7 c53c 0504 703c
000002b0: 9dd6 5dbd 1931 34ba d096 56bd a747 61bd
000002c0: e708 d9bc 7938 413d b39a a0bb 0596 723d
000002d0: 625c dbbc e0f9 5ebd db41 2ebd 7c73 1dbc
000002e0: 727f 5c3b f5d7 593d 62bd 77bd cae9 2e3d
000002f0: 3ef6 103b e232 edbc 665b 653d 058e 67bd
00000300: 1559 87bc c73d 48bd 580d eb3c 162e 053c
00000310: d201 2dbd ce0f 1e3d c4a7 81bc 590e 31bd
00000320: 8ee4 26bd b7e7 d13c 289e 173d 490a 89bc
00000330: f37f 423c 3a10 323d 7e7d 34bd b3d5 363d
00000340: 9a91 a43c 240f 753b d08d 24bd 0da4 d83c
00000350: 472c 073d f01f 62bd ace3 0f3d 5889 23bd
00000360: 34e5 8bbb 392c 05bb 591f 383d 90c0 e93b
00000370: 199c 5cbd 1ee2 0fbd 8cb2 b4bc ff4c 2bbc
00000380: 0c34 6f3d 4a91 403d 6898 313d 3da3 59bd
00000390: 22e0 55bd ad0b cdbc 261e 563d 1db7 823d
000003a0: a144 02bd 8039 7fbd 94f4 7d3c a923 aabc
000003b0: e428 3fbc 75ef 64bc cc46 cdba cc3e 7fbd
000003c0: d8a9 4fbd 8456 493d cb7d fc3c 21f7 e8bc
000003d0: 7581 c1bc 0488 ba3c 6f40 cf3c 59a2 da3c
000003e0: 1a04 1bbd a11f 123d 886c 153d d9ea 13bd
000003f0: 0e50 b2bc 549b 5fbd 8602 56bd c0df bf3b
-0.0016542402 0.03624704 0.045750543 0.056024257 0.052171387 -0.050042525 -0.05869838 0.048612855
-0.007516645 -0.05518451 0.053841 0.02011852 0.047615286 0.045683466 -0.0015740499 0.002036707
0.029020544 0.03447178 -0.06320441 -0.0068432074 -0.026555229 0.015350764 0.028295493 0.038580168
-0.011605063 0.05038645 0.010602377 -0.06548818 -0.013693683 -0.019197471 0.006829178 -0.049777173
0.051975667 0.037428018 -0.025575101 -0.025177097 -0.010906081 -0.009358355 -0.051541254 0.02570752
0.0594552 -0.032349724 0.05130872 -0.016999595 0.0037847597 0.061307307 -0.049314037 -0.035908386
-0.013565424 -0.03730692 0.003159415 0.033045653 0.046752915 -0.011966303 -0.010210102 -0.047187403
0.05956105 0.0126555115 0.05364114 0.030743478 0.02261924 -0.0065991133 0.008638807 0.009724188
0.019422606 -0.031228727 0.04245768 -0.042071708 -0.0060047195 0.018290184 -0.015045896 0.030706747
0.020118758 -0.037223697 0.030030482 -0.044564568 0.05037974 -0.028399082 -0.01150006 -0.009630189
-0.03379196 0.019730465 0.055060484 -0.01095275 0.05667348 -0.042835347 -0.045792997 0.025129585
0.020347407 0.015376061 0.04316807 0.022386339 0.017752295 -0.002749615 -0.036238577 -0.050154746
-0.010192696 0.00537741 0.04185448 -0.04641138 0.04711487 0.0046167495 0.03816134 -0.020932136
0.05516252 0.011095258 0.0058364766 0.0002662316 0.04932712 0.014173156 0.046059884 -0.034560535
-0.03539104 -0.054420825 -0.024317082 -0.039526403 -0.018215217 0.015696054 0.009039203 -0.046533
-0.008981157 0.015673958 -0.058379415 0.057175566 0.03919632 0.060625456 -0.019522844 0.011917047
-0.05644489 -0.008969139 0.0216512 -0.0031909451 -0.06657018 0.0196241 -0.011647456 0.047404923
-0.012322443 -0.017408764 0.018776255 -0.048212692 -0.027728843 -0.050468244 0.038788967 0.0450304
-0.0474696 -0.044603374 -0.030334815 -0.056777745 -0.04403592 -0.006197886 0.0017267589 0.0015383615
0.0058530234 -0.00016520172 0.0068238666 0.031665396 0.01553953 -0.037405904 0.01228567 0.06167004
-0.051773954 0.047968075 0.025149643 0.047575742 0.03569265 -0.034399018 -0.010622211 -0.02808362
0.048428286 0.04586131 0.02416596 0.014649396 -0.05415975 -0.0006873771 -0.05238992 -0.054999974
-0.026493503 0.047172997 -0.004901254 0.0592251 -0.02677745 -0.054437518 -0.042543273 -0.009610053
0.00336453 0.05318447 -0.060483344 0.042703427 0.0022119428 -0.028954927 0.055995367 -0.056531925
-0.01652197 -0.04888704 0.028692886 0.0081286635 -0.042238064 0.03858929 -0.015827067 -0.043226574
-0.04074531 0.025623186 0.037016064 -0.016728537 0.011871326 0.043472506 -0.04406499 0.044637393
0.02008896 0.0037393058 -0.040174305 0.026445413 0.03300121 -0.05520624 0.035129234 -0.039925903
-0.0042692665 -0.0020320548 0.04495177 0.007133551 -0.053859804 -0.03512775 -0.022057794 -0.010455369
0.058399245 0.04701356 0.043358237 -0.05313419 -0.052215703 -0.025029982 0.052274846 0.06382582
-0.03180373 -0.062310696 0.0155002065 -0.020768957 -0.011667464 -0.013973107 -0.0015661358 -0.062315747
-0.050699085 0.049154773 0.030821702 -0.028438153 -0.0236213 0.022769935 0.025299279 0.026688742
-0.03784571 0.035674695 0.036480457 -0.03611264 -0.021766689 -0.05459149 -0.0522485 0.0058555305

fc3.bias f4 [128]
00000000: 7005 babc 4e26 20bd 6eb3 733d 5502 2fbd
00000010: 680b 7bbc 493f 183d e098 e2bb cff3 3ebd
00000020: 10d7 79bc be5b c2bc ed47 17ba 6487 12bb
00000030: b2ab 01bd 35b6 4c3d bbb6 7ebd 8752 bc3c
00000040: 9a68 af3c ed40 c03c d8df 7e3d 52b1 383b
00000050: 17f7 903c 4a35 89bc c283 3fbd 4cc0 0ebd
00000060: 45a8 2fbd 4047 d5bb 38c6 ca3a 9337 833c
00000070: 37b2 373d 1fac 01bd 5dbb e8bc 70ea 873c
00000080: 5968 4abd 363e ec3c 1485 113d 05b6 443d
00000090: 2589 0ebd 4397 4f3d dd44 4f3d 60d0 c93b
000000a0: cc14 033d 09df 47bc 7706 00bb b21a 4abd
000000b0: 184d f13c befa 7ebd 9c58 a53c 6461 823b
000000c0: 4e9a 71bd c027 263d bbcf 63bd 1784 3ebd
000000d0: 4985 933b 362f 013d 970b 123c 3886 613d
000000e0: 8cf7 d9ba e153 61bb fd56 3cbd c6f0 3dbd
000000f0: 80ec 743c 1ff3 823c 5c10 3abd 071f 54bd
00000100: bdb4 4b3d fa65 0c3d faca ca3c 7df0 d8bb
00000110: 1092 45bc 4fbe 0ebd c306 023d 95bb 813c
00000120: 29e0 10bd 4a5b b43c 7dd0 543d 4443 7a3b
00000130: 1f42 0bbc ffa7 353a 56d4 edbc 78d6 ee3c
00000140: 6e1e 813d fec5 193d 1503 dcbc 4478 843c
00000150: 400f 2ebd 2a7a 01bd 643b d73c 0761 6b3d
00000160: 2feb 27bd 0cf9 5abb f5b5 25bd 8b1a 63bd
00000170: f8c9 ce3c 8839 98bc 59d9 9ebc f23c 423d
00000180: b08e 1abc 41e1 a33c 3c85 b0bc 3cb1 b3bc
00000190: 2745 5ebd f2e3 203d aa7b 7b3d da81 85bc
000001a0: 2d7f edbc 1689 56bd 5404 973c d536 1d3d
000001b0: 5020 303d 5875 033c 989c 11bd 88e1 97bc
000001c0: b058 28bc d1fa 2d3b 53bb 1a3d 9559 e13c
000001d0: dac5 013d 5bef 0bbd 38c6 e4bc 0c10 373d
000001e0: 7b5a 423d 58c0 debc 2467 373a 823e 51ba
000001f0: 1f6f 3e3d 9f08 3c3d 0952 2bbd 12bf 0cbd
-0.02270767 -0.03909903 0.05949729 -0.042726833 -0.015322544 0.03716973 -0.006915197 -0.046619233
-0.015249029 -0.023725387 -0.00057709106 -0.002235853 -0.031657882 0.049978454 -0.062185984 0.02298857
0.021412183 0.023468459 0.062225193 0.0028181863 0.017695947 -0.016749043 -0.046756513 -0.034851357
-0.042885084 -0.006508738 0.0015470451 0.01601771 0.044847693 -0.031658288 -0.028409654 0.01659128
-0.04941592 0.028838258 0.035527304 0.04802515 -0.03479876 0.050681364 0.050602783 0.0061588734
0.032002255 -0.012199172 -0.0019535103 -0.049341865 0.029455706 -0.062250845 0.020183854 0.003978895
-0.058985047 0.040565252 -0.05561803 -0.04651269 0.004501973 0.031539164 0.008913896 0.05505964
-0.0016629561 -0.003438227 -0.045981396 -0.046372198 0.014948964 0.01598507 -0.045425758 -0.051787402
0.049732912 0.03427694 0.02475499 -0.0066204653 -0.01205875 -0.03484946 0.03174473 0.015836516
-0.035370026 0.022016186 0.051956642 0.0038187066 -0.008499651 0.00069296354 -0.029031914 0.029155001
0.06304632 0.037542336 -0.026856938 0.016170628 -0.042495012 -0.031610645 0.026273437 0.05746558
-0.040995773 -0.0033412604 -0.04045673 -0.055445235 0.02524279 -0.01858212 -0.019390749 0.047421403
-0.009433433 0.02000487 -0.021547906 -0.021935098 -0.054265168 0.039279886 0.061397232 -0.01629727
-0.028991306 -0.05237683 0.018434681 0.03838237 0.042999566 0.008023582 -0.03554973 -0.018540159
-0.010275051 0.0026547203 0.037776303 0.027508536 0.031682827 -0.034163814 -0.02792655 0.044693038
0.04744957 -0.027191326 0.0006996265 -0.00079820317 0.046492692 0.04590666 -0.04182628 -0.034361906

mean.weight f4 [7, 128]
00000000: 094a 073b e959 52bd bcb3 973d 3a36 69bd
00000010: 07c9 823d 5da9 3b3d 100f 9dbd 787c ad3d
00000020: 883a 2f3d f38b 5bbd f988 133d 7932 9c3d
00000030: c995 38bd 66df a0bd 091a 0f3d ecc8 233c
00000040: 76f6 53bc faeb b9bd 8e0a aabd 720c 71bd
00000050: a7f1 aabd 56fe 9cbd 8e88 aa3d 6d6f ad3c
00000060: 0a68 9d3d fb12 3cbc f6b9 7e3a 1737 d73c
00000070: e994 fd3c 1a35 f43c c96a 583b 6999 69bd
00000080: 9e4d b6bd 66f0 93bc 21f1 17bd ce57 a7bd
00000090: 6f1d 91bd 9173 93bd ec1b b93c e302 00bd
000000a0: 7361 39bc 7fd4 05bd ff21 373d e074 163b
000000b0: 96ad 3e3d cf73 b43c ea92 b4bd 4465 0f3b
000000c0: 7fef 453d 9c45 61bd 4622 cc3c 7371 ef3c
000000d0: 2d78 cebc 4688 443d cb0f 2a3d 07b5 9d3d
000000e0: cf0a 1a3d dbe2 f33c 839e 10bd d467 c4bc
000000f0: 66f2 9abd c96b 3bbb f241 413d c756 d03b
00000100: 6bcb 4a3d fe75 0d3d 053d 50bd 7149 00bd
00000110: 1245 f1bc ce8c 6cbd 84d2 99bd 28c4 83bd
00000120: 7397 a2bd 142e 29bd 1268 af3d 9927 57bc
00000130: 8091 c33c cf0a 513b 4d35 aa3d f75c 8b3d
00000140: 3521 a8bd 9a18 0ebd 5764 8fbd 1273 f6bc
00000150: 801f a63d 8dec 763d f182 90bd 3c7f a6bd
00000160: c400 d9bb 4df9 40bd 933f 963d 08d0 893d
00000170: 9878 de3c 0ed8 22bd 6683 8abc 6c2b 953d
00000180: 04f9 97bd 2f1a 893d 2173 94bd 537d a6bc
00000190: fb77 bc3b 787d 203c 563c a93d 3da2 a23d
000001a0: ec35 0c3c e0e1 5a3d 8551 40bd a688 a1bd
000001b0: c690 f03c d97f 10bd 3d03 863d 8449 f33c
000001c0: eab6 7dbd a442 47bd 6c49 293c bb64 33bd
000001d0: 5a15 6c3c 10c2 ae3c 5bfa 5dbd 71d8 a23d
000001e0: 5509 0f3c eefe 62bd 066c 2b3d 6511 713c
000001f0: c85e 6abd 556f 93bd 4b51 edbc 867c 6fbd
00000200: 4c64 3a3d 5f91 8e3c 95cf a0bc 42a8 24bc
00000210: 6150 a43d c9f5 1abd 9e75 613d b451 983d
00000220: 8de1 af3d 751c afbd 564f 60bd d690 a13c
00000230: c398 5bbd 361d 623d 239b 9fbd 85c1 80bd
00000240: e559 85bd 8c99 de3c e288 2e3d 890f 5dbd
00000250: 863b 80bd d962 a4bc 8e6b 663d 03c5 47bd
00000260: 1cab 40bd 8979 c3bb b072 7cbd 9e4a b63a
00000270: 9198 623d 4835 42bd 602a 22bc 738f 68bd
00000280: 6016 77bc 7241 1e3d d441 213d cf40 99bd
00000290: 9c8d d2bc 355b 6bbd de6a 9dbc c8f4 6ebc
000002a0: f0fd dbbb 0424 a83d 053c 113d 4255 7b3d
000002b0: 18dd 38bc 67c3 42bd 5f14 93bc 64ba 46bd
000002c0: 56a6 f93c d9e2 133d 28ed 50bd 9cea 0b3c
000002d0: e228 483c 9033 babb 02dc cf3b ea26 a8bd
000002e0: d068 debc 287b 7ebd 06b7 4fbc 8e5f 18bd
000002f0: 608a 8a3d 41ee b33c e368 903d d643 7abd
00000300: bc8a 7fbd 0c8a b1bd f68a 413d 85fe b33d
00000310: e748 a43d f6e4 903d 5194 a6bc 89c5 20bd
00000320: dc45 4fbd 0679 60bd b230 35bd 74e8 45bd
00000330: 12fc f03c 681a 813d 0170 7b3d a474 28bd
00000340: 294a a5bd c44a 34bc 3ca1 1a3d 573a 593d
00000350: b47b 86bd 2805 fb3c 64e2 32bb 0314 da3c
00000360: 6180 673d 0b05 5a3d 0823 6fbd 77b0 7abd
00000370: 1785 a13d 4051 e23b f3fb ebbb b894 363d
00000380: 0e3a b5bc e342 8c3d 5d3e 8e3d de9f 12bd
00000390: 5344 633d ffbe ac3d f4f8 aa3d 01ae 643c
000003a0: 2c70 693d 8fbc 89bd 77bf 973d c6cd 9f3d
000003b0: 3089 8e3d 24e9 8fbc 5012 92bd 1054 433c
000003c0: 686c f13c f40d c7bc 65cc 49bd 22e4 0bbb
000003d0: 3038 af3b 87c6 31bd 27e3 16bd a4cc 8a3d
000003e0: 14a0 183c 50e4 063c cbcc b0bc 3207 b5bd
000003f0: 4d62 643d fe09 a83d e021 4cbd 3090 803c
0.0020643494 -0.051355276 0.074073285 -0.05693648 0.06385999 0.045815814 -0.076688886 0.08471006
0.04278043 -0.053600263 0.0360193 0.076268144 -0.04506472 -0.0785511 0.03493694 0.009996634
-0.012937179 -0.09078212 -0.083027944 -0.05884976 -0.08346873 -0.07665698 0.08326827 0.021171296
0.076858595 -0.011479135 0.00097170414 0.026271386 0.030954795 0.029810477 0.0033022633 -0.05703107
-0.08901523 -0.018058967 -0.037095193 -0.08171044 -0.07085692 -0.07199777 0.022596322 -0.031252753
-0.011314738 -0.032673355 0.044710156 0.0022957847 0.046552263 0.022027878 -0.08817084 0.0021880427
0.048324104 -0.054998025 0.024918687 0.029228901 -0.025203789 0.047981523 0.041518968 0.07700544
0.037607964 0.029771259 -0.03530742 -0.02397529 -0.07565765 -0.002859818 0.04718203 0.006358001
0.0495104 0.034536354 -0.050839443 -0.03132004 -0.02945188 -0.05775147 -0.07510856 -0.06433898
-0.07939043 -0.04130371 0.08564772 -0.013131999 0.02387309 0.0031897312 0.083109476 0.06804841
-0.08209459 -0.03469143 -0.0700156 -0.030084167 0.08111477 0.060284186 -0.07056225 -0.08129737
-0.0066224057 -0.04711275 0.073363446 0.06729132 0.027157113 -0.039756827 -0.016908359 0.07283673
-0.07420543 0.06694447 -0.072485216 -0.020323431 0.0057516075 0.009795539 0.08263461 0.07941101
0.008557778 0.053438067 -0.046952743 -0.07887392 0.029365908 -0.035278175 0.065435864 0.02969814
-0.06194202 -0.048647538 0.010332447 -0.043797236 0.0144093875 0.02133277 -0.054193836 0.07951439
0.008730252 -0.0554189 0.041851066 0.01471362 -0.057219297 -0.07198969 -0.028969428 -0.058468364
0.045505807 0.017403303 -0.019630233 -0.010049881 0.080231436 -0.037832055 0.05504381 0.07437459
0.08587942 -0.085503496 -0.05476316 0.019722383 -0.05361248 0.05520364 -0.07793262 -0.06286911
-0.06511287 0.027172826 0.04261101 -0.053969894 -0.06261353 -0.020066665 0.056254916 -0.04877187
-0.047038183 -0.005965416 -0.061632812 0.0013907736 0.05532128 -0.047414094 -0.009897798 -0.05677743
-0.015081018 0.038636632 0.03936942 -0.074830644 -0.02570229 -0.05746003 -0.019215997 -0.014584728
-0.0067136213 0.082099944 0.03545763 0.061360605 -0.011283182 -0.04754963 -0.01795405 -0.0485176
0.030474823 0.03610501 -0.05100742 0.008539822 0.0122167785 -0.0056824163 0.0063433656 -0.08210547
-0.027149588 -0.06212917 -0.0126779135 -0.037200503 0.06764674 0.021964194 0.070512556 -0.06109985
-0.062388167 -0.086689085 0.047251664 0.0878878 0.080217175 0.07074921 -0.020334395 -0.039250884
-0.050603732 -0.054802917 -0.044235893 -0.048317388 0.029417071 0.06303865 0.061386112 -0.041126862
-0.080707856 -0.011004154 0.03775142 0.053034153 -0.06566563 0.030642107 -0.0027295584 0.02662087
0.056518916 0.053227466 -0.058383018 -0.061203446 0.07886713 0.0069066584 -0.0072016655 0.044575423
-0.02212241 0.06848695 0.069454886 -0.035796992 0.05548508 0.08434867 0.08348265 0.013957501
0.05699174 -0.06725418 0.07409566 0.0780292 0.0695976 -0.017567225 -0.07132399 0.0119218975
0.029470637 -0.024298646 -0.04926719 -0.0021345695 0.0053472742 -0.04340222 -0.036837723 0.06777313
0.009315509 0.008233145 -0.021582028 -0.08839263 0.05575781 0.08205031 -0.049836993 0.015693754

mean.bias f4 [7]
00000000: 2ed6 223c 0c94 b0bc a0c1 adbc 2618 bcbc
00000010: e3a1 713c 7242 87bd 3c3b d9bb
0.00993876 -0.02155497 -0.021210492 -0.022960734 0.014748069 -0.0660447 -0.0066293757
