kinova-ros/kinova_scripts/src/best_model_episode_100/actor_{current_time}.pth (torch, 156232 bytes, 7 tensors)

log_std f4 [7]
-2.6037655 -2.5433764 -2.440174 -2.5996225 -2.4029193 -2.6251328 -2.4818988
00000000: 18a4 26c0 aec6 22c0 d02b 1cc0 3760 26c0
00000010: 6ec9 19c0 2d02 28c0 6ed7 1ec0

fc1.weight f4 [256, 17]
0.12496969 -0.10704994 -0.04701832 0.11383867 -0.22833198 0.1454528 -0.04989572 0.1233885
0.03371656 -0.029697075 0.06726989 0.011964709 0.08858085 -0.09451638 -0.01768297 -0.021834835
0.035154074 -0.0009688884 0.21201658 0.07547468 -0.09032178 -0.14648214 -0.040652767 -0.10461548
-0.07772018 0.011612982 0.14458221 0.131827 -0.2370909 0.1503528 0.0677557 0.23005849
0.160088 -0.22098334 -0.15786327 -0.35034302 -0.017265616 -0.26829302 -0.12476358 -0.34061995
0.19669603 -0.122135065 0.013346817 0.019439086 -0.100612745 0.24915686 -0.28110346 -0.15615766
-0.03507677 -0.32103533 -0.46024054 -0.17069101 0.030136116 -0.1836375 0.12972464 0.077161595
-0.11974882 -0.07978605 0.09266156 0.14005421 -0.20551573 0.06258369 0.19120343 0.2870964
-0.2345368 -0.05056346 -0.08643476 -0.03415968 -0.13508455 -0.308533 -0.012250221 -0.17653744
-0.024029955 -0.10807301 0.21342254 -0.24964249 0.4013717 0.43353269 -0.1950725 0.42962834
-0.2511272 -0.31078076 0.322237 -0.2170455 0.24161428 -0.22036542 -0.3528661 0.0073772348
-0.19145362 -0.018721063 -0.07372865 -0.07517694 -0.04892025 0.15705651 -0.14763178 -0.16188176
0.09228576 0.058092333 -0.26325506 -0.044705186 0.11289268 -0.053256925 -0.05014467 -0.08147429
-0.3445025 -0.3936964 0.045485537 -0.17474836 0.15325826 -0.028432738 0.09473583 0.032874916
0.27622637 -0.08419509 0.17430076 -0.0069059352 0.2631778 -0.03393569 -0.13743871 -0.25396243
-0.22504158 -0.05852217 0.15618749 -0.23663253 0.044542197 -0.088299625 -0.23732853 0.03209621
0.11212898 0.21220002 -0.16865492 0.08500527 0.117281 0.1749538 0.0844148 0.12171234
0.13539407 0.044633772 -0.18386437 -0.22168499 -0.12914877 -0.04625601 -0.13064882 0.07072905
0.093073264 -0.036905386 0.111202426 0.06037036 0.13006507 0.14532052 -0.0641238 0.21895583
-0.010034275 -0.0083325505 -0.22892454 -0.15609986 -0.14169016 -0.10373804 0.17243543 -0.07925604
-0.18124232 0.09331554 0.077652514 0.15708804 -0.12550542 0.052585363 -0.08829525 -0.054491624
-0.1932811 -0.11053826 0.06478844 -0.15928268 -0.22519562 -0.21955977 -0.053328086 -0.039189044
0.18237723 -0.099006556 -0.17268531 0.27831063 -0.08680285 0.30273598 -0.4272764 -0.2960182
-0.059164383 -0.29032272 -0.37509266 -0.18905233 -0.008235604 -0.13114277 0.08678207 -0.093358174
-0.113915965 0.013736635 0.17557102 -0.17060532 0.11389625 0.15581492 0.23724768 -0.16975817
0.058739662 -0.17933735 0.20706484 -0.094081104 0.103254646 -0.034669932 -0.07170183 -0.056976527
-0.005828202 0.065958984 0.0482785 0.10055119 -0.17085153 0.11368429 0.16277802 0.21847816
0.24709447 -0.23095948 -0.11161604 0.18366441 -0.271246 0.22003347 -0.19075331 -0.17084417
0.11857033 -0.17425919 -0.05556509 0.17644268 0.19210976 0.22937945 -0.049214706 -0.18851343
0.23880321 -0.05166644 -0.09978767 0.059123844 -0.1696111 0.15941387 0.10627245 -0.23737952
-0.25297675 -0.07222326 0.052643042 -0.05731148 -0.10979874 0.0335209 -0.17852585 -0.23877828
-0.21428129 0.21772966 0.28572518 -0.13849933 -0.011444175 0.07374728 -0.058947198 -0.24919531
00000000: 1cf0 ff3d 003d dbbd 4896 40bd 4024 e93d
00000010: dccf 69be 94f1 143e 745f 4cbd 1cb3 fc3d
00000020: 601a 0a3d 4847 f3bc ccc4 893d a007 443c
00000030: e069 b53d ce91 c1bd e0db 90bc f8de b2bc
00000040: b8fd 0f3d 00fd 7dba e01a 593e 7892 9a3d
00000050: a0fa b8bd 6aff 15be 8483 26bd a440 d6bd
00000060: c22b 9fbd 6044 3e3c 5c0d 143e a8fd 063e
00000070: f5c7 72be 16f6 193e 80c3 8a3d 7494 6b3e
00000080: 1cee 233e 7549 62be e9a6 21be 2960 b3be
00000090: 9f70 8dbc b45d 89be 0c84 ffbd bd65 aebe
000000a0: af6a 493e f321 fabd 9cac 5a3c b83e 9f3c
000000b0: 0e0e cebd fa22 7f3e cbec 8fbe cbe7 1fbe
000000c0: a9ac 0fbd be5e a4be a6a4 ebbe a0c9 2ebe
000000d0: 04e0 f63c 780b 3cbe 89d6 043e e606 9e3d
000000e0: df3e f5bd de66 a3bd 58c5 bd3d 5f6a 0f3e
000000f0: b772 52be e12b 803d d5ca 433e 4dfe 923e
00000100: 6a2a 70be a11b 4fbd b504 b1bd 05eb 0bbd
00000110: 9b53 0abe 0af8 9dbe 27b5 48bc 3bc6 34be
00000120: 78da c4bc 6255 ddbd 708b 5a3e 48a2 7fbe
00000130: 9780 cd3e fff7 dd3e 16c1 47be 3ff8 db3e
00000140: bf93 80be a81e 9fbe 40fc a43e 2d41 5ebe
00000150: bc69 773e 79a7 61be deaa b4be bbbc f13b
00000160: 6b0c 44be ea5c 99bc 0cff 96bd 5ef6 99bd
00000170: 9a60 48bd 6cd3 203e c92c 17be 55c4 25be
00000180: 5100 bd3d 3af2 6d3d 5ec9 86be c91c 37bd
00000190: 4734 e73d ef23 5abd 7f64 4dbd fedb a6bd
000001a0: a262 b0be 9392 c9be 0b4f 3a3d 3cf1 32be
000001b0: bcef 1c3e c6eb e8bc dc04 c23d d9a7 063d
000001c0: 8b6d 8d3e 7a6e acbd e67b 323e 2f4b e2bb
000001d0: 3ebf 863e 2600 0bbd bcbc 0cbe 5d07 82be
000001e0: 4d71 66be f1b4 6fbd 9def 1f3e cc4f 72be
000001f0: e171 363d 6fd6 b4bd 4006 73be 5177 033d
00000200: e1a3 e53d f64a 593e e0b3 2cbe 3e17 ae3d
00000210: 0531 f03d 1727 333e abe1 ac3d 5244 f93d
00000220: bea4 0a3e e7d1 363d f146 3cbe 6401 63be
00000230: 933f 04be f176 3dbd cec8 05be 64da 903d
00000240: 329d be3d 1a2a 17bd 19be e33d e946 773d
00000250: c72f 053e e7ce 143e 5753 83bd f535 603e
00000260: cd66 24bc 4085 08bc 326b 6abe a4d8 1fbe
00000270: 3a17 11be 9c74 d4bd ea92 303e fe50 a2bd
00000280: 9697 39be 381c bf3d 4808 9f3d b0db 203e
00000290: 7e84 00be c063 573d 24d4 b4bd 9c32 5fbd
000002a0: 7beb 45be e261 e2bd cdaf 843d 001b 23be
000002b0: ae99 66be 47d4 60be 8d6e 5abd b184 20bd
000002c0: 19c1 3a3e f3c3 cabd 6bd4 30be bb7e 8e3e
000002d0: b1c5 b1bd 3600 9b3e f9c3 dabe b38f 97be
000002e0: 5a56 72bd 2ea5 94be 250c c0be ef96 41be
000002f0: a0ee 06bc 4a4a 06be ccba b13d 9232 bfbd
00000300: c64c e9bd a00f 613c e4c8 333e 29b3 2ebe
00000310: 7042 e93d f28d 1f3e 0ef1 723e 16d5 2dbe
00000320: 0099 703d 36a4 37be ce08 543e 98ad c0bd
00000330: 2c77 d33d 0f02 0ebd 69d8 92bd 3860 69bd
00000340: 80fa bebb 8115 873d adbf 453d c8ed cd3d
00000350: b4f3 2ebe 4fd3 e83d 48af 263e bdb8 5f3e
00000360: 5506 7d3e a480 6cbe f396 e4bd 8612 3c3e
00000370: c1e0 8abe 7450 613e d654 43be c6f1 2ebe
00000380: 00d5 f23d 0071 32be 3898 63bd 64ad 343e
00000390: 6cb8 443e 72e2 6a3e 5c95 49bd aa09 41be
000003a0: d488 743e 30a0 53bd 7a5d ccbd d82b 723d
000003b0: 88ae 2dbe 643d 233e 5fa5 d93d 9e13 73be
000003c0: 2b86 81be cae9 93bd 3ba0 573d 71bf 6abd
000003d0: 29de e0bd 364d 093d 7bcf 36be 4b82 74be
000003e0: 8e6c 5bbe 86f4 5e3e 924a 923e c5d2 0dbe
000003f0: 5980 3bbc d008 973d 9e72 71bd 0e2d 7fbe

fc1.bias f4 [256]
0.1369541 -0.0065503567 -0.15043262 -0.16910075 -0.29182115 0.023992628 -0.22729732 0.1031659
-0.084392086 -0.051347703 -0.33075497 -0.13927102 0.0054934765 0.061108023 -0.14209133 -0.3044363
0.19158402 -0.105449386 -0.047418702 -0.14129561 0.173302 0.19987029 -0.04003573 0.15508722
0.06327839 0.15480678 -0.17011887 -0.12571028 -0.13172027 -0.12244756 0.06976761 -0.187936
0.08256379 0.13245934 -0.1824173 0.11159252 -0.3113665 0.05212814 0.14655036 -0.1464624
-0.003073752 0.18785983 -0.28704306 -0.18780681 -0.34106302 0.035375945 0.16376773 -0.25400954
-0.13223548 -0.2336526 0.041216496 -0.2089532 -0.053867675 -0.15597238 -0.16446376 0.047639843
-0.11649621 -0.08849156 -0.21470279 -0.26571965 0.15924257 -0.27252996 0.05251202 0.14437771
-0.05991468 -0.26285502 -0.117178835 -0.12808411 -0.02593197 -0.08513538 -0.021439698 -0.21740668
0.12261814 -0.03827937 -0.20915921 -0.087789536 0.0039361715 0.1936139 0.23576751 -0.09101857
-0.41051364 0.13431865 0.19650769 0.1405457 -0.35881594 -0.053717475 0.054847926 0.072636664
-0.16722685 -0.15598553 -0.09570181 -0.04681423 -0.28296757 0.082302645 0.06820959 0.058806658
-0.16633596 -0.1152703 0.042346455 -0.18410684 -0.05691183 -0.05077085 0.014915515 0.2031861
-0.29224476 -0.3159189 -0.09488119 -0.24683703 0.057194486 0.02497558 -0.23094931 -0.17116015
-0.21828428 0.079437226 0.061040223 -0.2780661 -0.15044957 0.13745204 0.017157473 -0.21918742
-0.13499328 -0.009846512 -0.31176367 0.036248565 -0.05318804 -0.17748472 0.07539763 -0.15840594
-0.15141979 -0.058077823 -0.35176572 0.01971975 -0.15114942 -0.06755129 -0.27678242 -0.07758953
0.062770665 0.07327926 0.03300833 -0.1690339 -0.12419802 -0.40150508 -0.079399556 0.008456618
-0.21859244 -0.22678557 0.06459075 -0.21261352 0.08782486 -0.11649589 -0.11426514 -0.043989763
-0.23083976 0.004401591 0.027701944 0.08188938 0.19637024 -0.24383932 0.06651211 -0.15157524
0.07781443 -0.11948072 -0.28404057 -0.45386827 -0.0021539063 -0.3312901 -0.48245704 0.17436543
-0.18511553 -0.29910827 -0.39855465 0.068844505 -0.25936684 -0.073062226 -0.15362692 -0.16913933
0.020186849 0.242473 0.12716517 -0.08716618 0.021722853 -0.36422807 -0.07182799 0.023241011
-0.25860357 0.13289073 -0.2939776 -0.22101688 -0.051697075 0.22811118 0.09459455 -0.21947125
-0.22260125 0.049743365 -0.20141354 0.089406446 0.24191242 -0.0023670942 0.15803842 -0.19734362
0.18809566 0.015395886 0.1489004 -0.08499808 0.12973632 -0.15108216 -0.16163552 0.033377517
-0.044417407 -0.11569959 -0.013763005 0.039379627 -0.19279525 -0.1714888 -0.25686097 -0.11826575
0.082940176 -0.33064333 -0.3800464 -0.25455868 0.046572722 -0.2401459 -0.091161 -0.025624081
-0.14702614 -0.14960498 -0.06263615 -0.1499371 0.17485355 0.111472346 0.04103273 -0.26552966
-0.28645408 0.08181474 -0.15136558 -0.27643666 0.10706835 -0.01908469 0.17768323 0.030993562
-0.10850539 -0.51453096 -0.15689051 0.0017266232 -0.10293731 -0.08697218 0.02033921 -0.057947654
-0.045972377 -0.41001236 -0.044336572 -0.11330164 0.026315017 0.043970287 0.10388103 0.19106671
00000000: b23d 0c3e 60a4 d6bb 020b 1abe bf28 2dbe
00000010: 9569 95be 308c c43c a1c0 68be a548 d33d
00000020: c2d5 acbd f851 52bd b758 a9be 109d 0ebe
00000030: 9f02 b43b 684c 7a3d 6480 11be 13df 9bbe
00000040: 9a2e 443e d9f5 d7bd 1d3a 42bd ccaf 10be
00000050: 1476 313e ccaa 4c3e 81fc 23bd 2fcf 1e3e
00000060: 1a98 813d ab85 1e3e a433 2ebe 32ba 00be
00000070: aee1 06be c9c5 fabd 52e2 8e3d 4b72 40be
00000080: 3417 a93d 6ca3 073e 9acb 3abe 9e8a e43d
00000090: 6e6b 9fbe 5184 553d 4c11 163e 3dfa 15be
000000a0: 0071 49bb 545e 403e 4ff7 92be 6e50 40be
000000b0: d09f aebe 5ee6 103d bab2 273e 8a0d 82be
000000c0: bd68 07be a142 6fbe a1d2 283d d4f7 55be
000000d0: 5aa4 5cbd 39b7 1fbe 3069 28be ff21 433d
000000e0: 9195 eebd 103b b5bd 0cdb 5bbe 680c 88be
000000f0: 7c10 233e 0c89 8bbe d816 573d c0d7 133e
00000100: 1869 75bd ef94 86be 75fb efbd 7b28 03be
00000110: 486f d4bc 755b aebd 4ea2 afbc db9f 5ebe
00000120: 381f fb3d d4ca 1cbd d52d 56be 00cb b3bd
00000130: 00fb 803b b942 463e 0a6d 713e f267 babd
00000140: d82e d2be d48a 093e 5039 493e 36eb 0f3e
00000150: b9b6 b7be db06 5cbd 38a8 603d 88c2 943d
00000160: 843d 2bbe acba 1fbe 50ff c3bd 47c0 3fbd
00000170: 20e1 90be 4a8e a83d 78b1 8b3d 40df 703d
00000180: f953 2abe d612 ecbd 7a73 2d3d 8186 3cbe
00000190: 611c 69bd 18f5 4fbd 3460 743c 0410 503e
000001a0: 1ba1 95be 1fc0 a1be 1251 c2bd d9c2 7cbe
000001b0: c444 6a3d 9699 cc3c fa7d 6cbe 9b44 2fbe
000001c0: ea85 5fbe fcaf a23d 5005 7a3d ae5e 8ebe
000001d0: 740f 1abe 3ac0 0c3e d48d 8c3c ab72 60be
000001e0: ae3b 0abe 4453 21bc 7d9f 9fbe 6079 143d
000001f0: b4db 59bd 8ebe 35be 136a 9a3d 2b35 22be
00000200: ca0d 1bbe 03e3 6dbd a31a b4be 508b a13c
00000210: eac6 1abe 5558 8abd 6db6 8dbe 42e7 9ebd
00000220: e88d 803d 7013 963d be33 073d 3917 2dbe
00000230: 885b febd 1392 cdbe 3c9c a2bd a08d 0a3c
00000240: b2d6 5fbe 7a3a 68be 2848 843d 5cb7 59be
00000250: 85dd b33d 6695 eebd d703 eabd 9c2e 34bd
00000260: 4261 6cbe 393b 903b 30ef e23c 9fb5 a73d
00000270: 4815 493e 04b1 79be 8037 883d 8a36 1bbe
00000280: 2c5d 9f3d 4fb2 f4bd c46d 91be 6c61 e8be
00000290: 8d28 0dbb db9e a9be 9c04 f7be da8c 323e
000002a0: ed8e 3dbe b824 99be 5b0f ccbe 59fe 8c3d
000002b0: bbcb 84be a6a1 95bd 6050 1dbe dc32 2dbe
000002c0: e45e a53c d84a 783e 9637 023e 2f84 b2bd
000002d0: 20f4 b13c 1a7c babe 8e1a 93bd ef63 be3c
000002e0: b067 84be 8214 083e 3b84 96be 4052 62be
000002f0: 50c0 53bd fa95 693e caba c13d 12bd 60be
00000300: 95f1 63be b3bf 4b3d 5a3f 4ebe ba1a b73d
00000310: e4b7 773e 4021 1bbb d3d4 213e 7214 4abe
00000320: 269c 403e 073f 7c3c 5979 183e 7913 aebd
00000330: 99d9 043e 48b5 1abe c883 25be ddb6 083d
00000340: 07ef 35bd e8f3 ecbd 3a7e 61bc 884c 213d
00000350: 1e6c 45be c39a 2fbe 4883 83be 5035 f2bd
00000360: 8adc a93d 154a a9be 7195 c2be 8455 82be
00000370: 0ac3 3e3d cfe8 75be 9eb2 babd 98e9 d1bc
00000380: 058e 16be 0c32 19be 6247 80bd 1c89 19be
00000390: cf0c 333e 9d4b e43d f011 283d 81f3 87be
000003a0: 1caa 92be 7d8e a73d 94ff 1abe 1b89 8dbe
000003b0: a746 db3d 7f57 9cbc 98f2 353e 36e6 fd3c
000003c0: 1338 debd 4db8 03bf e8a7 20be dc4f e23a
000003d0: ccd0 d2bd 781e b2bd 6a9e a63c 855a 6dbd
000003e0: 884d 3cbd 24ed d1be 449a 35bd b10a e8bd
000003f0: 9792 d73c 301a 343d 94bf d43d fea6 433e

fc2.weight f4 [128, 256]
0.033264607 0.030394204 -0.012991275 0.0051138885 0.04595071 0.041572034 -0.10779597 -0.09622985
0.06239488 0.05985702 -0.074703574 0.024025053 0.053100415 -0.05059468 -0.014053457 -0.020046424
-0.010770537 -0.009431093 0.032402776 0.013653874 0.05820565 0.054645695 -0.07119065 0.021177683
-0.03759635 -0.034712426 -0.07719749 -0.048932247 -0.0010064639 0.0304965 0.01999065 -0.016420325
-0.004991621 -0.016660295 -0.0064989296 0.018814238 -0.03355174 -0.11453728 0.043731336 0.0051921904
-0.061837785 -0.0612323 0.009166211 0.006236203 0.01362886 0.00438074 -0.04983495 -0.05150725
0.00375755 0.014700174 0.07397802 0.046506062 -0.035212856 0.05737754 -0.037828855 0.005142987
-0.060211185 0.0025955127 -0.066146314 -0.012541103 -0.012393527 0.024790332 0.048369333 0.008682266
-0.008020148 -0.09802543 -0.01673855 0.019922195 0.012439422 -0.04306125 -0.105333954 -0.03707709
0.036604032 -0.003246516 -0.062001035 -0.057145283 -0.028988548 -0.03831374 0.04685636 0.04725776
-0.05987139 -0.013572207 0.011153847 -0.024272531 -0.0785281 -0.021656252 -0.020169161 0.038573332
-0.0025502294 0.010170612 0.03251762 0.038086288 -0.004348313 -0.01288932 0.036256127 -0.03366884
-0.004131712 -0.033940878 0.013633628 -0.011205018 0.030933358 -0.0012816677 -0.09808533 -0.015018918
-0.050145876 -0.04178076 0.01003252 -0.04836711 -0.044308655 -0.0404381 0.04145477 -0.010520086
0.03457611 0.027461596 0.054745823 -0.055984773 -0.0070942934 -0.1358134 0.05210536 0.0049172565
0.03905044 -0.1310738 0.008288289 0.052424304 -0.08028816 0.017546415 -0.012081145 0.03407354
0.057976298 -0.013240776 -0.090082414 0.017944224 -0.009420902 -0.08634003 -0.10941746 0.051017463
-0.0337456 0.054269716 -0.04364465 0.010156011 -0.09840743 -0.0094676865 0.060143746 0.052844778
-0.031730838 0.00066000386 -0.0397257 -0.010342613 0.032021713 0.042915814 -0.011821877 0.015703015
-0.04355488 0.0014008507 -0.07319526 0.032695442 0.007855609 -0.03383536 -0.029802805 -0.023681328
0.036407404 -0.05075417 -0.037292082 -0.00663791 0.062390674 0.057932448 -0.02091812 0.002590835
-0.056803152 0.031517826 -0.052691344 -0.043682404 -0.06660228 -0.0478473 0.013250925 0.056506004
-0.046529822 -0.025340162 -0.019475594 -0.09376515 0.028028965 0.015096824 -0.044370577 0.062816
0.021417625 -0.05488926 0.018049711 -0.0042805076 -0.10721747 0.030538976 -0.06087828 -0.009973732
0.07804584 0.012359551 0.04033619 -0.016090598 -0.036455423 0.02050601 -0.017235138 0.045783408
0.055022895 0.008526191 -0.02658151 -0.0375564 0.022549305 0.008074425 -0.112757385 -0.058302466
-0.066523015 -0.08832373 0.02505387 -0.056942645 0.032578602 -0.07882854 0.023082688 -0.082250275
-0.03742508 -0.036498383 -0.08497196 0.045008644 0.0043399706 -0.024106298 0.039499648 0.041802347
0.012705113 0.059661444 -0.009349257 -0.0005250573 -0.10573386 -0.010164862 0.014816945 0.0035040122
0.0035693985 -0.045173768 -0.03227903 -0.0045106774 0.03134452 -0.07405496 -0.040558264 -0.043656427
-0.016573662 -0.03321157 -0.010811579 -0.0028746782 -0.036109127 0.059801087 -0.01071495 -0.054420717
-0.060161494 -0.092000216 0.013631396 -0.016893672 -0.064465664 0.030488722 -0.029438898 0.058485568
00000000: 7840 083d 44fd f83c 5bd9 54bc 6892 a73b
00000010: d036 3c3d 7047 2a3d 22c4 dcbd 2814 c5bd
00000020: c691 7f3d a22c 753d 30fe 98bd 30d0 c43c
00000030: d27f 593d 5e3c 4fbd 7940 66bc 6638 a4bc
00000040: e876 30bc df84 1abc c6b8 043d 80b4 5f3c
00000050: 0c69 6e3d 2ad4 5f3d 67cc 91bd d27c ad3c
00000060: a1fe 19bd 9e2e 0ebd b819 9ebd 2e6d 48bd
00000070: 53eb 83ba ccd3 f93c 6ec3 a33c eb83 86bc
00000080: c090 a3bb 2c7b 88bc f9f4 d4bb 5120 9a3c
00000090: 8d6d 09bd 8592 eabd a11f 333d 4023 aa3b
000000a0: 9e49 7dbd b8ce 7abd e02d 163c 1059 cc3b
000000b0: 954b 5f3c 508c 8f3b bc1f 4cbd 44f9 52bd
000000c0: 3a41 763b 00d9 703c ca81 973d 247d 3e3d
000000d0: 5b3b 10bd b604 6b3d 6ef2 1abd 8086 a83b
000000e0: 01a0 76bd 7a19 2a3b b877 87bd 3379 4dbc
000000f0: 380e 4bbc 1815 cb3c ec1e 463d 1040 0e3c
00000100: f066 03bc 8fc1 c8bd 491f 89bc df33 a33c
00000110: b8ce 4b3c fe60 30bd 54b9 d7bd 26de 17bd
00000120: 1cee 153d 80c3 54bb ccf4 7dbd 2c11 6abd
00000130: 6479 edbc deee 1cbd 74ec 3f3d 5a91 413d
00000140: b43b 75bd f65d 5ebc a0be 363c 30d7 c6bc
00000150: 57d3 a0bd 7468 b1bc cc39 a5bc 12ff 1d3d
00000160: c021 27bb a3a2 263c 3231 053d 5e00 1c3d
00000170: 4b7c 8ebb ba2d 53bc 4e81 143d 56e8 09bd
00000180: 5063 87bb 9705 0bbd 955f 5f3c 4095 37bc
00000190: f467 fd3c a2fd a7ba f6e0 c8bd e811 76bc
000001a0: c365 4dbd 4d22 2bbd 705f 243c 971c 46bd
000001b0: fe7c 35bd 6ca2 25bd 7acc 293d 705c 2cbc
000001c0: ae9f 0d3d 24f7 e03c 283d 603d 4a50 65bd
000001d0: 3f77 e8bb ab12 0bbe 6e6c 553d f020 a13b
000001e0: 5bf3 1f3d 3638 06be 9bcb 073c deba 563d
000001f0: 1e6e a4bd 80bd 8f3c ffef 45bc b290 0b3d
00000200: 8e78 6d3d d7ef 58bc 217d b8bd c4ff 923c
00000210: 205a 1abc 0bd3 b0bd 4316 e0bd b0f7 503d
00000220: d438 0abd ec49 5e3d bcc4 32bd 6665 263c
00000230: d689 c9bd 5b1e 1bbc 4a59 763d c473 583d
00000240: 32f8 01bd 1c04 2d3a 6ab7 22bd 1074 29bc
00000250: 3329 033d 7ec8 2f3d 8cb0 41bc 9ca3 803c
00000260: 9a66 32bd c09c b73a 65e7 95bd a8eb 053d
00000270: d0b4 003c f296 0abd 0325 f4bc 58ff c1bc
00000280: ee1f 153d 9be3 4fbd 95bf 18bd d382 d9bb
00000290: 5d8d 7f3d 934a 6d3d 7a5c abbc 00cb 293b
000002a0: 6caa 68bd d618 013d e1d2 57bd 52ec 32bd
000002b0: c766 88bd 88fb 43bd 681a 593c d772 673d
000002c0: 0e96 3ebd 2c96 cfbc 488b 9fbc f107 c0bd
000002d0: 009d e53c ab58 773c ecbd 35bd ada5 803d
000002e0: 0474 af3c 90d3 60bd fddc 933c 8043 8cbb
000002f0: d594 dbbd e02c fa3c 815b 79bd dd68 23bc
00000300: 7fd6 9f3d b77f 4a3c 9037 253d 6ed0 83bc
00000310: 4852 15bd 38fc a73c b430 8dbc 6287 3b3d
00000320: b05f 613d 70b1 0b3c 78c1 d9bc bdd4 19bd
00000330: 52b9 b83c 984a 043c 58ed e6bd 91ce 6ebd
00000340: 383d 88bd 12e3 b4bd c63d cd3c b13c 69bd
00000350: 2471 053d dc70 a1bd e817 bd3c d572 a8bd
00000360: 0a4b 19bd 547f 15bd c705 aebd fc5a 383d
00000370: 5036 8e3b 927a c5bc 62ca 213d f038 2b3d
00000380: 1b29 503c 8f5f 743d a02d 19bc 00a4 09ba
00000390: fe8a d8bd 858a 26bc c6c2 723c 92a3 653b
000003a0: 92ec 693b 2108 39bd 0437 04bd 4ece 93bb
000003b0: 1d63 003d 20aa 97bd 6c20 26bd 15d1 32bd
000003c0: 7dc5 87bc db08 08bd 0d23 31bc 1965 3cbb
000003d0: 2ae7 13bd fcf1 743d c28d 2fbc 42e8 5ebd
000003e0: e66b 76bd 9c6a bcbd 3856 5f3c 9964 8abc
000003f0: 9306 84bd 7cc3 f93c d829 f1bc 908e 6f3d

fc2.bias f4 [128]
-0.0814999 -0.13845955 -0.0904251 -0.22820224 -0.08627501 -0.23633212 -0.11053516 -0.007885748
-0.22354488 -0.13839318 -0.08645169 -0.22473876 -0.09925551 -0.07243067 -0.054926395 -0.0010171619
-0.05708341 -0.08095235 -0.13517743 -0.16778101 -0.2656492 -0.1146203 -0.07601856 -0.026026063
-0.024506709 -0.0055087977 -0.24942729 -0.15165786 -0.23121333 -0.10150786 -0.054352995 -0.10384981
-0.09948757 -0.12871805 -0.19813696 -0.12907156 -0.11316466 -0.11858678 -0.14574069 -0.09560126
-0.0039257524 -0.081521705 -0.022202412 -0.13041021 -0.13336399 -0.02441766 -0.1997187 -0.05009759
-0.08558791 -0.22765248 -0.097640574 -0.102750614 -0.15734932 -0.18628179 -0.12448916 -0.10034344
-0.10105453 -0.20413218 -0.025123341 -0.19010401 -0.10627747 -0.14332671 -0.047143195 -0.0045930203
-0.08879827 -0.1769397 -0.16033016 -0.00082265167 -0.13204941 -0.2463773 -0.11670286 -0.14072952
-0.22871694 -0.067882225 -0.04069404 -0.20694564 -0.045334887 -0.0822015 -0.007484676 -0.17027445
-0.011283015 -0.007715825 -0.17288585 -0.10003081 -0.19215344 -0.15714166 -0.0653026 -0.2228848
-0.10648543 -0.16042523 -0.14312027 -0.056267012 -0.085810535 -0.20788454 -0.072420105 -0.0035953207
-0.082300946 -0.12929145 -0.1752493 -0.19711725 -0.19419658 -0.13946871 -0.1701843 -0.15673217
-0.13748781 -0.031228729 -0.18428972 -0.026352562 -0.18920416 -0.14832948 -0.015826672 -0.039858148
-0.23445557 -0.012884153 -0.07279532 -0.10704997 -0.15250184 -0.010079945 -0.07091523 -0.16412118
-0.075907476 -0.20303158 -0.18509836 -0.10089852 -0.11154359 -0.09734282 -0.11977127 -0.103658006
00000000: 6be9 a6bd 57c8 0dbe cb30 b9bd d9ad 69be
00000010: f4b0 b0bd 0c01 72be 4260 e2bd 3933 01bc
00000020: f3e8 64be f1b6 0dbe 950d b1bd eb21 66be
00000030: 7946 cbbd 8856 94bd 80fa 60bd 4a52 85ba
00000040: 4bd0 69bd 58ca a5bd f46b 0abe c9ce 2bbe
00000050: 2c03 88be 0cbe eabd 9eaf 9bbd 9c34 d5bc
00000060: 4bc2 c8bc 2583 b4bb de69 7fbe 334c 1bbe
00000070: 30c3 6cbe 5ae3 cfbd 3fa1 5ebd 36af d4bd
00000080: 24c0 cbbd aace 03be 6ae4 4abe 562b 04be
00000090: e0c2 e7bd a0dd f2bd 0c3d 15be 98ca c3bd
000000a0: 99a3 80bb daf4 a6bd d5e1 b5bc 418a 05be
000000b0: 9290 08be 8b07 c8bc 0f83 4cbe 2133 4dbd
000000c0: b748 afbd bb1d 69be c8f7 c7bd ea6e d2bd
000000d0: 2e20 21be a7c0 3ebe 2cf4 febd dd80 cdbd
000000e0: adf5 cebd 0708 51be 77cf cdbc a0aa 42be
000000f0: 01a8 d9bd 3dc4 12be 3919 41bd 0c81 96bb
00000100: dedb b5bd ae2f 35be 972d 24be 38a7 57ba
00000110: f637 07be 554a 7cbe e901 efbd 661b 10be
00000120: c634 6abe d605 8bbd cbae 26bd 8fe9 53be
00000130: 13b1 39bd 4359 a8bd 0342 f5bb 6d5c 2ebe
00000140: 65dc 38bc 08d5 fcbb fd08 31be f4dc ccbd
00000150: dfc3 44be bee9 20be 5fbd 85bd ea3b 64be
00000160: 0815 dabd 8346 24be 1f8e 12be 3d78 66bd
00000170: 6fbd afbd afdf 54be fe50 94bd 799f 6bbb
00000180: 668d a8bd fa64 04be 8d74 33be 1bd9 49be
00000190: 78db 46be e3d0 0ebe cb44 2ebe 667e 20be
000001a0: 9bc9 0cbe 64d3 ffbc 72b6 3cbe 54e1 d7bc
000001b0: bcbe 41be afe3 17be f0a6 81bc 4c42 23bd
000001c0: 1f15 70be 0e18 53bc b615 95bd 043d dbbd
000001d0: 7129 1cbe 5b26 25bc 013c 91bd 620f 28be
000001e0: 6175 9bbd 83e7 4fbe 6d8a 3dbe e2a3 cebd
000001f0: f770 e4bd ac5b c7bd a44a f5bd a64a d4bd

mean.weight f4 [7, 128]
0.03259585 -0.020795345 -0.03088423 -0.10720583 0.104949065 -0.009296859 -0.11070113 0.03770966
0.1506492 -0.028775577 0.005381612 0.010719733 0.10266419 0.0017115049 0.043869153 -0.020508766
-0.0061780075 0.05743788 -0.06561179 -0.07228174 0.064684875 -0.073217064 0.14785135 0.032742653
0.036587816 0.091526784 0.12326244 -0.061999913 -0.09315012 -0.024479993 -0.10029414 0.099580966
-0.02858245 -0.07092283 0.08871839 0.03327753 -0.09695777 -0.07577897 -0.037514314 0.04425092
0.019182533 0.051464174 -0.040929925 -0.04604746 -0.05096356 0.050234422 -0.10349709 0.08644323
0.044773154 0.06617832 -0.13282785 0.15163721 -0.02069445 0.037971087 0.033014007 0.12100272
-0.08474072 -0.096369036 -0.019698748 -0.043784663 -0.17952606 -0.022575462 -0.10285441 -0.005479418
-0.16506533 -0.09202617 0.01049969 0.04875168 0.05975248 -0.18548119 0.007096713 0.09366716
0.15820834 0.012280132 0.0551274 -0.014937818 -0.016963217 -0.0071248086 -0.00921674 0.013834337
-0.014047576 0.0041420697 -0.06613293 -0.07594224 -0.05066871 -0.13023324 -0.0041126865 0.022366298
0.00966551 -0.0034937796 0.06641541 -0.120478615 0.03887394 -0.12657961 -0.06446552 0.02612632
-0.08465895 -0.033234976 0.034338586 0.11374323 -0.05184295 0.0969361 0.11218911 0.08976793
0.054258145 0.05999717 -0.26215488 0.07510692 -0.054925017 -0.044415846 0.07275099 0.054078855
-0.027889844 0.021418186 0.03678939 0.08102845 0.11239344 -0.011556354 -0.034126975 -0.12311936
-0.04320672 0.028499143 0.08409108 0.008144305 -0.07337339 0.06253561 0.0018916379 0.19321376
0.0056626284 0.020790584 0.03895441 -0.07771515 0.041110657 -0.22946025 -0.19239897 0.043588284
0.21849757 0.037574977 -0.09078469 0.10329957 -0.15394086 -0.0028054637 0.011102814 0.01827639
-0.02418302 0.057995435 0.12725139 0.083666675 -0.03035069 -0.046163026 -0.08328585 0.014758154
0.0018915599 0.1207171 0.0093217045 0.0021406624 0.20989044 0.059890185 -0.019368142 0.050819654
-0.08359822 -0.033907656 0.07626133 0.09256845 -0.004807986 -0.028055504 0.14095251 -0.055435553
0.043203562 -0.009670669 0.107354045 0.09374861 0.12337759 0.01735703 -0.07369696 -0.12152722
0.12899506 0.08834897 -0.029505834 -0.13058151 -0.17130974 -0.10468296 -0.11233198 0.015669998
-0.071604244 -0.2123798 0.07244051 -2.317516e-05 0.024000648 0.06270155 0.045539126 -0.013000204
-0.08195844 0.07025036 0.02513965 0.03545451 -0.015886107 -0.19115943 -0.12390773 0.32310233
0.02905893 -0.2874635 -0.031577345 0.13370994 -0.03914554 0.009905118 0.018991232 -0.11885668
-0.022001907 -0.0014408003 -0.05138671 -0.09701667 -0.14612044 0.05750039 0.030168245 0.069197744
0.17229263 -0.060229108 -0.026238037 -0.16219033 0.01002953 -0.0993715 0.042739153 0.05334368
-0.22693095 -0.07218431 -0.09479295 0.1358164 -0.109269276 0.011725608 -0.109986 -0.060785975
-0.11316323 0.20948519 -0.024094041 0.04789039 -0.08632214 0.029561602 0.00982635 -0.07933994
-0.050184496 -0.062129125 0.075057946 0.008774505 -0.105989136 0.044783294 0.0119122565 0.033481818
0.039172422 0.043778893 0.03713473 -0.25544477 -0.08039658 -0.04698454 -0.08608305 0.09821924
00000000: 3a83 053d 005b aabc ed00 fdbc bb8e dbbd
00000010: 89ef d63d da51 18bc 46b7 e2bd 7275 1a3d
00000020: c943 1a3e c2ba ebbc 3c58 b03b d2a1 2f3c
00000030: 9a41 d23d 9354 e03a 24b0 333d 0002 a8bc
00000040: e270 cabb fc43 6b3d 795f 86bd 7308 94bd
00000050: 8179 843d d4f2 95bd 5866 173e 291d 063d
00000060: 1bdd 153d 6572 bb3d 0571 fc3d 9ff3 7dbd
00000070: 7dc5 bebd 448a c8bc 0467 cdbd 1bf1 cb3d
00000080: be25 eabc fd3f 91bd fdb1 b53d 054e 083d
00000090: cc91 c6bd 0132 9bbd 9ca8 19bd 7440 353d
000000a0: b024 9d3c 19cc 523d 23a6 27bd 439c 3cbd
000000b0: 2abf 50bd 9cc2 4d3d 48f6 d3bd 2609 b13d
000000c0: 0e64 373d 8088 873d 0604 08be c946 1b3e
000000d0: 6887 a9bc 9287 1b3d b239 073d 46d0 f73d
000000e0: 8b8c adbd 215d c5bd 455f a1bc 8c57 33bd
000000f0: aed5 37be 2df0 b8bc 55a5 d2bd b18c b3bb
00000100: e306 29be 3778 bcbd e406 2c3c d7af 473d
00000110: 04bf 743d c8ee 3dbe 8b8b e83b 91d4 bf3d
00000120: 5e01 223e 9b32 493c 45cd 613d c0bd 74bc
00000130: 72f6 8abc 3a77 e9bb cf01 17bc 6aa9 623c
00000140: ce27 66bc 33ba 873b b470 87bd 9b87 9bbd
00000150: fe89 4fbd dd5b 05be b7c3 86bb 8739 b73c
00000160: 165c 1e3c e5f7 64bb cd04 883d 7ebd f6bd
00000170: 483a 1f3d 169e 01be 8006 84bd dd06 d63c
00000180: ac61 adbd 6621 08bd 9ea6 0c3d 36f2 e83d
00000190: 4659 54bd 6f86 c63d 67c3 e53d 40d8 b73d
000001a0: ca3d 5e3d 98bf 753d 2a39 86be a8d1 993d
000001b0: 0ef9 60bd 64ed 35bd 79fe 943d ca81 5d3d
000001c0: 3e79 e4bc 3175 af3c 79b0 163d 3ef2 a53d
000001d0: 882e e63d dd56 3dbc bac8 0bbd 0126 fcbd
000001e0: 88f9 30bd 0977 e93c f237 ac3d b16f 053c
000001f0: ca44 96bd ab12 803d d6f0 f73a d4d9 453e
00000200: 928d b93b 0451 aa3c a98e 1f3d 1f29 9fbd
00000210: a663 283d a1f7 6abe 3c04 45be a189 323d
00000220: d4bd 5f3e 38e8 193d 53ed b9bd ba8e d33d
00000230: aca2 1dbe dfdb 37bb 94e8 353c 5eb8 953c
00000240: 781b c6bc 9f8c 6d3d 304e 023e 6f59 ab3d
00000250: 03a2 f8bc 7115 3dbd c691 aabd 2fcc 713c
00000260: 38ee f73a 873a f73d 10ba 183c 5b4a 0c3b
00000270: 85ed 563e 694f 753d f0a9 9ebc 4528 503d
00000280: 8b35 abbd c1e2 0abd e62e 9c3d 8794 bd3d
00000290: 4f8c 9dbb a8d4 e5bc db55 103e 6410 63bd
000002a0: 38f6 303d ba71 1ebc 70dc db3d 45ff bf3d
000002b0: 64ad fc3d 5530 8e3c 6fee 96bd 43e3 f8bd
000002c0: 4817 043e 4ef0 b43d 38b6 f1bc 29b7 05be
000002d0: d26b 2fbe 0564 d6bd 4f0e e6bd 5e5e 803c
000002e0: 3fa5 92bd 177a 59be b15b 943d 4768 c2b7
000002f0: 029d c43c ac69 803d 3c87 3a3d cffe 54bc
00000300: d4d9 a7bd 6cdf 8f3d abf1 cd3c c038 113d
00000310: 9523 82bc 4cbf 43be 56c3 fdbd ab6d a53e
00000320: fe0c ee3c 6a2e 93be 3f57 01bd 42eb 083e
00000330: 1357 20bd 1349 223c 8093 9b3c 226b f3bd
00000340: 583d b4bc 3cd9 bcba df7a 52bd adb0 c6bd
00000350: 99a0 15be 8785 6b3d 6523 f73c 8cb7 8d3d
00000360: 7b6d 303e ccb2 76bd 27f1 d6bc 3915 26be
00000370: e652 243c 4983 cbbd 400f 2f3d e77e 5a3d
00000380: 9660 68be 5ed5 93bd ce22 c2bd 7413 0b3e
00000390: 92c8 dfbd c41c 403c 5740 e1bd b7fa 78bd
000003a0: 20c2 e7bd 4983 563e de60 c5bc b728 443d
000003b0: aac9 b0bd 2c2b f23c b3fe 203c fa7c a2bd
000003c0: 428e 4dbd 1c7b 7ebd fbb7 993d f1c2 0f3c
000003d0: d510 d9bd b06e 373d a02b 433c 3b24 093d
000003e0: 4373 203d 7f51 333d 961a 183d a8c9 82be
000003f0: f6a6 a4bd dc72 40bd 4f4c b0bd 2b27 c93d

mean.bias f4 [7]
0.054158453 -0.02508296 0.010221678 0.030435128 0.016348971 -0.025393873 0.040817246
00000000: 41d5 5d3d c87a cdbc d378 273c 1753 f93c
00000010: 47ee 853c d006 d0bc fc2f 273d
