kinova-ros/kinova_scripts/src/best_model_episode_100/actor.pth (torch, 155649 bytes, 7 tensors)

log_std f4 [7]
0	0x3c017409	0.0079012
1	0x3d728400	0.059207916
2	0xbe81dbb8	-0.25362945
3	0xbce8f9c0	-0.028439403
4	0xbcb84944	-0.022495873
5	0xbd982ce7	-0.074304394
6	0x3cc16f1b	0.02361255

fc1.weight f4 [256, 17]
0	0x3e78a034	0.24279863
1	0x3c048ab1	0.008089707
2	0x3d8f7e2d	0.07006488
3	0x3e6c60a8	0.23083746
4	0xbde0fd0c	-0.10985765
5	0x3e865e6b	0.2624391
6	0xbe134dc6	-0.14385137
7	0x3e78c26e	0.24292919
8	0xbd95ab6d	-0.073080875
9	0xbe2504e7	-0.16115151
10	0xbd0c9848	-0.034324914
11	0xbdfe5cdf	-0.124200575
12	0x3e3fd5fd	0.18733974
13	0xbe5a8a4e	-0.21341822
14	0xbe06b30c	-0.13154238
15	0x3d877eb1	0.06615961
16	0x3e164189	0.14673437
17	0xbb17e24e	-0.002317566
18	0x3e58ac26	0.2115942
19	0x3d9d4c05	0.07680515
20	0xbdae5a57	-0.08513325
21	0xbe1965f0	-0.14980292
22	0xbd096af4	-0.033549264
23	0xbdbcfd82	-0.0922804
24	0xbda4d4d8	-0.08048409
25	0x3c98fae5	0.018674323
26	0x3e09c752	0.13454941
27	0x3df7c1ef	0.12097537
28	0xbe694bc1	-0.22782804
29	0x3e118a19	0.14212836
30	0x3d840ce1	0.06447769
31	0x3e6f7ab1	0.23386647
32	0x3e1473a0	0.14497232
33	0xbe6ed5c0	-0.23323727
34	0xbe600031	-0.21875073
35	0xbdd9079d	-0.10597155
36	0x3e65a31c	0.22425503
37	0xbceeaf5d	-0.029136354
38	0x3dea7650	0.114483476
39	0xbdcfbd77	-0.101435594
40	0x3e7fb421	0.24971057
41	0xbde5a826	-0.112137124
42	0x3e5d3d24	0.21605355
43	0xbd109e2e	-0.035307102
44	0xbdaa12a9	-0.083043404
45	0x3e0757ca	0.13217083
46	0xbe05bfc8	-0.1306144
47	0x3d8a5887	0.067551665
48	0xbd971941	-0.07377864
49	0xbd0060d8	-0.031342357
50	0xbe79e79b	-0.24404757
51	0x3c89c4a2	0.016817395
52	0x3e867ca9	0.26266983
53	0x3d95391d	0.07286284
54	0x3ebf28dc	0.3733586
55	0x3ea6d8e2	0.32587343
56	0x3df697c7	0.12040668
57	0xbe933fa6	-0.28759497
58	0x3e8d96f7	0.2765424
59	0xbd06c371	-0.03290123
60	0xbea4c3be	-0.3218059
61	0x3d46efb2	0.048568435
62	0x3c49aa44	0.012308661
63	0x3eb57a95	0.35445085
64	0xbe968a40	-0.2940235
65	0xbe2c597d	-0.16831012
66	0x3dd5bc16	0.10436265
67	0x3e2073a3	0.15669112
68	0xbd871fb5	-0.065978445
69	0xbd6dcbb6	-0.058055602
70	0x3e7ed066	0.24884185
71	0x3d757b43	0.059932005
72	0x3e732488	0.23744404
73	0x3e05c228	0.13062346
74	0xbbaa7dfa	-0.005203006
75	0x3e25bbc4	0.16184908
76	0xbcac5382	-0.021035913
77	0xbcb7f260	-0.02245444
78	0xbeac7b62	-0.33687884
79	0xbbbd7cf2	-0.005782717
80	0xbd51b36d	-0.051196504
81	0xbe9cf03a	-0.30652028
82	0xbdc9a16a	-0.098452404
83	0x3d144387	0.03619721
84	0x3e844aa7	0.25838205
85	0xba834764	-0.0010015783
86	0xbd9c2cf3	-0.07625761
87	0x3ea1ace0	0.31577206
88	0x3dd42a6e	0.10359655
89	0x3e8d0780	0.27544785
90	0x3e5ec713	0.21755628
91	0xbe9786a9	-0.29594925
92	0x3e2e56c4	0.17025286
93	0xbdc2e78c	-0.0951682
94	0xbea2e453	-0.31814823
95	0xbe6d5e13	-0.23180418
96	0xbd95cec1	-0.07314826
97	0x3e3b2707	0.18276607
98	0xbe7f1e9f	-0.24914025
99	0xbe582d5e	-0.21111056
100	0x3ea03e58	0.31297565
101	0x3dd73b22	0.105093256
102	0x3e01c2f7	0.1267203
103	0x3dc25fb7	0.094909124
104	0xbe2a7a41	-0.16648199
105	0xbe5d3f56	-0.21606192
106	0x3e64f687	0.22359668
107	0x3b419677	0.0029539147
108	0x3e2fce8a	0.17168632
109	0x3d2f81d2	0.042848416
110	0x3dad553d	0.084635235
111	0x3e3c02b5	0.18360408
112	0x3e5dc66f	0.21657728
113	0xbe1b43e7	-0.15162621
114	0x3caae21f	0.020859776
115	0x3e2c8387	0.16847049
116	0x3e38f2b0	0.18061328
117	0x3e134aa1	0.14383937
118	0xbe38ead5	-0.18058331
119	0xbe3f837c	-0.18702501
120	0xbe22b6e1	-0.15890075
121	0x3c9bd512	0.019022498
122	0x3e6cd06d	0.23126383
123	0xbe2a6222	-0.16638997
124	0x3df46357	0.1193301
125	0xbdf824ed	-0.12116418
126	0xbe5d203b	-0.21594326
127	0xbcef1a5b	-0.029187372
128	0x3e02f8b7	0.1279019
129	0x3e542f12	0.20721081
130	0xbe0c7da4	-0.13719803
131	0x3d08d570	0.033406675
132	0x3e4b9fc0	0.19885159
133	0x3e3205af	0.1738498
134	0x3e0db96f	0.13840269
135	0x3e1cd7d1	0.15316702
136	0x3e1545d7	0.14577423
137	0x3d61d6d4	0.055136517
138	0xbe3047a2	-0.17214826
139	0xbe559c80	-0.20860481
140	0xbdf3e8bd	-0.11909626
141	0xbd04a5f8	-0.032384843
142	0xbe0c75e7	-0.13716851
143	0x3d8ff3e2	0.07028939
144	0x3dadc3ce	0.084846124
145	0xbd780126	-0.06054797
146	0x3db0c492	0.08631243
147	0x3dba228c	0.090886205
148	0x3e0dce8f	0.13848327
149	0x3e1f3dfe	0.15550992
150	0xbd9ed535	-0.0775551
151	0x3e663f85	0.22485168
152	0xbd1e4f8f	-0.03865009
153	0xbc842b6b	-0.016133985
154	0xbe72676a	-0.23672262
155	0xbe27e18d	-0.16394635
156	0xbe1920d6	-0.14953932
157	0xbde464e3	-0.11152055
158	0x3e2889ec	0.16458863
159	0xbd8eb1a2	-0.069674745
160	0xbe31ae52	-0.17351654
161	0x3dccd65d	0.10001824
162	0x3d91af1a	0.07113476
163	0x3e190b53	0.14945726
164	0xbdf44cc2	-0.11928703
165	0x3d66e1a4	0.05636753
166	0xbda5388a	-0.080674246
167	0xbd3c1e23	-0.045927178
168	0xbe428ab0	-0.18998218
169	0xbdf68440	-0.120369434
170	0x3d674ee0	0.056471705
171	0x3e6e6e0f	0.23284172
172	0x3e3417dd	0.17587228
173	0x3e454ef2	0.19268396
174	0x3ebe554c	0.3717445
175	0x3ebd357a	0.36954862
176	0x3d8dd0ac	0.069245666
177	0x3dfc659f	0.1232407
178	0xbe8e2fcb	-0.27770838
179	0x3d557960	0.052117705
180	0xbe2ba6a6	-0.1676279
181	0xbe06b1db	-0.13153784
182	0xbdd95859	-0.10612554
183	0xbe409c3d	-0.188096
184	0xbe90c00b	-0.28271517
185	0x3e9534fa	0.2914198
186	0xbdb27a23	-0.08714702
187	0xbe4196ef	-0.18905233
188	0xbc06eea0	-0.008235604
189	0xbe064a4a	-0.13114277
190	0x3db1bacc	0.08678207
191	0xbdbf3292	-0.093358174
192	0xbde94cc6	-0.113915965
193	0x3c610fa0	0.013736635
194	0x3e33c8e4	0.17557102
195	0xbe2eb329	-0.17060532
196	0x3de94270	0.11389625
197	0x3e1f8df2	0.15581492
198	0x3e72f10e	0.23724768
199	0xbe2dd516	-0.16975817
200	0x3d709900	0.058739662
201	0xbe37a436	-0.17933735
202	0x3e5408ce	0.20706484
203	0xbdc0ad98	-0.094081104
204	0x3e9b01f8	0.3027494
205	0x3e2637ec	0.1623227
206	0x3e0c98da	0.13730183
207	0x3e17f788	0.1484052
208	0x3e4b13c5	0.1983176
209	0x3e8a7906	0.2704546
210	0xbdbebb39	-0.09313054
211	0x3e4aae0e	0.19792959
212	0xbea85ca1	-0.3288317
213	0x3c262033	0.010139513
214	0x3de218cf	0.11039888
215	0x3d296875	0.041359384
216	0x3e9d8543	0.30765733
217	0xbeaa5440	-0.33267403
218	0xbe79ae37	-0.24382864
219	0x3ea0dfb0	0.3142066
220	0xbd3a8775	-0.04553934
221	0x3e600737	0.21877752
222	0xbe44a89e	-0.19204947
223	0xbe30427a	-0.17212859
224	0x3df03c4b	0.1173025
225	0xbe33c890	-0.17556977
226	0xbd68ca0d	-0.056833316
227	0x3e31ee96	0.1737617
228	0x3e432f5c	0.19061035
229	0x3e6a028d	0.22852536
230	0xbd40c9d0	-0.047067463
231	0xbe43475c	-0.1907019
232	0x3e7922b1	0.2432964
233	0xbd4d79ef	-0.050165113
234	0xbdc97fc9	-0.09838826
235	0x3d737625	0.059438843
236	0xbe2b1402	-0.16706851
237	0x3e25ce59	0.16191997
238	0x3e95c509	0.29251888
239	0xbd3e7d90	-0.046506464
240	0xbd69da9f	-0.05709326
241	0x3df80459	0.12110204
242	0x3e764e90	0.24053407
243	0x3e0a9349	0.13532747
244	0xbe979c2d	-0.2961134
245	0x3e1d1e18	0.15343511
246	0xbeaefda7	-0.34177896
247	0xbea387ec	-0.31939638
248	0xbe8b6d99	-0.27232054
249	0x3d8bb98d	0.068225004
250	0x3ebc4e0b	0.36778292
251	0xbe64c79c	-0.2234177
252	0xbe08ef8a	-0.13372627
253	0x3e91b3dc	0.28457534
254	0x3e22c7c0	0.15896511
255	0xbe0819fd	-0.13291164

fc1.bias f4 [256]
0	0x3e81fd9a	0.25388795
1	0xbbed1d31	-0.007236146
2	0x3db54ab8	0.08852142
3	0x3d82fea0	0.06396222
4	0xbd5a38b8	-0.053276747
5	0x3e99f431	0.30069116
6	0xbd4f5414	-0.050617293
7	0x3e2d3c61	0.16917564
8	0xbd96bc2d	-0.073601104
9	0xbd727550	-0.05919391
10	0x3d9a515e	0.07535051
11	0xbe0e9d10	-0.13927102
12	0x3e50627b	0.20350067
13	0x3d751b42	0.05984045
14	0x3d390798	0.045173258
15	0xbe237d77	-0.1596583
16	0x3ea6c2c1	0.3257046
17	0xbd3937c4	-0.045219198
18	0x3e18bdbd	0.1491613
19	0xbe0a19ea	-0.13486448
20	0x3e9fe5aa	0.31229907
21	0x3eab702e	0.33484024
22	0x3e1bad0b	0.1520273
23	0x3eb6b807	0.35687277
24	0x3e152631	0.1456535
25	0x3e411ee6	0.18859443
26	0xbdf8c589	-0.12147052
27	0xbdd350ea	-0.103181675
28	0xbd26a4e5	-0.0406846
29	0xbe034c41	-0.12822057
30	0x3dc3f79a	0.095687106
31	0xbe178b5f	-0.1479926
32	0x3e5effbf	0.21777247
33	0x3e047012	0.12933376
34	0xbd4edf0b	-0.05050568
35	0x3eac61af	0.33668277
36	0xbdf4eb51	-0.119589455
37	0x3dbe1e2f	0.09283101
38	0x3e2883fc	0.16456598
39	0xbe27ff92	-0.16406086
40	0xbaecfa97	-0.0018080053
41	0x3e405e54	0.18785983
42	0xbe487b8f	-0.19578384
43	0xbba250c0	-0.004953474
44	0xbdf65729	-0.12028343
45	0x3e991c0f	0.2990422
46	0x3e27b2ba	0.16376773
47	0x3e15be52	0.14623383
48	0x3e2b5fbb	0.16735737
49	0xbe747945	-0.23874386
50	0x3dd88033	0.10571327
51	0x3cbf21fc	0.023331635
52	0x3df7711a	0.12082119
53	0xbe1fb739	-0.15597238
54	0xbce18b28	-0.027532175
55	0x3e2acba0	0.1667924
56	0x3d3e2606	0.04642298
57	0xbdabb091	-0.08383287
58	0xbe24542b	-0.16047733
59	0xbe57a948	-0.2106067
60	0x3e27aeee	0.16375324
61	0xbd94e74f	-0.07270681
62	0x3e4484e1	0.19191314
63	0x3e107483	0.14106946
64	0xbd5e6339	-0.054293845
65	0x3b4aa28d	0.0030919642
66	0xbdf102f5	-0.11768142
67	0x3e1aeb3e	0.151288
68	0x3df061de	0.11737417
69	0xbba6e771	-0.005093508
70	0x3d975bc1	0.073905475
71	0xbe603403	-0.21894841
72	0x3df501b9	0.11963219
73	0xbd1ccad4	-0.03827937
74	0xbe4ea39c	-0.201796
75	0xbdb3cb00	-0.087789536
76	0xbbad0b0e	-0.005280859
77	0x3ea4d6b9	0.3219507
78	0x3e6894a6	0.22712955
79	0x3d85d40c	0.06534585
80	0xbe391198	-0.18073118
81	0x3e9ee2c3	0.3103238
82	0x3e493950	0.19650769
83	0x3e0feb36	0.1405457
84	0xbe733ff0	-0.23754859
85	0x3e3d81a4	0.18506485
86	0x3e29ecdc	0.16594261
87	0x3e4974c4	0.19673449
88	0xbe2b3d84	-0.16722685
89	0x3e150a4b	0.14554708
90	0x3d065dfe	0.03280448
91	0x3e978743	0.29595384
92	0xbcfe28f0	-0.03102538
93	0x3eab291c	0.334298
94	0x3e4b3d02	0.19847491
95	0x3d8b04db	0.067880355
96	0xbe1250de	-0.14288661
97	0xbcc6c0bb	-0.024261823
98	0x3e4929dd	0.19644876
99	0xbd57fa55	-0.05272897
100	0x3cbef178	0.0233085
101	0x3e8a91f8	0.2706449
102	0x3d9ace2c	0.075588554
103	0x3e52fd75	0.20604499
104	0xbc83ce4e	-0.016089585
105	0xbe80a3f6	-0.25125092
106	0x3ac090fc	0.0014691646
107	0x3c0f7494	0.008755822
108	0x3e0d6f9d	0.13812108
109	0x3e53be42	0.20678046
110	0xbe6c7dfa	-0.23094931
111	0xbe2f449b	-0.17116015
112	0xbdb19ade	-0.08672117
113	0x3da2affc	0.079437226
114	0x3d7a0550	0.061040223
115	0x3b80dd41	0.0039326255
116	0x3d657d75	0.05602785
117	0x3e42cb95	0.19022973
118	0x3e9e4493	0.30911693
119	0xbe6072ab	-0.21918742
120	0xbc70e34c	-0.014702629
121	0x3d740d75	0.059583146
122	0xbcc8b350	-0.024499565
123	0x3e303d94	0.1721099
124	0x3d2848b8	0.041084975
125	0xbe4303f5	-0.19044478
126	0x3e23c1f5	0.15991957
127	0xbe22352b	-0.15840594
128	0xbe1b0dca	-0.15141979
129	0x3dc98abe	0.09840916
130	0xbe086c02	-0.13322452
131	0x3c858ad8	0.016301557
132	0xbe1b943b	-0.15193264
133	0x3e0a907c	0.13531679
134	0xbe6fba66	-0.23410949
135	0x3d6a56dd	0.057211746
136	0x3e51a244	0.20472056
137	0x3e68a805	0.22720344
138	0x3e000f96	0.12505946
139	0xbdcc6075	-0.09979335
140	0x3d0c48e4	0.0342492
141	0xbe384a69	-0.17997135
142	0x3d757188	0.059922725
143	0xba746e43	-0.00093242916
144	0xbd9cbd6e	-0.07653318
145	0xbc2ca813	-0.010538119
146	0x3d64d77d	0.05586957
147	0xbd9fbced	-0.077997066
148	0x3e948ea9	0.2901509
149	0xbdee9566	-0.11649589
150	0x3d4ee7a2	0.05051387
151	0x3ded3aff	0.11583518
152	0x3d0e80cc	0.0347908
153	0x3e4ae579	0.198141
154	0x3e522197	0.20520626
155	0x3eae0678	0.3398931
156	0x3e491548	0.19637024
157	0xbe6573e4	-0.2240749
158	0x3e7bbc2b	0.24583499
159	0x3e427da2	0.18993238
160	0x3d8b9302	0.06815149
161	0xbd9e18fd	-0.0771961
162	0xbe1be65b	-0.15224592
163	0xbe3afe59	-0.18261088
164	0xbcb06277	-0.021531327
165	0xbd535fc6	-0.05160501
166	0xbde15144	-0.11001828
167	0x3ea11c9d	0.31467143
168	0x3d1dfbb5	0.038570125
169	0xbdcc19df	-0.09965872
170	0xbe7badfd	-0.2457809
171	0x3e3af449	0.1825725
172	0xbe21cf07	-0.15801631
173	0xbdc7d4ef	-0.09757411
174	0xbe1d5060	-0.15362692
175	0xbde919bc	-0.113818616
176	0x3e18230f	0.14857124
177	0x3e7255d6	0.23665556
178	0x3e945441	0.2897053
179	0x3c3036dd	0.010755268
180	0x3e1abd33	0.15111236
181	0xbce7d258	-0.028298542
182	0x3d8527d8	0.0650174
183	0x3e888c17	0.2666938
184	0xbe2b371e	-0.16720244
185	0x3e081482	0.13289073
186	0xbe36fd21	-0.17869999
187	0xbe6ec14a	-0.23315921
188	0x3db8d667	0.09025269
189	0x3ebe5798	0.37176204
190	0x3e5f6609	0.21816267
191	0xbe1f8106	-0.15576562
192	0xbdaf0dc5	-0.08547548
193	0x3e904a7e	0.28181833
194	0xbe52623d	-0.20545287
195	0x3e9391f2	0.28822285
196	0x3eb0e622	0.34550577
197	0x3e008601	0.12551118
198	0x3e795365	0.24348219
199	0xbd6ca463	-0.05777396
200	0x3e409c26	0.18809566
201	0x3e2a357c	0.16621965
202	0x3e708269	0.23487248
203	0x3e66f349	0.22553743
204	0x3e8b7acf	0.27242133
205	0xbe29cb6c	-0.16581506
206	0x3ca38ecc	0.019965552
207	0x3da7de4e	0.08196698
208	0x3d0ea483	0.03482486
209	0x3da3ab21	0.079916246
210	0x3e45dbae	0.19322082
211	0x3eaf44c0	0.3423214
212	0xbe659eaa	-0.22423807
213	0x3e62286c	0.22085732
214	0xbc13d0b9	-0.009021931
215	0x3e47a9d8	0.19498384
216	0x3e2524e4	0.16127354
217	0xbe1c67b7	-0.15273939
218	0x3d05fd89	0.032712493
219	0xbd37aa26	-0.04484
220	0x3e564f6a	0.20928732
221	0x3dc965f3	0.098338984
222	0xbdbab29e	-0.091161
223	0xbcba387a	-0.022732008
224	0x3e176593	0.14784841
225	0xbae04ff5	-0.0017113673
226	0xbd8802ed	-0.06641183
227	0xbe19891c	-0.1499371
228	0x3eb0c4ed	0.34525242
229	0x3e83f79e	0.25774854
230	0x3e8d3926	0.27582663
231	0x3d9059f9	0.07048411
232	0xbe163c67	-0.14671479
233	0x3eb320b5	0.3498589
234	0xbe18ab29	-0.14909042
235	0xbe4e76a9	-0.20162453
236	0x3de0a035	0.10968057
237	0x3e2d8458	0.16945016
238	0x3ea30cd5	0.31845728
239	0x3d9ef5a1	0.07761694
240	0xbd35d4ab	-0.04439227
241	0xbe741e84	-0.23839766
242	0xbc0f19ab	-0.008734147
243	0x3e806771	0.2507892
244	0x3ce16b2d	0.027516926
245	0xbda78898	-0.0818035
246	0x3db30fa4	0.087432176
247	0xbdc14e3e	-0.09438752
248	0x3b9647c4	0.004586192
249	0xbe968f95	-0.2940642
250	0x3da60535	0.08106462
251	0x3e36f7c1	0.17867948
252	0x3dfaeade	0.122518286
253	0x3d341a30	0.043970287
254	0x3dda9707	0.106733374
255	0x3eab494b	0.33454356

fc2.weight f4 [128, 256]
0	0x3c889150	0.016670853
1	0x3cf8fd44	0.030394204
2	0x3d70cc75	0.058788735
3	0xba7fadd9	-0.00097533833
4	0x3ced8545	0.028994212
5	0x3ca37b86	0.019956362
6	0xbd5f72e8	-0.054552943
7	0xbd33fb17	-0.04394063
8	0x3d35c82e	0.04438036
9	0x3d66bf72	0.05633492
10	0xbd2bb621	-0.04192174
11	0x3cc4d030	0.024025053
12	0x3d0c548f	0.03426033
13	0xbd5ababf	-0.05340075
14	0xbd212ce8	-0.039349467
15	0x3d534aac	0.051584885
16	0xbcc2b9ad	-0.023770178
17	0x3bac708a	0.005262439
18	0x3c15775c	0.009122696
19	0x3bf3689d	0.0074282424
20	0x3d307059	0.043075893
21	0x3d1bf7c8	0.0380781
22	0xbd8cd483	-0.06876471
23	0xba854b3a	-0.0010169514
24	0x3c6bbcce	0.014388276
25	0x3bef2195	0.0072977045
26	0xbcb803d5	-0.022462765
27	0x3cc13c36	0.023588281
28	0xbc92dbbe	-0.017927047
29	0x3cc73789	0.024318473
30	0xb93a85bb	-0.00017788161
31	0x3d18e33d	0.037326086
32	0xbcaf0bdb	-0.021367958
33	0xbcad7a5a	-0.021176506
34	0x3d365bc2	0.0445211
35	0x3cb6dbff	0.0223217
36	0x3c9e26a0	0.019305527
37	0xbd7e1646	-0.06203296
38	0x3cd2acf0	0.025717229
39	0xbbe0272e	-0.006840608
40	0xbd82244d	-0.0635458
41	0xbd7aceb8	-0.0612323
42	0x3ba089a2	0.0048992196
43	0xbceeaaf7	-0.029134257
44	0x3cf78cf5	0.03021858
45	0xbc50cf8f	-0.012744798
46	0xbd4c1fbc	-0.04983495
47	0xbcdbda29	-0.026837425
48	0x3c871fa0	0.016494572
49	0x3c1aa00d	0.009437573
50	0x3d655e5e	0.0559982
51	0x3cf620b1	0.030044885
52	0x3c81c7dd	0.015842373
53	0x3d6b04b6	0.05737754
54	0xbd60eee5	-0.054915328
55	0xbb0d3c7b	-0.0021550942
56	0xbcc17fe1	-0.023620548
57	0xbc7c9fa0	-0.015418917
58	0x3bcc6430	0.006237529
59	0x3d2abdfa	0.041685082
60	0xbc4b0e38	-0.012393527
61	0x3c982a5f	0.018574892
62	0x3d01c89d	0.03168546
63	0x3bfd2478	0.0077252947
64	0xbc0366f0	-0.008020148
65	0xbd81f562	-0.06345631
66	0xbd467ccd	-0.048458863
67	0xbc7f5668	-0.015584566
68	0xbb88e485	-0.0041776323
69	0xbc539c57	-0.012915692
70	0xbd77844d	-0.060428906
71	0xbd125041	-0.035721067
72	0x3d0a98a5	0.03383698
73	0xbb54c380	-0.003246516
74	0xbd842edc	-0.0645425
75	0xbd6a112c	-0.057145283
76	0xbd00e55e	-0.03146874
77	0xbd960a96	-0.07326238
78	0x3d3fec74	0.04685636
79	0x3d00d3a0	0.03145182
80	0xbcbfe355	-0.02342383
81	0x3cc6cabb	0.024266591
82	0x3c36bea0	0.011153847
83	0xbcc6d730	-0.024272531
84	0xbc0fa311	-0.008766905
85	0xbd192981	-0.037393097
86	0xbd17865a	-0.036993362
87	0x3caf0b45	0.021367678
88	0xbb2721c0	-0.0025502294
89	0x3c31f241	0.0108609805
90	0x3c7f762c	0.015592139
91	0x3caaea5c	0.020863704
92	0xbc4697c2	-0.012121143
93	0xbc5ecc52	-0.013598518
94	0x3c9f126d	0.019417966
95	0xbd0346b5	-0.032049853
96	0xbc77e8b2	-0.0151311625
97	0x3c6a2a21	0.014292271
98	0xbc9da071	-0.019241543
99	0xbce6a749	-0.02815594
100	0x3cee8dae	0.029120293
101	0x3c0f2328	0.008736409
102	0xbd3f98c2	-0.04677654
103	0xbcb5bb39	-0.022184001
104	0xbd611ea6	-0.05496087
105	0x3cff1119	0.031136082
106	0xbbd70aa3	-0.0065625473
107	0xbc2fadbb	-0.010722573
108	0x3d035899	0.032066915
109	0xbcb1a81f	-0.021686612
110	0x3d29cc7a	0.04145477
111	0xbc2c5c70	-0.010520086
112	0x3c91776b	0.017757138
113	0x3ce0f724	0.027461596
114	0x3d603d28	0.054745823
115	0xbc71c42b	-0.014756243
116	0xbc1280a1	-0.0089418
117	0xbd832bd9	-0.06404848
118	0x3d1190b1	0.03553838
119	0x3ba120f0	0.0049172565
120	0x3bc2ffa8	0.0059508868
121	0xbd700b45	-0.058604497
122	0xbcdd3e08	-0.027007118
123	0x3d121897	0.035667982
124	0xbd0747c4	-0.033027425
125	0x3c8fbd80	0.017546415
126	0x3d0b72c2	0.03404499
127	0x3d0b90b2	0.03407354
128	0x3d6d788e	0.057976298
129	0xbd469d32	-0.048489757
130	0xbd77b2d7	-0.06047329
131	0x3c8921cb	0.016739747
132	0xbc39d4dd	-0.0113422545
133	0xbd6bea75	-0.057596643
134	0xbd76a850	-0.06021911
135	0x3d0b2e67	0.0339798
136	0xbd4f2a58	-0.05057749
137	0x3d1ceca2	0.038311608
138	0xbd33a59d	-0.043859113
139	0x3c61d2aa	0.013783136
140	0xbcced58e	-0.025248315
141	0x3d2bc547	0.041936185
142	0x3d32708e	0.04356437
143	0x3d5873c4	0.052844778
144	0xbd45622d	-0.04818933
145	0xbd0b07dd	-0.033943046
146	0xbd22b76a	-0.0397257
147	0xbcdbc443	-0.026826983
148	0x3affff9c	0.0019531134
149	0x3d2fc87e	0.042915814
150	0xbd41edb0	-0.047345817
151	0x3d122243	0.035677206
152	0xbcf7121b	-0.03016
153	0xbc7d9353	-0.015477019
154	0xbd342482	-0.04398013
155	0xbb514f8b	-0.003193828
156	0x3c00b4d0	0.007855609
157	0x3d201af3	0.0390882
158	0x3d276fbb	0.04087804
159	0x3d0d52ba	0.034502722
160	0x3d0d0c3e	0.034435503
161	0xbb93f11a	-0.0045148255
162	0x3d0e7967	0.034783747
163	0x3d33976e	0.043845586
164	0x3ce81361	0.028329553
165	0x3cb6636a	0.022264201
166	0xbd1b1e69	-0.0378708
167	0xbc5deba0	-0.013544947
168	0xbd2e5ecb	-0.04257087
169	0x3c701242	0.0146527905
170	0xbcded6f6	-0.02720211
171	0xbda0a3cc	-0.07843742
172	0xbcfa2cf6	-0.030539017
173	0xbd842f97	-0.064543895
174	0x3c591a68	0.013250925
175	0x3d39380a	0.04521946
176	0xbbd56286	-0.006511989
177	0xbccf962c	-0.025340162
178	0xbd0f7c02	-0.035030372
179	0xbd58cf4d	-0.052932072
180	0x3c3cc394	0.011521239
181	0x3ca2578d	0.019817138
182	0xbd7c4972	-0.06159348
183	0x3cf3371d	0.029689366
184	0x3c8fffd1	0.017578037
185	0xbd60d390	-0.05488926
186	0x3d03d4fa	0.032185532
187	0xbbcc5b76	-0.006236489
188	0xbd123d70	-0.035703123
189	0x3c7dbeef	0.015487417
190	0xbd10b452	-0.035328217
191	0x3c4488a8	0.011995472
192	0x3d31c2b7	0.043398585
193	0x3c8f155a	0.017466236
194	0x3d2b8186	0.04187157
195	0xbd52cd64	-0.051465407
196	0xbd58b140	-0.052903414
197	0x3b79355b	0.0038026187
198	0x3b02e838	0.001997484
199	0x3d0780e0	0.03308189
200	0x3d615fb0	0.055022895
201	0x3d3c4bfe	0.04597091
202	0x3baa06cd	0.005188799
203	0xbd6e5fce	-0.058196835
204	0xbc44cb75	-0.012011399
205	0x3c044a98	0.008074425
206	0xbd27e2bb	-0.04098771
207	0xbc2232b0	-0.00989978
208	0x3bc20087	0.005920473
209	0xbd41425c	-0.047182426
210	0xbc187cca	-0.009307096
211	0xbd9707ee	-0.07374559
212	0x3c8000ed	0.015625441
213	0xbd4a792d	-0.04943197
214	0x3c05b413	0.008160609
215	0xbcd382a9	-0.02581914
216	0xbd149b0c	-0.036280677
217	0x3c29be01	0.010360242
218	0xbd836116	-0.06415002
219	0x3cb11968	0.02161856
220	0x3b8e3650	0.0043399706
221	0xbb4c4d62	-0.0031174053
222	0x3d21ca62	0.039499648
223	0x3d271d6e	0.04079955
224	0x3d06cf9f	0.032912847
225	0x3d065a46	0.032800935
226	0xbc2f1f69	-0.010688641
227	0xba09a400	-0.0005250573
228	0xbd90fb9f	-0.07079243
229	0xbb43e25c	-0.002988956
230	0xbc82dd69	-0.015974717
231	0x3ce5fcea	0.0280747
232	0x3d0759aa	0.033044495
233	0xbcdcdc39	-0.02696048
234	0xbd11fac5	-0.035639543
235	0x3d235240	0.03987336
236	0x3c3bb9be	0.011457859
237	0xbd126c6e	-0.035747938
238	0xbd6b5cf6	-0.0574617
239	0xbd7c9a4a	-0.06167058
240	0x3c4372e1	0.011929245
241	0x3c962455	0.018327871
242	0x39ae41f3	0.00033237002
243	0x3c75a22d	0.014992279
244	0xbd589e0b	-0.052885097
245	0x3d6161b0	0.055024803
246	0x3c8de4cc	0.017321013
247	0x3c978e43	0.018500453
248	0xbc4e6fc0	-0.012599885
249	0xbd9018fa	-0.07036014
250	0xbb59e161	-0.0033245909
251	0xbba87bc8	-0.005141709
252	0x3c0484b2	0.008088278
253	0x3cf9c37c	0.030488722
254	0xbcfb5be7	-0.03068347
255	0x3d2cbb09	0.042170558

fc2.bias f4 [128]
0	0xbd95e336	-0.07318728
1	0xbd686676	-0.05673834
2	0x3c9c2458	0.019060299
3	0x3c50ce2c	0.012744468
4	0x3e4288c9	0.18997492
5	0x3d4a759c	0.049428567
6	0x3d109315	0.03529652
7	0x3d1435f6	0.036184274
8	0x3c920a30	0.017827123
9	0x3ddb1bda	0.10698672
10	0xbc88753c	-0.016657464
11	0xbd1e390a	-0.038628615
12	0x3cc181cf	0.023621468
13	0xbd490760	-0.0490793
14	0x3cd9951c	0.026560359
15	0x3d2273d1	0.039661232
16	0xbd1b020b	-0.037843745
17	0x3c92f108	0.017937198
18	0xbcf7c656	-0.030245941
19	0xbd5e77e4	-0.054313555
20	0x3e00904a	0.12555042
21	0x3cced88c	0.025249742
22	0xbbb17779	-0.0054158536
23	0x3e392ab3	0.18082695
24	0x36683c88	3.4605928e-06
25	0x3d2e53bc	0.042560324
26	0xbd2bcf30	-0.041945636
27	0xbd615ae3	-0.055018317
28	0xbc58d010	-0.0132332
29	0xbbdeb180	-0.006796062
30	0x3d3e77ef	0.046501096
31	0xbd5f7938	-0.054558963
32	0x3e129393	0.14314108
33	0x3e4141c9	0.18872751
34	0x3befd93a	0.0073195966
35	0x3d5619cf	0.052270707
36	0x3caa76e5	0.020808646
37	0x3e1e49dd	0.15457864
38	0x3d14dec2	0.03634525
39	0xba494442	-0.0007677713
40	0x3d51e866	0.051247023
41	0x3cef793d	0.029232616
42	0xbb82027e	-0.0039675822
43	0x3e3b91e3	0.1831737
44	0xbbc37f40	-0.005966097
45	0xbc81210c	-0.015762828
46	0xbcb477a0	-0.022029698
47	0x3e050488	0.1299001
48	0x3dd7d462	0.10538556
49	0xbd8cf8b6	-0.06883375
50	0x3ccd929c	0.025094323
51	0xbc796ccf	-0.015223696
52	0x3d101e30	0.03518504
53	0x3c6bacd0	0.014384463
54	0x3c99fa64	0.018796153
55	0x3d437ecd	0.04772835
56	0xbd167624	-0.03673376
57	0x3e01d2ae	0.12678024
58	0xbd4225ed	-0.04739945
59	0x3d0bd059	0.034134243
60	0xbc3f6e48	-0.011684008
61	0x3cac3d84	0.021025427
62	0x3d5421f6	0.0517902
63	0xbc830890	-0.015995294
64	0xbcc04e5e	-0.023474868
65	0x3c9eded4	0.019393362
66	0xbceb4c18	-0.028722808
67	0x3cf5900e	0.029975917
68	0x3e0c68db	0.13711874
69	0x3d6babe6	0.057536982
70	0x3e09b72b	0.1344878
71	0x3e1c9d81	0.15294458
72	0xbcc6dbfb	-0.024274817
73	0x3ccccf30	0.025001138
74	0x3d46ada9	0.04850546
75	0x3d8735a9	0.06602032
76	0x3e319c4c	0.17344779
77	0xbd768d51	-0.060193364
78	0x3d0c659c	0.03427659
79	0xbd1ab0fa	-0.037766434
80	0x3e1a76b9	0.15084352
81	0x3c4094ac	0.011754196
82	0x3dd32399	0.10309524
83	0x3d1bcb8e	0.03803592
84	0xbd88bba0	-0.06676412
85	0xbca56293	-0.020188605
86	0x3d5f6f58	0.054549545
87	0xbd29a3df	-0.041416045
88	0xbc642fde	-0.013927428
89	0xbd635d80	-0.05550909
90	0xbd574590	-0.052556574
91	0x3c755995	0.014974971
92	0xbcb062e7	-0.021531535
93	0xbd0b02eb	-0.03393833
94	0x3e64337e	0.22285268
95	0x3cca2afc	0.0246787
96	0xbd520bab	-0.05128066
97	0x3dc062c6	0.093938395
98	0x3c85c276	0.016328078
99	0x3e0174fb	0.12642281
100	0x3e0e9e91	0.13927676
101	0xbc8a6fb3	-0.016898965
102	0x3bf90ee7	0.0076006535
103	0xbd30c851	-0.043159787
104	0xbd6e571e	-0.05818855
105	0xbd37836c	-0.044803068
106	0x3e17f380	0.14838982
107	0x3d39acd7	0.04533085
108	0xbd53327a	-0.05156181
109	0xbd2f1b1c	-0.042750463
110	0x3c8880eb	0.016663035
111	0x3cf4e0c6	0.029892337
112	0x38f3d610	0.00011627015
113	0x3e44057a	0.19142714
114	0x3d56c6a7	0.052435543
115	0x3cb54d93	0.022131717
116	0x3dc64308	0.09680754
117	0x3cbc2b56	0.022969883
118	0x39e49974	0.0004360188
119	0x3d2af8da	0.04174123
120	0x3c9a12e4	0.018807836
121	0xbd74edc2	-0.059797056
122	0x3d7ca1a0	0.061677575
123	0x3d21e953	0.039529156
124	0x3daf2767	0.08552437
125	0xbd1ef2ea	-0.03880588
126	0xbbe6e7d5	-0.0070466795
127	0xbcf8b300	-0.030358791

mean.weight f4 [7, 128]
0	0xbcb8ba1d	-0.022549683
1	0xbcdb1554	-0.026743568
2	0x3c9671d4	0.018364824
3	0x3d9496d7	0.07255333
4	0x3e0ac670	0.1355226
5	0x3db070a7	0.08615237
6	0x3c311d80	0.010810256
7	0xbd94b591	-0.072611935
8	0xbcacb562	-0.021082584
9	0x3e5b0a5c	0.2139067
10	0xbd876065	-0.06610183
11	0x3c1a2134	0.00940733
12	0x3da12972	0.07869233
13	0xbd5b2fbd	-0.053512324
14	0xbc731b2b	-0.01483802
15	0xbd023f2c	-0.031798527
16	0xbd58f852	-0.05297119
17	0x3bd97ef0	0.0066374466
18	0xbccc868c	-0.0249665
19	0xbce0e5ac	-0.027453266
20	0x3e55f803	0.2089539
21	0x3d57a736	0.0526497
22	0x3d93c946	0.07216124
23	0x3e3ecb67	0.1863228
24	0x3d8b69fc	0.06807324
25	0x3d99f395	0.07517163
26	0xbc05d088	-0.0081673935
27	0xbcd1c9d4	-0.025608934
28	0xbdb2f11e	-0.08737396
29	0x3d8fd8bb	0.0702376
30	0xbc0a2a02	-0.008432867
31	0x3b6e279a	0.0036339522
32	0x3e1fa9de	0.15592143
33	0x3e0ea1a8	0.13928854
34	0x3da021c8	0.07818943
35	0x3d1f20b9	0.038849566
36	0xbd84692d	-0.06465373
37	0x3e02b9de	0.12766215
38	0x3cd3db19	0.02586131
39	0x3dbfabfd	0.09358976
40	0xbcfa525f	-0.030556856
41	0xbadb2f49	-0.0016722466
42	0xbc8ef299	-0.017449664
43	0x3e0212b0	0.12702441
44	0xbc3ea4b8	-0.011635952
45	0x3d35fe4b	0.044431966
46	0x3ddb6e71	0.107144244
47	0x3e2f1197	0.17096554
48	0x3e2130ed	0.1574132
49	0x3d9e0c56	0.07717197
50	0xbd991350	-0.07474387
51	0x3d841038	0.06448406
52	0x3d9760cf	0.07391512
53	0xbdb3d20a	-0.08780296
54	0xbd0dbf48	-0.03460625
55	0xbd1fd476	-0.039020978
56	0xbcde0a7a	-0.027104605
57	0x3e557363	0.20844798
58	0xbc765c72	-0.015036689
59	0xbd1e5ef6	-0.03866478
60	0xbdadd91e	-0.084886774
61	0xbc751898	-0.014959477
62	0x3a828041	0.0009956436
63	0xbc9e2599	-0.019305037
64	0xbc6e696b	-0.014551501
65	0xbd041ed3	-0.03225596
66	0x3c2ba1a8	0.010475554
67	0x3d896d7f	0.06710338
68	0x3ddf60b3	0.10907116
69	0x394885eb	0.00019123375
70	0x3d9dbdfc	0.07702252
71	0x3d7ed594	0.062215403
72	0x3d1a1c8b	0.037624877
73	0x3b1b82e0	0.002372913
74	0x3c0d6a56	0.0086313095
75	0x3d845d8c	0.06463155
76	0x3dabf83c	0.08396956
77	0xbd42397e	-0.04741811
78	0xbd21ed9e	-0.03953325
79	0x3d1985f2	0.037481256
80	0x3d3c6f33	0.046004485
81	0xbcfabc9f	-0.03060752
82	0x3d90a103	0.070619605
83	0xbc35d368	-0.011097766
84	0xbd83890c	-0.06422624
85	0xbd7ee5ca	-0.062230863
86	0x3cf66364	0.03007669
87	0x3ce0f61c	0.027461104
88	0xbdab205e	-0.08355783
89	0x3d7ee75d	0.062232364
90	0xbb3f2120	-0.002916403
91	0x3d4a6baf	0.0494191
92	0xbcb1ee83	-0.021720177
93	0x3db4f864	0.08836439
94	0x3e066a98	0.131266
95	0x3cb99119	0.022652196
96	0xbc543508	-0.012952097
97	0x3e12d755	0.14339955
98	0x3d20682c	0.039161846
99	0x3d85a636	0.06525843
100	0x3da9ed35	0.08297197
101	0x3dc73d9c	0.09728548
102	0x3d4eae0c	0.050458953
103	0x3cfdbd5b	0.03097408
104	0x3cf3828e	0.02972534
105	0x3d854fb8	0.06509346
106	0x3d993038	0.074799
107	0xbda36d78	-0.07979864
108	0x3c8a0231	0.016846748
109	0x3d83fa5c	0.06444237
110	0x3d7ce896	0.06174525
111	0xbc89d86d	-0.016826833
112	0x3d24cd5f	0.04023492
113	0x3e169f52	0.14709213
114	0x39e82b4c	0.00044282747
115	0x3d20e2d6	0.039278828
116	0x3e2785a8	0.1635958
117	0xbd116405	-0.035495777
118	0xbcd55a2b	-0.026043972
119	0x3d86d1a0	0.065829515
120	0x3d529b92	0.051417895
121	0x3d81594a	0.06315859
122	0x3d66f2bb	0.05638383
123	0xbbf91fd4	-0.007602671
124	0x3e147892	0.14499119
125	0x3d41492e	0.04718893
126	0xbd48f67e	-0.0490632
127	0x3d527315	0.051379282
128	0x3d848d85	0.06472305
129	0x3da41dbc	0.08013484
130	0xbd853f66	-0.06506233
131	0xbb601fd2	-0.0034198654
132	0xbe13eb72	-0.14445284
133	0x3d3a53d6	0.04549011
134	0xbd78811f	-0.060670014
135	0xbca887b3	-0.020572519
136	0xbc6e24c9	-0.014535137
137	0xbe1d044c	-0.1533367
138	0xbbf27d9b	-0.0074002272
139	0xbdba7f61	-0.09106327
140	0xbac2701c	-0.0014834437
141	0x3d853cc9	0.065057345
142	0x3b62d132	0.0034609553
143	0xbc858a44	-0.016301282
144	0x3d03fc8c	0.03222327
145	0x3d03aa6e	0.032144956
146	0xbc1e0d15	-0.009646674
147	0x3dacf9cd	0.08446083
148	0xbe02a6b4	-0.12758905
149	0x3cf30d9c	0.029669575
150	0xbbd355d1	-0.006449439
151	0xbe24fbcf	-0.16111682
152	0xbce74083	-0.028229004
153	0x3d807e1d	0.06274054
154	0x3d0c0a78	0.03418967
155	0x3d6c1752	0.057639427
156	0x3d8665d9	0.06562395
157	0xbd0eac84	-0.034832492
158	0x3d2ab64c	0.041677758
159	0x3d8099d3	0.0627934
160	0xbdf6fabd	-0.12059543
161	0xbd3641e0	-0.044496417
162	0x3d9beac9	0.07613141
163	0x3dad5c33	0.08464851
164	0x3c7438ad	0.014906091
165	0xbe1fb647	-0.15596877
166	0x3b27f8d2	0.0025630486
167	0xbd80293f	-0.06257867
168	0xbc52e7ce	-0.012872649
169	0x3d422ef4	0.04740806
170	0x3cb1d87e	0.021709677
171	0xbce47280	-0.02788663
172	0x3c4fab38	0.012675099
173	0x3c496635	0.012292434
174	0xbd992619	-0.0747797
175	0xbe1cd2d7	-0.15314804
176	0xbdf8d49c	-0.12149927
177	0x3dce8cc2	0.10085441
178	0x3cc23db1	0.023711057
179	0xbd13d6f6	-0.036093675
180	0xbd9bcbca	-0.07607229
181	0xbdad33b2	-0.08457126
182	0x3bdc5270	0.0067236945
183	0x3d845ad2	0.06462635
184	0xbcab7ec8	-0.020934477
185	0xbe37813d	-0.17920394
186	0x3d9b29dd	0.07576344
187	0x3d3651ec	0.04451172
188	0xbd90bf6a	-0.07067759
189	0x3d63354e	0.055470757
190	0xbce4782a	-0.02788933
191	0xbd246a3e	-0.040140383
192	0xbd81d96b	-0.06340297
193	0x3d02545c	0.031818733
194	0x3d459db8	0.048246115
195	0xbd976e0a	-0.07394035
196	0xbdbe95cd	-0.09305916
197	0xbb29fa80	-0.0025936663
198	0xbe1335d0	-0.14375997
199	0xbd037b84	-0.032100216
200	0xbd82522b	-0.063633285
201	0x3cc1d454	0.023660816
202	0xbd8d863a	-0.06910367
203	0x3c179822	0.00925258
204	0xbe39c593	-0.18141775
205	0x3d5efa81	0.054438118
206	0xbd1015f6	-0.035177194
207	0xbd66bbc4	-0.05633141
208	0xbe23bb04	-0.1598931
209	0xbd41883f	-0.047249075
210	0xbe1e585e	-0.15463397
211	0xbd234dab	-0.03986899
212	0x3c20dbce	0.0098180305
213	0x3daef806	0.085434005
214	0x3b1ea1ab	0.0024205248
215	0x3d951b1b	0.072805606
216	0x3d9c624b	0.076359354
217	0x3c7a691f	0.015283852
218	0x3d31e51e	0.043431394
219	0xbdaf87f5	-0.085708536
220	0xbc817d76	-0.015806895
221	0x3d37769f	0.04479086
222	0xbd40a30b	-0.04703049
223	0x3d2fecb8	0.042950362
224	0xbdbaa063	-0.091126226
225	0xbe28e15b	-0.16492216
226	0xbd91faf0	-0.07127941
227	0xbe3f5b27	-0.18687116
228	0xbd5d6a1f	-0.054056283
229	0xbaefa79f	-0.0018284208
230	0xbcbf302a	-0.023338396
231	0xbc20d895	-0.009817262
232	0xbd821731	-0.0635208
233	0xbcf0a703	-0.029376512
234	0xbe0cb7ca	-0.13741985
235	0x3db19d71	0.08672608
236	0x3d17169e	0.036886804
237	0xbc5ca00c	-0.0134658925
238	0x3d1ad3f0	0.037799776
239	0xbb8bcf95	-0.004266689
240	0x3d631e5b	0.05544887
241	0xbe28edb0	-0.1649692
242	0x3d9c8068	0.07641679
243	0x3d6d8422	0.05798734
244	0xbdbf4d53	-0.0934092
245	0x3d0eb59a	0.034841157
246	0x3d9a2aa8	0.07527667
247	0x3ca40472	0.020021651
248	0xbd635154	-0.055497482
249	0x3ca08a1e	0.01959711
250	0xbbc837ab	-0.0061101518
251	0xbd8e0ad1	-0.06935657
252	0xbe04601a	-0.12927285
253	0xbcd5179c	-0.026012234
254	0xbd185e3a	-0.037199236
255	0x3d5b4daf	0.05354088

mean.bias f4 [7]
0	0x3e215aa7	0.15757237
1	0xbce9457a	-0.028475512
2	0xbe10b787	-0.1413251
3	0x3def66a8	0.11689502
4	0xbe020459	-0.12696971
5	0x3e24bb5f	0.16087101
6	0x3d11ae47	0.035566594
