kinova-ros/kinova_scripts/src/best_model_episode_100/critic.pth (torch, 152399 bytes, 5 tensors)

fc1.weight f4 [256, 17]
00000000: 7a73 a9b9 067a 24be 7b7a a3be ef0a e33d
00000010: 59f9 44bd 7ca9 5fbd af0a b43d d3b8 693e
00000020: 8e50 c1be f76e e23d e531 89be 93b4 b2bd
00000030: 2f75 04bd 94f8 643e cd82 8cbe 0d39 24be
00000040: 759e 53bd 2c4f 923d de53 963c a7f7 38bd
00000050: 30a4 d4bc 169f bf3d 847b a8be e896 a83e
00000060: f180 a0be 5d25 2f3e c146 15be d1ef a1bc
00000070: d375 683d 54f0 1a3d f750 ee3d b478 0abe
00000080: 2a24 76be bc36 10be cfa1 7fbe 2e9b 50be
00000090: 7d13 b9bd 1115 a7be b23f 8dbe 6633 f83b
000000a0: 1666 cdbd 9cea 67bd 587b 98be b49e e23c
000000b0: 555a d1bd 47e1 313b 74e4 7bbe b942 ce3d
000000c0: 9f22 88be 0e0f 3b3e ee41 a9bd a12b c7bd
000000d0: 5af1 9c3d a8f4 13be 511d f53d 1527 85be
000000e0: 13c6 60be a62b b1bd 8452 bdbd a54a df3d
000000f0: 032b 78bd ec45 383e c295 29be 0915 09be
00000100: fd14 e13c 9453 21be 02c3 283d 0c7a 413c
00000110: 85cf 863d 1321 bdbd e4d6 39be 5d78 6dbe
00000120: ba62 ccbd 72ca 50bd a298 b2bd 8de1 813d
00000130: 53c2 bebd 1040 1d3e 5787 23be 5035 b0bd
00000140: 8957 063e 48c4 cf3d 92ba 49be 3439 13be
00000150: f747 21be 5340 683d 7eea 82bd 3787 09bd
00000160: 495c bdbd 9b48 51be 7e4a 42be 36bf 0bbd
00000170: 1c9f 0ebd 5113 11be 5c0f 1abe 733f 2a3e
00000180: 64b1 45be 9829 633d 7fa6 413d 9e53 de3d
00000190: 069b 2a3d 0fc5 41be ae01 143e 4cee 463e
000001a0: 00dd 35be a46e 1a3e 8041 773b 08af 3ebe
000001b0: 42c2 5b3e f852 83bd d4b9 c73d 4411 813d
000001c0: 28d9 413d b0e3 403d e8ae 5f3e dea2 b5bd
000001d0: 485e 173e e084 e0bc efaf 72be c807 83be
000001e0: 8587 983d 6e88 32be 82ad ee3c efa3 82bb
000001f0: d78e dabd c209 46bd f0a9 0b3e 6890 40bc
00000200: e316 f9bd 328d d43d 2660 e2bd 439c 3d3d
00000210: 85ae 383d b445 5fbe 98bc c53d dbc0 34be
00000220: 4202 60be 7f42 91be 9255 4ebd 6529 4abd
00000230: 0b25 033d cda8 f9bc cb09 3c3e ba62 fa3d
00000240: 08e3 24be 8532 20be b3aa edbc 98e6 023e
00000250: 9f45 efbd 2aac 54bd 7238 8fbe 4e75 2e3d
00000260: 8686 d1bd fc9e 09be 2d2a 683b 63bd 0d3c
00000270: 5744 4b3d e9b7 ad3d bb4b 5d3c bba6 6c3e
00000280: c77f ebbd 5637 7cbd 8e91 09be 52e1 bf3d
00000290: c914 db3d 7f76 9abd f84d 02bb 9f31 cd3c
000002a0: bf47 753e 75d8 1abe 6129 c2be e028 5bbb
000002b0: fbcf 46bc c133 41be 390a 1a3d 4035 0d3e
000002c0: 8e3a b53e 5152 e03d 8235 99be b7e6 a2be
000002d0: 3a77 45be f7e1 613d aef9 df3d 0da3 8e3d
000002e0: 8960 5abe f53d a2bc 4c29 55be 204e efbc
000002f0: 90eb 73bc 2f48 71be a528 4ebe 00c2 5b3b
00000300: c3b6 23be 58af 7bbd e8b3 c2bc e854 e33d
00000310: a055 583e 6067 e7bc 7447 f23d 3e69 1cbe
00000320: e0a2 1d3c 2472 fc3d a421 f0bd 2afd 4fbe
00000330: c8c8 a1be 7d67 76be 2946 8a3c b7cf 8c3c
00000340: f699 80bd e551 75bd 2d18 593e fd06 98be
00000350: d196 15bd ea14 b8be 8428 bebd bd23 1bbb
00000360: fd8d c73e 95de 9abd 88a4 f2be 269b 1cbf
00000370: 64dd 00be 001e fd3d a410 cabc 40ac 27be
00000380: 3227 d0be 178e 8cbd 4e05 40be d136 883d
00000390: 3b91 993d c75d 8a3d be52 873e 3d12 143d
000003a0: b605 0f3e 58d4 02be 0243 4c3e ecc6 15bd
000003b0: cfe8 ad3c e122 85bd 4977 c63c 8409 88be
000003c0: 152c c3bd ed3d b5be 7317 523d 0d7d f7bc
000003d0: 726c 913e ead3 8e3d a46a 61be dde2 bf3e
000003e0: 5ece e3bd 850e 7c3c ed6e e23d e88a 2d3e
000003f0: 31ba 063e 1e48 0ebe 33f8 1a3d 27e0 1fbe
-0.0003232023 -0.16062173 -0.31929383 0.1108607 -0.04808936 -0.054604992 0.087911 0.22824411
-0.3775677 0.11056321 -0.2679588 -0.08725848 -0.032338317 0.2236045 -0.27443543 -0.16037388
-0.05166479 0.07144007 0.018350538 -0.045158055 -0.025957197 0.09356515 -0.32906735 0.32927632
-0.31348374 0.17104097 -0.14577772 -0.019767674 0.05675299 0.03782685 0.116365366 -0.13522607
-0.24037233 -0.1408338 -0.24964069 -0.20371696 -0.0903692 -0.3263326 -0.27587658 0.0075744865
-0.10029237 -0.056620225 -0.29781604 0.027663566 -0.102223076 0.0027142332 -0.24598867 0.1007132
-0.26588914 0.18267462 -0.08264528 -0.097251184 0.07663222 -0.14448798 0.11968482 -0.2600638
-0.2195056 -0.086509034 -0.09244254 0.10902909 -0.060587894 0.17995423 -0.16561034 -0.1338693
0.027475828 -0.15754539 0.0412016 0.011808883 0.0658255 -0.09234824 -0.1814838 -0.23190446
-0.09979768 -0.050974317 -0.08720519 0.063418485 -0.09314408 0.15356469 -0.15969597 -0.086039186
0.1311933 0.101448596 -0.19700077 -0.1437729 -0.15750109 0.05670197 -0.06392382 -0.033576217
-0.092461176 -0.20437853 -0.18973729 -0.0341179 -0.034819707 -0.14167525 -0.15044922 0.16625766
-0.1930595 0.05545959 0.047277924 0.108557925 0.041651748 -0.18922828 0.14453766 0.1942684
-0.17760086 0.15081269 0.003772825 -0.18621457 0.21460822 -0.064123094 0.09752241 0.06302121
0.047326237 0.04709214 0.21844065 -0.08868955 0.14782059 -0.02740711 -0.23699926 -0.25591874
0.07447723 -0.17434856 0.02913547 -0.0039868276 -0.10671776 -0.04834915 0.13639045 -0.011753179
-0.121625684 0.10378493 -0.11053495 0.0462916 0.04508831 -0.21803933 0.09655112 -0.17651694
-0.21875861 -0.28371045 -0.050374575 -0.049355883 0.03201775 -0.030475998 0.1836311 0.12225862
-0.1610223 -0.15644272 -0.02901206 0.12783277 -0.11683201 -0.051922 -0.27972752 0.04259234
-0.102307364 -0.13439554 0.003542553 0.00865111 0.04962572 0.08482344 0.013506825 0.23110478
-0.11498981 -0.06157621 -0.13434431 0.09369148 0.10697324 -0.075421326 -0.0019882899 0.025048075
0.2395315 -0.15121634 -0.37922195 -0.0033441111 -0.012134547 -0.18867399 0.037607405 0.13789845
0.35396236 0.109532006 -0.29923636 -0.31816646 -0.19283763 0.055147137 0.109362945 0.06964693
-0.21325888 -0.019804934 -0.20816535 -0.029212058 -0.014887705 -0.23562692 -0.20132692 0.003353238
-0.15987687 -0.061446518 -0.023767427 0.11100179 0.21126413 -0.028247535 0.11830035 -0.15274522
0.009621352 0.12326458 -0.117251664 -0.20311418 -0.31598496 -0.24062915 0.016879158 0.01718889
-0.06279366 -0.059892554 0.21200629 -0.29692832 -0.036520783 -0.35953456 -0.092850715 -0.0023672425
0.38975516 -0.075619854 -0.47391152 -0.6117424 -0.12584454 0.12359238 -0.024666138 -0.16374302
-0.40654904 -0.06863039 -0.18752024 0.066510804 0.07498404 0.06756168 0.26430315 0.036150206
0.13967022 -0.12776315 0.19947436 -0.03656666 0.021229176 -0.06500793 0.024226801 -0.2656976
-0.09529892 -0.35398808 0.051291894 -0.030210996 0.2840305 0.06974013 -0.22013336 0.3747777
-0.11123346 0.015384321 0.11056314 0.1694752 0.13156964 -0.13894698 0.037834357 -0.15612851

fc1.bias f4 [256]
00000000: 97b5 4dbe 1274 9bbe b2f0 c23d 2f9f d0bd
00000010: a156 713d 7fa4 5abe 68cc 1e3d 66fe 6a3d
00000020: 6e58 1f3e ae4c 85be 7846 26be e0e7 69bc
00000030: 2d1e f6bc b782 a5bd 2f19 593d 38d0 cfbc
00000040: 3e06 373e 936f 5ebe 049b 4cbe cad0 6b3d
00000050: e069 8bbe f7ae fbbd 6a1f 1abe f248 1bbe
00000060: deda 3e3e ee1d 163e a7a0 38be 7e3f 043e
00000070: 3b4e f8bd 96f0 b13d f813 a1bd 82c3 143c
00000080: fa69 013d d2a9 543d f399 85be 2d56 40be
00000090: 9b9e dd3d 16d0 60be 9bf8 8bbe 8283 edbe
000000a0: 9653 18be 1cc8 2abe c6fb 08be 315f 073e
000000b0: 96a0 9dbd 52ed d9bd 2d84 8b3d e1b8 a73c
000000c0: 6f8d b2bd 376d 83be a88c a7bd 0b7b a6be
000000d0: 8a03 61be 6e58 91be 4d00 13be 7f8f 88be
000000e0: ab15 bc3d 87b2 18be d89e 18be eef3 113d
000000f0: 871f 09be 4e07 e63d 4fdc 1b3e cde2 3f3d
00000100: c2e7 83bc 9c51 07be bced d4bd 9510 cdbe
00000110: 19ff 43be 8720 2dbe e6ee 8fbd 39ff ef3d
00000120: c74d 38be 0036 e9bd 055b e63d 0cc3 4d3e
00000130: 59f3 5dbe 15f9 343c 2a1c 8ebe d8cf 9bbc
00000140: 0080 9d3d e615 4ebc e689 febc 97fb a8be
00000150: bfb1 a7bd dcec 77be 3eab ddbd ba67 533e
00000160: e8a9 813d 9422 a3be 2a71 a4be 7aff 5abe
00000170: d5e2 b8be 6eb0 97be 7e01 6d3e a8c8 e1bd
00000180: 7cc2 2cbe 4937 a9bd 75a6 87be 5238 10be
00000190: 3c9b 69bd d371 a5be 4c2e 4fbd 911a 823d
000001a0: 36f1 adbe e050 c8bd 4969 74be 1551 df3c
000001b0: 85be 30be dd92 27be d880 aebd 9ff0 05be
000001c0: cc1e d03d 71f2 b8be 47a8 b4bd 19f2 46bd
000001d0: 2d92 a7be a5e5 c93d a2ef 27be a649 99bd
000001e0: 097c e1bd 357c 26be d890 adbe 07e5 d5bd
000001f0: 4e24 5ebe 2789 1abe decf 90bd 5c51 2f3d
00000200: 0eba d8bd 4e0e 04be 6f18 07bd cd8f 65be
00000210: 6e40 56be f585 b9be 308b bd3d 86a5 fbbd
00000220: 3bdc 0dbe e063 b53c f5ad cabc 88f0 ad3d
00000230: 32dc 26be 9c00 95b8 2542 07be 4666 063d
00000240: 1213 873d 4658 a8be 2277 f53d 57a3 98bd
00000250: 0927 60be 37fb a5bd 1b8f a7be be12 86be
00000260: 6210 b4bd c3bf 0cbe 0d9e 3abd 2169 64be
00000270: b0b0 123e 34be a8be 74e2 f5bd 557e 40ba
00000280: 0341 8cbe 74ac a8be 4ca1 5cbe 01af 57be
00000290: 9715 a2be 36a8 74be 72a2 75be 505d a03d
000002a0: 9970 98be e097 07be 0843 353d 574f b5be
000002b0: a4c3 6d3e 0c09 933d ac94 69be 0a7d 20be
000002c0: e124 46be 6956 003d a196 b7bd 7454 643e
000002d0: 8d25 e5bd 0ff1 40be 7f64 9e3d 9de6 88be
000002e0: 26e8 24be 2d27 93be 6803 51be e277 72be
000002f0: f2e3 c53c 0c8d 283e 6fe8 54be 07d3 bdbd
00000300: 3604 e2bb e1a5 11be 13b6 6dbe ca95 693d
00000310: d52b 05be 9927 76bc eefe 92be 59cc 783c
00000320: 024a 3a3e 1f70 a0be 077e 6abe 1f00 afbd
00000330: 6f4a b8ba 6ccd 6abe 3091 b7be 57c2 1e3d
00000340: 93aa 5fbe edac 3ebd 8874 24be 2be9 9fbe
00000350: 4e33 04be e6ce 96bd d89c 32be a487 f03d
00000360: 378d 033e 2539 8abe 41b0 fdbd 2804 2cbd
00000370: d2c6 493e 7ae9 b3be 2931 633b 0c19 5fbd
00000380: 6137 5bbe ddaa 82bc e7b3 e83d f77b fdbd
00000390: a3a4 eebd 0aa6 113e d89d 5c3e 0595 953d
000003a0: 6729 3dbe 01b1 a4be c118 05be 37dc 0a3e
000003b0: 0b10 b03c 45c0 b63d 1a89 90bd 90a1 84be
000003c0: 87c7 223d b326 5cbe a720 a7bd 0c8a a4bd
000003d0: 80f1 133e fcde 15bd 7fc1 f13c 7f10 35be
000003e0: 52a3 37bd 1620 21be 13bf 6dbd 818c 9abe
000003f0: 0f5a 14be 483d 023d f44e 93be 1c71 92be
-0.20088802 -0.30361992 0.09518565 -0.10186612 0.058920506 -0.21351813 0.038769156 0.05737152
0.15561077 -0.26035064 -0.16237819 -0.014276475 -0.030043686 -0.080815725 0.053002533 -0.025367841
0.17873475 -0.2172225 -0.19981009 0.057572164 -0.27229214 -0.12289231 -0.15051046 -0.15164545
0.18638179 0.14659855 -0.18030034 0.12914845 -0.12124296 0.08688466 -0.07865137 0.009079816
0.031595208 0.051919766 -0.26094016 -0.18782873 0.10821267 -0.21954378 -0.27338108 -0.46389395
-0.14875636 -0.16677898 -0.13377294 0.13219906 -0.07696645 -0.106409684 0.0681232 0.0204739
-0.087183826 -0.25669262 -0.08181125 -0.3251575 -0.21974006 -0.2838778 -0.14355583 -0.2667198
0.0918382 -0.14911853 -0.14904344 0.03563302 -0.13390933 0.11231862 0.1522076 0.046847153
-0.016101722 -0.13214725 -0.10396907 -0.40051714 -0.19140281 -0.1690694 -0.07027988 0.11718602
-0.1799842 -0.11387253 0.11247829 0.20093936 -0.21674861 0.011045714 -0.27755862 -0.019020006
0.0769043 -0.012578463 -0.031071614 -0.33004448 -0.08188199 -0.24211448 -0.108236775 0.20645037
0.06331235 -0.3186232 -0.32117587 -0.21386519 -0.3611056 -0.29626793 0.231451 -0.110246
-0.16871065 -0.08262498 -0.26494184 -0.14083984 -0.05703281 -0.32313403 -0.05058126 0.063527234
-0.33973092 -0.09781051 -0.23868288 0.027260343 -0.17260177 -0.16364618 -0.08520669 -0.13080071
0.10162124 -0.36122468 -0.08821159 -0.048570726 -0.3272871 0.09858254 -0.16400006 -0.074847504
-0.11009986 -0.16258319 -0.3389957 -0.10444074 -0.21693537 -0.15091382 -0.070708975 0.0428022
-0.10582362 -0.12896082 -0.032982286 -0.22418137 -0.20923015 -0.36235014 0.092550635 -0.122874305
-0.13853543 0.02214235 -0.024741152 0.08493143 -0.16294935 -7.104987e-05 -0.13208826 0.03281238
0.06595434 -0.32879847 0.119856134 -0.074530296 -0.2188989 -0.08104556 -0.32726368 -0.26186174
-0.08792187 -0.13745026 -0.045560885 -0.22305728 0.14325213 -0.32957613 -0.12006083 -0.00073430437
-0.2739335 -0.3294407 -0.21545905 -0.21062852 -0.31657097 -0.23892292 -0.23987749 0.07830298
-0.29773405 -0.1324153 0.04425338 -0.35412094 0.23219162 0.0717946 -0.2281062 -0.15672699
-0.19350006 0.031332407 -0.08964277 0.22297841 -0.11188803 -0.18841957 0.07734012 -0.26738444
-0.16104183 -0.28740826 -0.20411456 -0.23678544 0.024156544 0.16460055 -0.20791791 -0.09268766
-0.0068974746 -0.14223434 -0.23213987 0.057027616 -0.13005002 -0.015024089 -0.2871012 0.015185439
0.18192294 -0.31335542 -0.22899638 -0.08544945 -0.0014060269 -0.22929925 -0.35852957 0.038759556
-0.21842413 -0.046551634 -0.16060078 -0.3123258 -0.12910196 -0.073636815 -0.17442644 0.117446214
0.12846838 -0.26996723 -0.123871334 -0.04199615 0.1970475 -0.35139066 0.0034666753 -0.054467246
-0.21407844 -0.015950615 0.11362439 -0.1237716 -0.11652496 0.14223495 0.21544588 0.07303814
-0.18472825 -0.32166293 -0.12997724 0.13560568 0.021492025 0.08923391 -0.070574 -0.25904512
0.039741065 -0.21499138 -0.08160525 -0.08034143 0.14447594 -0.036589608 0.029511211 -0.17682074
-0.04483349 -0.15734896 -0.05804355 -0.3018532 -0.1448748 0.031796724 -0.28771174 -0.2860192

fc2.weight f4 [128, 256]
00000000: 0f11 8b3c 4577 593d 80f9 d2bc c6f4 7dbd
00000010: 42b3 223d f79b 3dbb e451 0abd ae21 9c3c
00000020: b8ce a0bc aced 363d fa8d 76bd c0ba 473d
00000030: fab7 8cbd 0d92 cbbc 2963 a5bd 0651 5f3d
00000040: bb85 f4bc 72eb 103d d46b 1fbd 436d 12bd
00000050: c0df 3abd 31e0 c9bd 0eea 45bd c5c5 d63c
00000060: 5c59 2c3d 5cd4 563d 8429 97bd c674 26bd
00000070: 009e 063a 6750 d33b 5b90 a53b 7695 93bd
00000080: f3d6 79bd e260 373d 1145 ac3c c0b4 58bd
00000090: 22aa 0b3d 9099 db3c 7260 6a3c a189 113b
000000a0: 6f08 65bc 4c9d a4bc 66fe 3f3d e2dd 4f3d
000000b0: 459d 07bd 901a 62bd ab89 acbd ab36 5b3d
000000c0: c4a3 d23c 5dac fc3c 8b09 bcbc 3b3f 223d
000000d0: c797 f2bc dcb5 96bc 49a6 86bd 4aef 69bd
000000e0: 859f fcbc 957f 32bd 4657 403d 788c 71bd
000000f0: 1164 70bd e355 a7bd 14cf 253d dc28 c23b
00000100: f9c9 f33b 6138 fdbc 5ba8 a7bb ce02 83bd
00000110: 5a7e 62bd 300b 363d 31c0 d8bc bb95 83bd
00000120: 398a 4bbc c8cc df3c c3ae 8cbd 78c1 54bc
00000130: 1e16 333d 80e0 15ba f0ec 303d c8c2 473d
00000140: 27e4 75bd 42cd f33c 206b 5cbc a45c 0c3d
00000150: 244a 2d3c 40b9 08bc 885c a03c 7adc 3f3d
00000160: 7e90 aabd dc9d 483d 95ca 263d 7f3d 16bd
00000170: 004a ecbc 05cf cfbc 4669 6dbd ec31 e4bc
00000180: 10d6 32bd a0d6 40bd 00a7 5ebb 6313 11bc
00000190: b4b2 40bd 915f f4bc ce4f 7d3d cf40 25bc
000001a0: 4a17 84bd 09de 91bd cf94 093d a204 4ebd
000001b0: 4b99 413d 8637 56bd e2c1 8dbc 70db 2fbc
000001c0: 5352 3f3b 26ee a53b 3513 ae3b fa9a 173d
000001d0: 8707 47bd cb82 5cbd d87e d4bc 303d ba3c
000001e0: ca54 173d 508b 0dbc cd0b 4fbc a875 643d
000001f0: 480c 15bc 68c7 153d 9c2e c2bc 901e a63d
00000200: ca46 793d 2018 2b3d 62b8 b6bc 99cc 883c
00000210: 116a 7e3b a03f 583d 7a1a 4fbd 476d 83bd
00000220: 1821 5abc 848e 33bd da75 e43c f807 5bbc
00000230: d7c7 463d 9e81 63bd 80f6 ff3b bf31 32bc
00000240: a6f5 11bd b006 1e3d 1944 8cbb e077 cf3b
00000250: 785b 3ebd 51f3 90bd 4ec1 173d 5797 b3bc
00000260: e4c9 cc3c 4091 a5bc 5d3c 53bd 0a86 2a3d
00000270: 8b9e 033d 40c2 37bc 0e1a 053d a2ce 96bd
00000280: 3168 2fbd 7564 923c bfe1 21bd fd90 6bbd
00000290: 4690 eebd 4037 3abb ac2c 113c ddee 75bd
000002a0: b09e 273d 7e5a d2bc 108e 823c 12cf 3bbd
000002b0: 1c79 633d 1207 37bd 8cd1 c13c b0f7 7fbd
000002c0: 2283 9fbc ea81 4d3d eb34 2d3c 34c3 c5bc
000002d0: b800 eb3c e93f 11bd b65a 02bd 589b 4dbc
000002e0: 3dcb 253d 02f3 043c ea39 57bd 50ba e83c
000002f0: 912a 87bc 6414 5d3d e21b f4ba 95a6 e2bc
00000300: a961 ccbc 17c0 a1bc 883b 28bd 4913 13bc
00000310: af66 5abd 7734 aabd 2fdc 62bd ce12 283d
00000320: bf7e 21bc eff9 cebc b38d 0bbd 187d 7f3d
00000330: f08c 063d 57f9 8dbc e26e ad3c d421 393d
00000340: 9496 7b3d 0abf 773c e8c5 153d 36b4 cbbc
00000350: c3f0 18bc 2af3 933d 6b5c 92bd 566b 063c
00000360: c964 083d 8039 59bd 0ed5 05bd e11d 0ebd
00000370: 4fba ae3b 3a8f b4bc 2730 93bd a42e 40bd
00000380: db2a 163c 8d43 6ebd b2c3 5d3d 6042 0e3c
00000390: 8a19 b53c 8c49 d03c e204 5ebd 5bc5 dc3c
000003a0: 57bc 9039 1cc7 efbb edcb 58bb c991 4fbd
000003b0: 3fcd c9bc 5834 3cbc f240 1e3d 47ea 7fbd
000003c0: 8337 48bd ddbf 343d 3a34 e93c d988 2a3d
000003d0: 00e8 b4bc bba8 81bc d2d0 b7bd c843 9cbd
000003e0: e28c eebb a8ca 83bc b893 b3bc 6137 03bd
000003f0: 3e25 16bd 8a88 2e3d 6418 db3b cb25 17bc
0.016975908 0.05309226 -0.025753736 -0.062001012 0.039721735 -0.0028932074 -0.033769503 0.019059028
-0.019629821 0.044660255 -0.060193993 0.048762083 -0.06871028 -0.024849916 -0.08075554 0.05452063
-0.029848924 0.03538079 -0.038921192 -0.03574873 -0.04562354 -0.09857214 -0.048318915 0.02621735
0.042077407 0.052448615 -0.07380965 -0.040638708 0.0005135238 0.0064487937 0.005052609 -0.07206242
-0.060996007 0.04477013 0.021029027 -0.05290675 0.0340978 0.026806623 0.014305221 0.0022207277
-0.0139790615 -0.020094536 0.046873473 0.050748713 -0.03310897 -0.055201113 -0.084246956 0.053518932
0.025712855 0.030843908 -0.02295377 0.039611083 -0.029613389 -0.018397264 -0.06574685 -0.05711297
-0.030837784 -0.043578703 0.04695823 -0.058971852 -0.05868918 -0.081706785 0.04048069 0.005925281
0.0074398485 -0.030910673 -0.005116505 -0.06397019 -0.05529628 0.044444263 -0.026458832 -0.06425043
-0.012423092 0.027319327 -0.06869271 -0.01298558 0.043722264 -0.0005717352 0.04319471 0.048769742
-0.060032036 0.02976096 -0.013453275 0.034268036 0.0105767585 -0.008344948 0.019575372 0.046841122
-0.08328341 0.04897867 0.04072054 -0.03667974 -0.02884388 -0.02536727 -0.057961725 -0.027855836
-0.043661177 -0.047079682 -0.0033974051 -0.00885472 -0.047045425 -0.029830726 0.061843686 -0.010086252
-0.064497545 -0.07122428 0.03358918 -0.050297387 0.047265332 -0.052299045 -0.017304365 -0.01073347
0.0029193356 0.00506379 0.0053123483 0.03701303 -0.048591163 -0.05383567 -0.02593939 0.022734255
0.036946096 -0.008639172 -0.012637091 0.05577627 -0.009097166 0.03656712 -0.023703866 0.08111298
0.060858525 0.041771054 -0.022304717 0.016699122 0.0038820545 0.052795053 -0.05056236 -0.064173274
-0.013313554 -0.043837085 0.027888227 -0.013368599 0.048530426 -0.055543534 0.0078113675 -0.010876118
-0.03563466 0.038580596 -0.004280579 0.006331429 -0.04647395 -0.07077659 0.037049584 -0.02192275
0.024998613 -0.020210862 -0.05157124 0.041631736 0.03213362 -0.011215746 0.03249555 -0.07363631
-0.042823974 0.017870167 -0.03952193 -0.05751132 -0.11648612 -0.002841428 0.008860748 -0.06004225
0.04092282 -0.025677916 0.015936881 -0.045851775 0.05553542 -0.044684477 0.02365949 -0.062492073
-0.019471709 0.050172724 0.010571699 -0.024140932 0.028686866 -0.03546134 -0.03182479 -0.012549244
0.040477026 0.008114578 -0.052545466 0.028409153 -0.01649979 0.053974524 -0.0018624032 -0.027667323
-0.024948912 -0.019744916 -0.0410724 -0.008976766 -0.053320583 -0.08310788 -0.055385765 0.04103356
-0.009856879 -0.025265662 -0.03407068 0.062375158 0.032849252 -0.017330809 0.021171037 0.045198277
0.0614229 0.015121231 0.03656569 -0.024866205 -0.009334746 0.07224114 -0.071465336 0.008204302
0.03329924 -0.053033352 -0.032673888 -0.034696463 0.0053322683 -0.022040952 -0.07186919 -0.04691948
0.009165491 -0.05816989 0.054141708 0.008682817 0.022106905 0.025425695 -0.054203875 0.026949575
0.00027606144 -0.007317437 -0.0033080534 -0.05067614 -0.024634002 -0.011487089 0.038636155 -0.062479284
-0.048881065 0.044128288 0.028467286 0.041634414 -0.022083282 -0.015827527 -0.08975376 -0.07630116
-0.007279978 -0.016087845 -0.021921024 -0.032035235 -0.03665661 0.042610683 0.006686257 -0.009225319

fc2.bias f4 [128]
00000000: 8679 21bd 5a62 0ebe b5c8 0bbe a1c1 f3bd
00000010: 0812 dabd 0773 10be e62d c9bd 3c92 37bd
00000020: b4ff 1bbe ca01 b6bd e037 cbbd 665b 89bd
00000030: ba9c 2fbd 3316 32be 3af1 6fbd 681a 9dbd
00000040: d975 8dbe 7059 29be 9667 0bbe 9f57 d9bd
00000050: 956e 58be ea25 85bd 8b8c 9bbd e57b 09bd
00000060: 4b0f 28be 60e6 07be 5ef8 88be 6681 02be
00000070: 91f5 29be 5a99 6ebe 83b2 5cbd f497 c5bd
00000080: 9faf adbe 3acc 84bd 912f bdbc 7334 9fbd
00000090: 6d3d 0dbe 0418 80bc 8b35 1ebe ba4f c8bc
000000a0: 152e 68bd 0576 3cbe a8e9 c53f 77b7 75be
000000b0: 3a3f 82be 612a d8bd 9fbb 13be ea60 ffbd
000000c0: 5d58 1abe a90a 12be 0fbf 13be f459 febd
000000d0: 4790 6fbe 5936 5ebe 44d4 d8bd fd46 9cbe
000000e0: 49ab 80be 182c 3abe f322 51bd d62a 71be
000000f0: 9541 b8bd 2fe9 96be 92de 7bbd b3ea b1bd
00000100: 2e4c fcbc fbe8 a1bc a85b 71be fafa 53be
00000110: e3f8 443d 45d8 fabd 43db 06be 3ca6 2fbe
00000120: 9231 56bd 26c7 f0bc f6f0 d6bd f864 aeae
00000130: b6bd d0bd f87c 42bd 5631 b1bd 3629 75be
00000140: 7e1c adbd 0a01 99bd bd4d 18be b193 38be
00000150: 12e3 47be 2802 a0bd a7bd ff3d 96d7 12bd
00000160: c7d5 81be 0188 46be 2033 22be eb87 25be
00000170: 743d 6abe 75aa 2ebd 503c 32be ed4e 12be
00000180: 0b1f 163e 2e89 40be 0da9 eabd 0b1c 7abe
00000190: 462a d4bd 4620 8abd 2712 92be d1ef 0cbe
000001a0: fc92 5bbc ae4d 13be 2206 ebbd 0532 96bd
000001b0: 67de debd bc0a 38be 709a 2dbe e8b8 08be
000001c0: 4d59 68bd 7636 c0bd 91c2 b6bd c7a4 44be
000001d0: 043a 26be 0b36 2dbd 5787 e8bd 74d1 24be
000001e0: 92fb f8bd 7cc7 3dbe bdd6 2ebe b832 d4bd
000001f0: 81bd 8cbd 381d f8bd 94a4 17be e153 c2bd
-0.039422534 -0.13904706 -0.13650782 -0.11902166 -0.106479704 -0.1410638 -0.098232076 -0.044817194
-0.15234262 -0.0888706 -0.09922767 -0.06706886 -0.042874075 -0.17391281 -0.05857966 -0.07671052
-0.27628973 -0.16538024 -0.13613734 -0.106124155 -0.21135934 -0.06501372 -0.07595166 -0.03356542
-0.16412084 -0.13271475 -0.2675199 -0.12744674 -0.16597582 -0.23300686 -0.05388118 -0.096481234
-0.3392305 -0.064842656 -0.02309397 -0.07773676 -0.13792963 -0.015636452 -0.15450113 -0.02445208
-0.056684572 -0.18404396 1.5461931 -0.23995768 -0.25438863 -0.10554958 -0.1442704 -0.12469657
-0.1507277 -0.14261879 -0.14428352 -0.12419501 -0.23394881 -0.2170042 -0.105873615 -0.3052291
-0.2513068 -0.18180883 -0.05105872 -0.23551497 -0.08996884 -0.2947478 -0.061491556 -0.086873434
-0.030798044 -0.019764414 -0.2357012 -0.20701209 0.04808892 -0.122482814 -0.13169579 -0.17153257
-0.052293368 -0.029391836 -0.104951784 -7.9305396e-11 -0.101924345 -0.04748246 -0.08651988 -0.23941502
-0.084527 -0.07470901 -0.14873405 -0.1802509 -0.19520214 -0.07812911 0.12487345 -0.03585013
-0.25358412 -0.19387819 -0.15839815 -0.1616513 -0.22875005 -0.04264303 -0.1740582 -0.1428792
0.1466028 -0.1880233 -0.11458025 -0.2442476 -0.103596255 -0.06744437 -0.28529474 -0.13763358
-0.013401743 -0.14385101 -0.11475779 -0.07333759 -0.10882264 -0.17972845 -0.16953444 -0.13351786
-0.05672579 -0.093853876 -0.08923829 -0.19203483 -0.16233069 -0.042287868 -0.11353939 -0.16095525
-0.12157358 -0.18533128 -0.17074104 -0.10361236 -0.068720825 -0.12114948 -0.14808875 -0.09488655

value.weight f4 [1, 128]
00000000: 6cc2 4b3b 27c6 aa3d 7536 2e3b 68f1 01bc
00000010: 0bd0 e9bd d723 35ba 37a4 a8bd 4e46 8dbd
00000020: 478f 6d3d 5102 823c 074e 03bb 5d69 b6bd
00000030: 6a2c 9e3c af7c 47bd 75fb 09be 59ff 433d
00000040: 4118 b3bb c1ff da3d 627b 453d 89bd b43b
00000050: 4421 b2bc 8159 babc 8446 163c ec51 173d
00000060: 6a4b 543a a22e 343d 0914 7b3c ec7b 58bd
00000070: 7ad8 e3bd b1dd 8bbc d5bd c23d 60cc 0d3b
00000080: 8e73 8dbd 1adb d23c 4595 e93c 1fee a83b
00000090: a768 0f3d c678 04bd d4bb f53a 24f0 42bb
000000a0: f3ae 79bc ae1c 903c 23b4 4cbe ebcc 48bc
000000b0: 81cf b8bd fc31 cc3c 1ef5 d73c f577 1d3d
000000c0: ff3a c13d 6972 853b 26a5 dbbc 42c6 5d3d
000000d0: 0110 9cbd 4be8 f83c 58eb 3a3e 4cbe b8bd
000000e0: f88e 77bd ef00 a63d f22d 5a3c 99af 86bd
000000f0: 0bd1 b93d d5a0 843d c56f 8a3c 3dfe c2bd
00000100: b42b 483d 71d7 7137 4852 b93d 39f9 8c3d
00000110: 6736 d2b7 4582 4d3c c529 b2bd 2c73 3ebd
00000120: f83c 26bb 7beb 413c a280 883c 6a66 74ae
00000130: 8d3f 923c 187a 5f3b 4d16 00be ee7e ad3c
00000140: 445b 0b3d 97aa d23c cc9a c2bd 005f c33c
00000150: 7c8e aebd d938 973c db49 df38 65d3 dabb
00000160: e906 2d3d ee38 5bbd 91b8 963b 0744 c0bd
00000170: 4db1 fbbd 9c71 28bd 07b1 afbb 965a 3bbd
00000180: 8e0d e33c e0d1 a43d a230 763c d888 45bd
00000190: 85bb a53d 9466 8dbd 9a77 613d 09c1 2f3c
000001a0: b2f5 7c3c 6b30 cebd d7fc 23bd f81a c3bd
000001b0: 0981 85bc 6356 813b 86fd 9f3d bf8a 073c
000001c0: 1b35 2b3d a2fd c63c bea3 78bd bde3 203d
000001d0: 824f 98bc 0047 b63d 7d1f 2ebd 83e1 603b
000001e0: d973 74bc de14 423d aac9 91bb a0f9 9cbc
000001f0: c9e2 f63c 5ede 05be ad48 aebb 53b2 e4bd
0.0031091226 0.08338576 0.0026582752 -0.007931091 -0.11416634 -0.00069099426 -0.082344465 -0.06898175
0.057997968 0.015870245 -0.0020035522 -0.08906815 0.019308288 -0.048702892 -0.1347483 0.04785094
-0.005465538 0.106933124 0.04821337 0.0055157584 -0.021744378 -0.022747757 0.009172086 0.03694336
0.0008098396 0.043989785 0.015324601 -0.052852556 -0.11125274 -0.017073484 0.09508864 0.002163671
-0.06906806 0.025739241 0.02851356 0.0051553394 0.035011914 -0.03234174 0.0018747994 -0.0029745186
-0.015239465 0.0175918 -0.19990592 -0.0122558875 -0.09023953 0.024926178 0.026361998 0.038444478
0.09435081 0.0040724766 -0.026812147 0.05414415 -0.0762024 0.030384203 0.18253839 -0.09020671
-0.06043908 0.08105647 0.013316618 -0.06576461 0.09073075 0.06475989 0.016898999 -0.09521148
0.048869804 1.4414881e-05 0.09048897 0.06883473 -2.5059284e-05 0.012543266 -0.08699373 -0.046496555
-0.002536593 0.011835928 0.0166629 -5.557014e-11 0.017852569 0.0034099873 -0.12508507 0.021178689
0.034022585 0.02571611 -0.095021814 0.02384901 -0.085232705 0.018459724 0.00010647225 -0.006678032
0.04224292 -0.05352109 0.0045996387 -0.09387975 -0.12289677 -0.04112397 -0.0053616795 -0.045740686
0.027716424 0.08047843 0.015026243 -0.048226207 0.08092407 -0.06904331 0.0550457 0.0107271755
0.015439438 -0.10067829 -0.04003605 -0.09526628 -0.01629688 0.0039470657 0.07812028 0.008272826
0.041798692 0.024290863 -0.06070303 0.03927969 -0.0185926 0.08900261 -0.0425105 0.0034314103
-0.014920198 0.04738318 -0.004449089 -0.019162 0.030137436 -0.13073108 -0.005318722 -0.11166825
