kinova-ros/kinova_scripts/src/best_model_episode_100/critic_{current_time}.pth (torch, 152903 bytes, 5 tensors)

fc1.weight f4 [256, 17]
00000000: 07f4 223d 9010 fabd aab6 9fbe ebd7 063e
00000010: c7f1 9cbc 0569 fdbc 0333 863c dd60 9b3e
00000020: dfb4 f7bd 0b26 7c3d 6289 733c c186 5dbd
00000030: 4b85 503d fe71 033c 57e3 23be 3969 6dbd
00000040: beff a33c 823e 60bd 3a0e 843d e6f8 363d
00000050: 6dd9 35bd e61d 1c3e 0259 85be 4832 e03e
00000060: a1b1 623c af8f 123e 91c0 dabe 9328 f2be
00000070: 1d2d 95be b2f4 80be f2af 43be 7422 6fbe
00000080: 4150 30be dd26 293e 8a49 37be dc63 ddbd
00000090: 391d 7e3b e9b7 68be 6e0f 37be a734 9c3d
000000a0: 3b50 49be 2da1 00bd 2185 58be 5ef7 8fbd
000000b0: c480 88bd e5e2 18be 3a46 77be b2b5 183e
000000c0: 0e40 d8bd 5b15 493e 0904 533d 99cd 29bd
000000d0: 9e35 3e3e 2be7 12bd 9d26 4b3e 99be 3cbe
000000e0: c674 c2bd 0e88 26be e845 79bd 2387 e63c
000000f0: 6da3 c2bd 71fe 543e 0b1b 77be 993e f5bd
00000100: 1738 48bd 2c35 17bd 4bee c4bc aab8 333e
00000110: 1195 ba3d 4a65 97bd 1533 2ebe 04df 5dbe
00000120: 1d1e 9cbd 8afa 10bd 6609 debd 6eb8 1c3d
00000130: 563c 65bd b03e 593e 5def 92bd bf05 acbd
00000140: f666 0e3e 345d b23c d643 dbbd 04eb dfbd
00000150: 8875 8fbd ceeb ed3d 85af 523c 65fd 5e3d
00000160: 6c6d 10bc 4013 10be 663e dabd 2795 dcbd
00000170: 740d 71bb d921 dcbd 8ee5 47be 5460 473e
00000180: 8fe2 89be d759 1d3e 7f33 303d a097 653e
00000190: 54de f23d cde8 9dbd ae01 143e 4cee 463e
000001a0: 00dd 35be a46e 1a3e 8041 773b 08af 3ebe
000001b0: 42c2 5b3e f852 83bd d4b9 c73d 4411 813d
000001c0: 28d9 413d b0e3 403d e8ae 5f3e dea2 b5bd
000001d0: 485e 173e e084 e0bc efaf 72be f460 57be
000001e0: 176c de3d bf31 22be f493 5d3d 1768 1b3d
000001f0: 2b77 a7bd 49eb acbd 706a ee3b 0d87 d83c
00000200: 6573 8a3d d6dd 8e3e 1360 c9bd 3218 6b3b
00000210: f17f fbbd fd69 55bc 8e76 0c3e 2a3a e53c
00000220: ddf0 acbd c648 96be 7027 8ebd 518b 22bd
00000230: 838f b83c 772e b3bc 61ca f03d 6ad9 96bd
00000240: ac48 e9bd 99ef dcbd 042a 3e3e 7449 203e
00000250: d33d 2fbe 59f9 32be af39 0cbe 1f96 f6bd
00000260: e06a 08be 2508 8ebe f6c1 0abd ef03 9fbd
00000270: 8cf1 a0bd 9027 3bbd 32c1 1cbe bcd6 bf3e
00000280: cdc1 2d3e 186e c43c c967 f4be b641 a3be
00000290: d5d4 49be ba1f bdbe ce42 46be e7cf 91be
000002a0: 536e f23c ab5a b63d 781e a5be 8791 16be
000002b0: f896 17be b33c d1be e5e6 bcbd 99cc efbd
000002c0: 602c 6d3e e5b7 09be 75f6 45be 4481 62be
000002d0: 4e7c d9be da8c 7bbe 7cfc 0abe f049 d5be
000002e0: 5104 563d 293d c63d 8d3c 3cbd 204e efbc
000002f0: 90eb 73bc 2f48 71be a528 4ebe 00c2 5b3b
00000300: c3b6 23be 58af 7bbd e8b3 c2bc e854 e33d
00000310: a055 583e 6067 e7bc 7447 f23d 3e69 1cbe
00000320: e0a2 1d3c 2472 fc3d a421 f0bd 2afd 4fbe
00000330: ddff 94bd 2b09 61be 5bdf babc 8135 cabb
00000340: b0bc 70bd 179e b2bd 5314 433e 5a06 55be
00000350: 1115 a73e 637a cebd adc4 37bd 5e3d f43c
00000360: 8689 553e 72b7 8abe 1928 97bd f249 2b3e
00000370: df2e 943c 348c 763c 3ca6 743d d2d1 a1bd
00000380: 0321 a8be 8e80 d53b 6184 dcbd 782b 23bd
00000390: 6c78 263e ca8d c4bd 475b 0e3e dfef fdbc
000003a0: 0dca 2a3e be96 93be 259b 4b3d 1582 11bd
000003b0: 8ee6 713e fcb9 1b3e 202f 3cbc e94f 54be
000003c0: 619a a6bd ad2d b2be dc5d d1bb bb1b 23bd
000003d0: dd6f 883e 8528 bc3e 74b5 99bd c615 283e
000003e0: e54f 82bd 4b7b 2b3d 756e 92bc fc69 843d
000003f0: eeca 8a3e 12e4 36bc 585f 143e e090 11be
0.039783504 -0.1221019 -0.3119405 0.13168304 -0.019158257 -0.030933866 0.016381746 0.30347338
-0.12095045 0.061559718 0.014864298 -0.05408359 0.050908368 0.008022783 -0.16004692 -0.057961676
0.020019408 -0.054747112 0.06448026 0.04467096 -0.044396807 0.1524578 -0.2604447 0.43788362
0.013836295 0.14312623 -0.42725042 -0.4729658 -0.2913598 -0.25186688 -0.19110087 -0.23352987
-0.17218114 0.16518731 -0.17899147 -0.10810062 0.0038774742 -0.22726406 -0.1787698 0.0762723
-0.19659512 -0.03140371 -0.21144535 -0.070296034 -0.06665185 -0.14930303 -0.24147883 0.14913061
-0.105590925 0.19637053 0.05151752 -0.04145584 0.18575141 -0.03586499 0.19838949 -0.18432082
-0.09494929 -0.16262838 -0.060857683 0.02814061 -0.09503827 0.20800187 -0.2413141 -0.1197483
-0.048881616 -0.036915943 -0.024039408 0.17550912 0.091104634 -0.07392366 -0.17011674 -0.21667105
-0.07622931 -0.035395183 -0.10841636 0.038261823 -0.055965744 0.2121532 -0.07174561 -0.083995335
0.13906464 0.021772958 -0.10706298 -0.109334975 -0.07004839 0.11617242 0.01285923 0.054440875
-0.008815151 -0.14069843 -0.10656433 -0.10770636 -0.00367817 -0.107486434 -0.19521162 0.1947034
-0.26930663 0.15366302 0.04301786 0.22421122 0.11858812 -0.07710419 0.14453766 0.1942684
-0.17760086 0.15081269 0.003772825 -0.18621457 0.21460822 -0.064123094 0.09752241 0.06302121
0.047326237 0.04709214 0.21844065 -0.08868955 0.14782059 -0.02740711 -0.23699926 -0.21033078
0.1086046 -0.15839289 0.054096177 0.037941065 -0.08177026 -0.084433146 0.007275872 0.026431585
0.06760291 0.27903622 -0.09832778 0.0035872576 -0.12280262 -0.013025758 0.137171 0.027981836
-0.084443785 -0.29352397 -0.06941116 -0.039683644 0.02252937 -0.021872742 0.11757351 -0.07365687
-0.11390814 -0.10787887 0.18570715 0.1565302 -0.17113428 -0.17477931 -0.1369388 -0.12040352
-0.1332202 -0.2774059 -0.03387638 -0.07764422 -0.078585714 -0.045692027 -0.15308073 0.37468517
0.1696846 0.023978278 -0.47735432 -0.3188607 -0.19710095 -0.36938268 -0.19361421 -0.2847893
0.029593622 0.08904012 -0.32249808 -0.14703952 -0.14803684 -0.40866622 -0.09223727 -0.11708946
0.23161459 -0.13449056 -0.19332297 -0.22119623 -0.4247765 -0.2456545 -0.13572878 -0.41657972
0.05225021 0.09679634 -0.045956183 -0.029212058 -0.014887705 -0.23562692 -0.20132692 0.003353238
-0.15987687 -0.061446518 -0.023767427 0.11100179 0.21126413 -0.028247535 0.11830035 -0.15274522
0.009621352 0.12326458 -0.117251664 -0.20311418 -0.072753645 -0.21976154 -0.022811582 -0.006170929
-0.058773696 -0.087215595 0.19050722 -0.20803204 0.3263326 -0.10081937 -0.0448653 0.029814418
0.20853242 -0.27093083 -0.07380695 0.16727427 0.018088756 0.0150480755 0.059728846 -0.07901348
-0.32837686 0.006515569 -0.10767437 -0.039836377 0.16256875 -0.095973566 0.13902007 -0.030998169
0.16678639 -0.28825945 0.049708504 -0.035524447 0.23623106 0.15207666 -0.011485845 -0.20733608
-0.08134914 -0.34800473 -0.0063893627 -0.039821368 0.26647845 0.36749664 -0.075053126 0.16414556
-0.06362895 0.04186563 -0.017874936 0.064655274 0.27107948 -0.011162775 0.14489496 -0.14215422

fc1.bias f4 [256]
00000000: df15 26be 0708 a3be 09e5 463e 1b7f c0bc
00000010: c02c a13d ac49 0ebe 68cc 1e3d b01a bd3d
00000020: 5f8f 283e fc56 c5be 84af b6be e0e7 69bc
00000030: 53b7 e3bc 3985 bf3b ce87 753d abfb d0bc
00000040: 1362 3e3e f5a3 17be dced 62be 101f b93d
00000050: 645e 6fbe a682 67be 6a1f 1abe ec23 21be
00000060: f4fe 5a3e 3a6a 4b3e 52d1 8cbe 7e3f 043e
00000070: a9f1 17be ae55 ec3d 0089 22ba b99c 683d
00000080: 63cc 08bc 5dcf d33d af5c 99be 3496 0cbe
00000090: c0fb 4a3e d5b1 c6be 5e3a 99be 817e c3be
000000a0: c287 f5bd 1cc8 2abe c6fb 08be c836 3c3e
000000b0: 8e94 0cbd 841b b8bd 3c5a 983c 6fa3 123e
000000c0: 20c9 85bd 4b37 d1be 7c85 b1bc b595 a7be
000000d0: 7d2d 9bbe 4d58 53be 304c 0abe aaeb f4be
000000e0: 27cf 283d 1fa1 0bbe d89e 18be f8db a83c
000000f0: 5f9c d7bd 335f f93d fe3c 423e 2d45 033e
00000100: c1ae f0bd f963 05be 2047 e5bd 9e3e b5be
00000110: 91e5 07be 8720 2dbe 6dde 0dbd 3fd3 053e
00000120: 355e 67be 170c 8cbd e683 163e 842a 753e
00000130: 5602 09be 0099 163d dc26 4dbe d8cf 9bbc
00000140: 14df 303e aab5 9b3d 4a75 91bd 277d b5be
00000150: 2925 e3bd f702 4fbe 8284 01be ba67 533e
00000160: dcbe 563d 6edc 5cbe 80de 98be ff0b 0ebe
00000170: 1870 06be 53a1 3dbe 7e01 6d3e 43b5 0fbc
00000180: 7cc2 2cbe 36ed dfbd 97d9 54be f6cb 8dbd
00000190: dbfb 16bc 059c a0be 4c2e 4fbd 9815 bb3d
000001a0: fec8 8fbe 4866 c0bd e8b6 41be 0de3 9b3d
000001b0: cf33 a1bd 403e 93bd c170 643c 8eb4 8cbe
000001c0: 9ec6 513d 6c11 cfbe 0fa3 95bd af53 eebd
000001d0: 7411 cfbe e778 003e 691b 1abe 0085 8cbd
000001e0: 40c5 91bc 82bd 0ebe 1c60 bfbe 03b8 a6bd
000001f0: 52ba 73be 2789 1abe 2e8a 92bc bbb2 be3d
00000200: 0eba d8bd 4e0e 04be b9ec 343d afb5 55be
00000210: d892 3cbe 4da4 babe 8cde 983d 4369 14be
00000220: 3bdc 0dbe e063 b53c 79e5 5abc 88f0 ad3d
00000230: c5ba ddbd 5653 8f3d 74ec 0ebe 7c03 cc3d
00000240: df5e c33d 3ddb 8cbe 2a60 963d f061 913c
00000250: 289a 71be 7f34 b6bd 4533 5fbe a16a 7abe
00000260: 6210 b4bd 4559 82bd c6d2 a43b ffe4 b6bd
00000270: 4e8c 483e 6126 86be 18f0 d3bd 04b5 853d
00000280: 04c0 8abe 8b2a 8dbe bb79 c8be dde4 54be
00000290: 3fda 68be d077 83be 9585 88be afa0 493b
000002a0: 476f a3be ac09 23be a74c 4dbd 6cec dbbe
000002b0: a4c3 6d3e 0c09 933d 4aeb 08be 0792 68be
000002c0: b2f2 acbe 9a57 4b3c 2271 b0bd 9e8e 443e
000002d0: d891 a1bc f468 1bbe f0f1 d33d 5d76 a2be
000002e0: 5c38 53be ba30 45be 4c14 7abe 6960 4dbe
000002f0: abe0 9b3d 0c8d 283e 011a afbe 7a91 4cbe
00000300: 2034 623c 8c20 1bbd 3d44 47be fc11 bb3d
00000310: 2764 e5bd 927f e83d a900 5cbe 5037 c83d
00000320: c178 323e bd68 41be 6c0d 25be b05c 2bbd
00000330: d022 363e 5435 31be da33 9dbe 8415 083d
00000340: 5aec 80be 201d e13c 3aa0 1dbe 0fe8 abbe
00000350: c863 47be 139a edbd 0484 1ebe ecbb 493e
00000360: da1e 133e cc16 80be e151 04bc 9d74 d9bd
00000370: 8ae2 693e e368 88be a83f 10bd 0c19 5fbd
00000380: 2600 43be 88e5 bebc 9edc bd3d f77b fdbd
00000390: 3075 b0bd 0aa6 113e d89d 5c3e 9035 0a3e
000003a0: e0c9 2fbe 093f e2be a078 dbbd 7e4f 1b3e
000003b0: a837 c63d 007f e23d 1a89 90bd e4ed 04be
000003c0: b3ca c13d 2768 dbbd efa5 1fbc 6a63 cf3c
000003d0: 80f1 133e e67b 33be a670 d13c d52d 18be
000003e0: 141e c2bc 2fe4 8fbd bba5 aa3c fc8a 8fbe
000003f0: 682f 4ebe 483d 023d c2c9 85be 6b70 ef3d
-0.1621928 -0.31842062 0.19423307 -0.023498109 0.078698635 -0.13895291 0.038769156 0.09233606
0.16460942 -0.38542926 -0.35680783 -0.014276475 -0.027797377 0.005844739 0.059943967 -0.02551063
0.185921 -0.14808638 -0.22161049 0.09039128 -0.23375851 -0.22608432 -0.15051046 -0.1573636
0.2138632 0.19864741 -0.2750345 0.12914845 -0.1483828 0.115397796 -0.0006200224 0.056790087
-0.008349511 0.10342286 -0.29953524 -0.13729173 0.19822598 -0.3880755 -0.29927343 -0.38182452
-0.119887844 -0.16677898 -0.13377294 0.18380272 -0.03432136 -0.08989623 0.018597715 0.14320157
-0.06532502 -0.40862498 -0.021670096 -0.32731405 -0.30308142 -0.20639153 -0.13505626 -0.47836047
0.04121318 -0.13635682 -0.14904344 0.020612702 -0.10527872 0.12176361 0.18968579 0.12819357
-0.11752082 -0.13026418 -0.11195207 -0.35399336 -0.13271166 -0.1690694 -0.03463595 0.13068865
-0.22594531 -0.068382435 0.14698753 0.23942 -0.13379797 0.036767006 -0.20034355 -0.019020006
0.17272598 0.07603009 -0.07102449 -0.35447046 -0.11091072 -0.20215975 -0.12648204 0.20645037
0.05242811 -0.21568462 -0.29857254 -0.13871764 -0.13128698 -0.18518572 0.231451 -0.0087712435
-0.16871065 -0.10933916 -0.20786129 -0.06923668 -0.00921532 -0.31369033 -0.05058126 0.09134978
-0.28083032 -0.093945086 -0.1891743 0.07611666 -0.0787121 -0.071896076 0.013942898 -0.27481502
0.051214807 -0.4044298 -0.073064916 -0.11637055 -0.40443003 0.1254612 -0.15049519 -0.06861305
-0.017794251 -0.13939479 -0.37378013 -0.08140566 -0.23801544 -0.15091382 -0.017888155 0.09311434
-0.10582362 -0.12896082 0.04417107 -0.20870088 -0.18415391 -0.36453477 0.074643224 -0.14493279
-0.13853543 0.02214235 -0.013360375 0.08493143 -0.10826639 0.06998317 -0.13957387 0.09961602
0.095395796 -0.27511016 0.073425606 0.017746896 -0.23593962 -0.088967316 -0.21796902 -0.24454738
-0.08792187 -0.06364683 0.005030009 -0.08930396 0.19584772 -0.26201156 -0.103485286 0.065286666
-0.2709962 -0.2757152 -0.39155373 -0.2079043 -0.22739504 -0.25677347 -0.26664415 0.003076594
-0.31920835 -0.15921658 -0.05012193 -0.42953813 0.23219162 0.0717946 -0.13371006 -0.22711955
-0.33778912 0.012411023 -0.08615328 0.19195029 -0.019722864 -0.15176755 0.1034888 -0.3173093
-0.20626968 -0.19256869 -0.24421805 -0.20056309 0.076112114 0.16460055 -0.34199527 -0.1997737
0.013806373 -0.037872836 -0.19459625 0.091342896 -0.11200743 0.11352457 -0.21484627 0.09776175
0.17428876 -0.1888761 -0.16118401 -0.04183644 0.17786717 -0.173055 -0.30703622 0.033223644
-0.25180322 0.027479708 -0.15393153 -0.33575484 -0.19471657 -0.11601653 -0.15480047 0.19700593
0.14367238 -0.25017393 -0.008076162 -0.10617945 0.22840324 -0.26642522 -0.035216957 -0.054467246
-0.19043025 -0.023302808 0.09270595 -0.1237716 -0.08616102 0.14223495 0.21544588 0.13496995
-0.17166853 -0.44188717 -0.10716367 0.15167043 0.09678584 0.110593796 -0.070574 -0.12981373
0.0946249 -0.10713225 -0.0097441515 0.025315959 0.14447594 -0.17527732 0.02556641 -0.14861234
-0.023695983 -0.070259444 0.02083098 -0.28035724 -0.20135272 0.031796724 -0.26130491 0.11691364

fc2.weight f4 [128, 256]
00000000: 50f1 bf3c 2f4b 513d 1c3c e8bb ef64 a0bd
00000010: 2613 4d3d a86b cabb e451 0abd c709 cc3c
00000020: b8ce a0bc aced 363d bc7f 43bc c0ba 473d
00000030: 22ab 79bd 7de5 36bc 431b 8fbd 0651 5f3d
00000040: 3951 65bd 1be6 273d 8080 5bbc 114c e1bc
00000050: 05fc 35bd 8eea 1ebd 0eea 45bd e87d 253d
00000060: 5c59 2c3d 3fd9 4e3d ed7a 89bd c674 26bd
00000070: 009e 063a 2393 ab3c 1c82 f73c e247 8ebd
00000080: d764 38bd 1e06 783d b5fb d53c c0b4 58bd
00000090: 22aa 0b3d 3378 d83c 4a7c e73c 4fb4 953c
000000a0: ce2b 68bb 4c9d a4bc 66fe 3f3d e2dd 4f3d
000000b0: bd6a cbbc 901a 62bd 1ee6 79bd 309e 643d
000000c0: c4a3 d23c 1e7f 0fbd 4d64 6fbc eace 5a3d
000000d0: e492 a6bc dcb5 96bc c822 8bbd bc89 38bd
000000e0: 499f b8bd 20b2 2cbd 4657 403d b89b 53bd
000000f0: 054c 72bd b635 6bbd 14cf 253d 9139 7d3c
00000100: 8326 9e3c 6971 acbc f021 09bc 8238 5bbd
00000110: 5a7e 62bd 300b 363d a023 263b 2f83 65bd
00000120: b0ca 76bc 208a 523d 2610 0dbd 78c1 54bc
00000130: 1e16 333d 80e0 15ba c4c4 f33c c8c2 473d
00000140: d0b9 4abd 92e8 fe3c 206b 5cbc 26fe 2e3d
00000150: e02f 3bbc 26e9 0bbd 885c a03c 7adc 3f3d
00000160: a8ef 6dbd f151 4c3d 23a5 113d 5507 e8bc
00000170: b95a 08bd 1089 0fbc 4669 6dbd 3ec7 94bb
00000180: 10d6 32bd 1e02 01bd 00a7 5ebb 8209 1d3c
00000190: 1b47 18bd 608b 9fbc ce4f 7d3d 4feb 0bbc
000001a0: fe46 66bd 42d5 ebbd f6e6 1f3d a204 4ebd
000001b0: d753 403d 24fc f2bc 5110 e3bb 70db 2fbc
000001c0: 1984 793b e036 8c3c bce1 923c a255 693d
000001d0: 58fe 34bd 58f6 19bd 4a85 8bbd 303d ba3c
000001e0: ca54 173d 508b 0dbc 32f4 06bb 86e0 5a3d
000001f0: a3da dbbb 68c7 153d 5d09 9fbc 6cb3 fc3c
00000200: ca46 793d 2018 2b3d 8094 59bb 1cdd 013d
00000210: 6aa1 1a3a aeb9 4d3d 7a1a 4fbd cfcc 80bd
00000220: 1821 5abc 848e 33bd ee9d 313d f807 5bbc
00000230: e286 523d a019 4cbd a464 963c 4093 99bb
00000240: c88e 39bc 2b3d 263d 70e2 14bc e077 cf3b
00000250: 785b 3ebd cee0 62bd 9ee6 753d 6671 b8bc
00000260: e4c9 cc3c 55a5 09bc 3813 46bd 2294 4c3d
00000270: 5061 a83b c24a ad3c 487e 833c 84e1 4bbd
00000280: a207 fdbc dc41 083d 33ac 09bd 38c0 0dbd
00000290: 7a30 31bd 4037 3abb 9627 f73b de2a 70bd
000002a0: c5b1 4f3d 7ce5 0dbd 108e 823c 69d9 26bd
000002b0: 1c79 633d 1207 37bd 8cd1 c13c 544a 3abd
000002c0: 0881 04bc ea81 4d3d 7e7f 003d 34c3 c5bc
000002d0: b800 eb3c 4579 e2bc b65a 02bd 589b 4dbc
000002e0: 283d 393d e240 063d ea39 57bd a062 1f3d
000002f0: bb98 efbb 6414 5d3d 905f 9d3b a043 36bc
00000300: 38f4 03bd 6844 6dbc 1cbd 9abc 9c8a a93c
00000310: 4e78 1dbd 20f3 74bd 3ae5 41bd ce12 283d
00000320: 20a2 d23b 5636 81bc a0d9 e7bb 187d 7f3d
00000330: f08c 063d d2d2 19bc a735 243d b3d1 473d
00000340: 9496 7b3d 0080 87b6 c9dd d23c 8769 afbc
00000350: 74e6 df3b 76ff 683d 8555 7ebd 80ac 20bc
00000360: 2ebe 4d3d da90 fbbc 76f3 acbc e694 e1bc
00000370: 7473 f03c 8228 1bbc 2cea 7fbd a42e 40bd
00000380: 820b cb3c 0012 303a 2882 663d 6042 0e3c
00000390: 4e3a 253d 8c49 d03c e204 5ebd 7c81 0c3d
000003a0: aecd 9f3a 77fd c4bc 5c4e 8b3c b48a dcbc
000003b0: c533 13bd 5834 3cbc f240 1e3d 4c52 90bd
000003c0: b59b 25bd 31ad 693d b16a 213d 312a 5f3d
000003d0: 00e8 b4bc ecda ad3b 2c4a 84bd e86c 4ebd
000003e0: 3ae0 a8ba ce28 41bc 525e bfbc b7c5 16bd
000003f0: 3e25 16bd 8a88 2e3d 81b2 483c 660d 37bc
0.023430496 0.05109709 -0.0070872437 -0.078317516 0.05006709 -0.0061773844 -0.033769503 0.024907006
-0.019629821 0.044660255 -0.01193231 0.048762083 -0.06095422 -0.011163113 -0.06987622 0.05452063
-0.055985663 0.04099093 -0.013397336 -0.027502092 -0.044429798 -0.038797908 -0.048318915 0.040403277
0.042077407 0.05050015 -0.06712899 -0.040638708 0.0005135238 0.020944184 0.030213408 -0.06947304
-0.045018043 0.06055271 0.026121 -0.05290675 0.0340978 0.026424503 0.028257508 0.018274454
-0.00354265 -0.020094536 0.046873473 0.050748713 -0.02483117 -0.055201113 -0.061010472 0.05581492
0.025712855 -0.035033338 -0.014611316 0.053419985 -0.020333715 -0.018397264 -0.06793743 -0.04505323
-0.09014756 -0.04216206 0.04695823 -0.051662177 -0.05915453 -0.05742427 0.04048069 0.015455619
0.019305473 -0.021050172 -0.008369908 -0.053520687 -0.05529628 0.044444263 0.0025350824 -0.05603331
-0.015062973 0.051401258 -0.03443923 -0.01298558 0.043722264 -0.0005717352 0.029756911 0.048769742
-0.04949361 0.031116758 -0.013453275 0.042722844 -0.0114249885 -0.034157895 0.019575372 0.046841122
-0.058089882 0.049882833 0.035557877 -0.028323809 -0.033289645 -0.008760706 -0.057961725 -0.004540353
-0.043661177 -0.03149616 -0.0033974051 0.009584786 -0.037177186 -0.019475639 0.061843686 -0.008539989
-0.056220047 -0.11515285 0.03903862 -0.050297387 0.046954956 -0.029661246 -0.0069294353 -0.01073347
0.003807312 0.01711601 0.017929904 0.05696643 -0.044187874 -0.037588447 -0.06812532 0.022734255
0.036946096 -0.008639172 -0.002059233 0.05343678 -0.006709413 0.03656712 -0.019413644 0.030847274
0.060858525 0.041771054 -0.0033200085 0.031705007 0.00058986864 0.050225906 -0.05056236 -0.06289064
-0.013313554 -0.043837085 0.043363504 -0.013368599 0.051398166 -0.049829125 0.018358536 -0.004686743
-0.011325546 0.040585678 -0.00908719 0.006331429 -0.04647395 -0.05539017 0.060034387 -0.02251501
0.024998613 -0.008401235 -0.048358172 0.049945958 0.0051385537 0.021153811 0.016051427 -0.049775615
-0.030887429 0.033265933 -0.033611488 -0.034607142 -0.04325912 -0.002841428 0.007542561 -0.05863463
0.050706644 -0.03464268 0.015936881 -0.040734682 0.05553542 -0.044684477 0.02365949 -0.04548104
-0.008087404 0.050172724 0.031371586 -0.024140932 0.028686866 -0.027645716 -0.03182479 -0.012549244
0.04522434 0.03277672 -0.052545466 0.038912416 -0.007311908 0.053974524 0.0048026517 -0.0111245215
-0.032215327 -0.014481641 -0.018889003 0.020695977 -0.03844481 -0.059802175 -0.047337748 0.04103356
0.006428018 -0.01577298 -0.0070755035 0.062375158 0.032849252 -0.009388642 0.04009023 0.04878397
0.0614229 -4.0382147e-06 0.025740521 -0.021412624 0.006832892 0.05688425 -0.062093277 -0.009806752
0.050230198 -0.030708719 -0.021112185 -0.02753682 0.029351927 -0.009470107 -0.062479183 -0.04691948
0.02478576 0.00067165494 0.05627647 0.008682817 0.040338807 0.025425695 -0.054203875 0.034303173
0.0012192035 -0.024046643 0.017005138 -0.026921608 -0.035938043 -0.011487089 0.038636155 -0.07046947
-0.040431697 0.057049934 0.03940839 0.054483596 -0.022083282 0.0053056385 -0.0645946 -0.05039683
-0.0012884208 -0.011789514 -0.023360405 -0.03680965 -0.03665661 0.042610683 0.01224959 -0.011172628

fc2.bias f4 [128]
00000000: 6294 e03b 0400 25be a97f e1bd 5d7f 0abe
00000010: 08d0 54bd 3fe2 7cbc 8d5d 98be a5a9 a5bd
00000020: c573 b0bd 1bf7 98bc 5796 80bc 205a 11be
00000030: 9209 dabc c79c cebd e4f8 30bd 4d81 96bc
00000040: d3db 1fbe a9d0 39be 1472 93bd 0179 aebd
00000050: 1d2b 51bd 82d2 46be aa32 1c3c e028 71bc
00000060: eab2 b4bd c908 dfbd 8a64 bbbd 91be 8e3f
00000070: 7bcb aabd 77ed fdbb 0235 06be 700f 5cbe
00000080: 6544 90bd 22b8 8abd 4658 b0bd 5e1c 00be
00000090: 3b96 4dbe abcf f2bd cff4 b1bd 813e 5ebd
000000a0: c302 9ebd 794b 5bbe 64df 84bd 8f05 2dbe
000000b0: 3dd7 dcbd c0bb 83be 8461 01be e9f2 a6bd
000000c0: e06c b9bd 9828 87bd fd91 ffbd 2695 6abd
000000d0: 67f9 0f3f 3201 8fbd c5b2 8bbd aadd 4ebc
000000e0: 815c b2bd 5679 4ebc 587f 1dbd 6b65 22bd
000000f0: 909a 02bd bf44 8bbd 94d2 ccbd 7eca 13be
00000100: 86aa 8a3d e2fe 37be 8ae8 e8bd 68b5 1abe
00000110: 7dc2 e6bd 7248 3abd e5fb dd3d ff0b d23d
00000120: 4617 2cbe f369 4c3d 813b babd 2242 49bd
00000130: d618 f4bd 8448 b3bd 384f 1dbe 9147 0fbe
00000140: 315a abbd 6ecc a0bd e5f4 00be e798 2bbe
00000150: e787 653c 4cc6 05be 7f12 1abe 6b09 44be
00000160: 046e cdbd 9944 48bd 4b01 a7bd 79be 53be
00000170: 61d9 5abe ebd5 c5bd 28f3 31bd 3d69 2ebe
00000180: db08 3abb 41eb e7bd 3767 f8bd 0d33 03be
00000190: b95c 09be e118 45bd 37d1 19be 9515 dabd
000001a0: aa2c 1abd 00b8 f0bd 0caf 89bc 5c30 0f3d
000001b0: 5f09 b7bd 7086 12be e6c6 1dbd 46e6 17be
000001c0: 687c 40bd 7498 b0bd bf66 303c 7bf4 22bd
000001d0: 27b2 cdbd 7c0d 05bd c862 93bd a89d f5bd
000001e0: 576c d0bd 37fa 82bd 0b3d 0bbe 0f96 15be
000001f0: 1f47 a0bd 5c83 45be b64c b1bd 5636 c2bc
0.006853626 -0.16113287 -0.11010677 -0.13525148 -0.051956207 -0.015434801 -0.29758874 -0.08088998
-0.08615831 -0.018672517 -0.015696688 -0.14194536 -0.026615892 -0.10088497 -0.04320611 -0.018372202
-0.156112 -0.18146004 -0.07199493 -0.085191734 -0.051066507 -0.1941624 0.009533564 -0.014719218
-0.08823188 -0.108903475 -0.09150036 1.1151906 -0.08339592 -0.0077492553 -0.13106158 -0.21490264
-0.07044295 -0.06773402 -0.08610587 -0.12510821 -0.2007684 -0.11856016 -0.08689272 -0.054258827
-0.077153705 -0.2141551 -0.06487921 -0.16896652 -0.10783241 -0.2572918 -0.12634856 -0.081518
-0.090539694 -0.065995395 -0.12479017 -0.057271145 0.5623993 -0.0698265 -0.06821207 -0.012626091
-0.0870905 -0.012602171 -0.038451523 -0.0396475 -0.031885684 -0.06800222 -0.10001102 -0.14432713
0.06770806 -0.17968324 -0.11372478 -0.15108263 -0.112675644 -0.045479245 0.10839061 0.10256194
-0.16805753 0.04990573 -0.09093381 -0.049135335 -0.119187996 -0.08754066 -0.15362251 -0.13992144
-0.08366812 -0.07851492 -0.1259342 -0.16757546 0.014009452 -0.13063926 -0.15046118 -0.19144218
-0.100307494 -0.048893545 -0.081545435 -0.20678128 -0.21371986 -0.09659942 -0.043444782 -0.17032333
-0.0028386626 -0.11324168 -0.12129062 -0.12812443 -0.13414277 -0.04811943 -0.15021215 -0.10648648
-0.03764025 -0.11753845 -0.016807102 0.03495823 -0.08937334 -0.14309096 -0.038519762 -0.14833936
-0.046993643 -0.08622828 0.010766684 -0.039783936 -0.100437455 -0.032483563 -0.071965754 -0.11992961
-0.10176914 -0.06395381 -0.13597505 -0.14608024 -0.07826065 -0.19288391 -0.086572096 -0.02370755

value.weight f4 [1, 128]
00000000: 1ccc 9a3a 4df1 dc3d c771 b9ba 7ef3 ee3a
00000010: 0551 53bc 3b4c 0a3a 8513 6bbd 8908 24bc
00000020: 9566 683c b014 44ba dbb5 23bd 3e99 5ebd
00000030: ce5c 8dbc bcf5 a7ba a427 63bc 7847 393c
00000040: 98b7 983d 328e 113d 42b0 ab3c 7f74 32bc
00000050: bc5c 6abc 1e70 0ebc f4bc cf3b 30fc e63b
00000060: 01a0 023d 5e15 a0bc fec4 363c 0c31 a23e
00000070: d75e 813c 4c72 aabb 9e48 b13d c898 943c
00000080: 213b 8abd 3e73 28bd e433 3c3c 103d fc3a
00000090: c918 e3bc 7e81 8a3d abce 42bd 5e18 bdbc
000000a0: 4f5d 1bba d1d2 2d3d 8159 b3bc 50ad bd3d
000000b0: 91ec 07bb 4618 d83c 8397 dd3c ff94 9fbb
000000c0: 6151 42bc 97ae 033a 3216 353c 5630 01bd
000000d0: 1b08 fc38 69d6 c93d cb14 82bc b8da 2eba
000000e0: 0a9c efbc 9ac9 47b9 d563 0bbd d20e 163b
000000f0: 5992 61bc 323a 433a a41e 24bc 8d42 6fbc
00000100: 907e 69ba f515 b7ba 6555 413c 3525 453b
00000110: a5c4 353d 8124 e7bc 765f 54bd 447c f03b
00000120: 0bd6 bbbd 69f3 eabb 9bd8 d53c 5b36 f63a
00000130: 0513 59bd 8259 66bb 3364 0cbc 9f3e ecba
00000140: 0087 76bc 96d0 42bc 74f6 7e3c 400c ea3d
00000150: 1505 49bd c3d2 b2bd 0309 c73c 5ba7 a0bd
00000160: ebd1 4cbc c4ef bc3b f510 8a3d afd2 bc3d
00000170: 3b0b 543c dcc5 10bc da65 0b3c 5d35 833b
00000180: 7ed6 f8bc 6537 0d3d dc7f 8abd 85a7 fb3a
00000190: 07ed b83c 5059 33bc 9aa4 3c3d b2a2 e73c
000001a0: b06b c3bc 9741 b43d 25f4 d43c 6659 d93b
000001b0: 5c30 42bd 1f62 7c3b c031 99bb 70e8 6bbd
000001c0: a08e ddbb 8a79 343c bc58 483b 81fe 00bb
000001d0: a6c4 a2bc 8878 2fbd 2a53 30bc 8c54 47bc
000001e0: 4215 38bc 9ab5 b63c bfd2 fa3d e9d5 67bc
000001f0: 16dd 7abc 59c4 5239 e78c 11bd 81fb ae3d
0.0011810097 0.10788212 -0.0014148288 0.0018230525 -0.0128977345 0.00052756415 -0.057391662 -0.010011801
0.014184614 -0.00074798893 -0.039968353 -0.054345362 -0.017256167 -0.0012814323 -0.0138644315 0.011308543
0.07456893 0.035536 0.02095807 -0.010892033 -0.014304336 -0.008693723 0.0063396636 0.007049106
0.031890873 -0.019541439 0.011155365 0.31678045 0.015792293 -0.0052016135 0.08656429 0.018139258
-0.06749559 -0.04112553 0.011486981 0.0019244272 -0.02772178 0.0676298 -0.047560375 -0.023082908
-0.0005926685 0.04243738 -0.021893265 0.09261572 -0.002074037 0.026378762 0.027049785 -0.0048700566
-0.011860223 0.00050232693 0.011052655 -0.031540237 0.00012017806 0.098553486 -0.015879055 -0.0006670165
-0.02924921 -0.00019053221 -0.034030754 0.0022897017 -0.013767802 0.00074473314 -0.010017071 -0.014603269
-0.0008907104 -0.0013968336 0.011800145 0.0030081992 0.044376988 -0.028215649 -0.05184885 0.0073390324
-0.09171685 -0.00717013 0.026104262 0.001878451 -0.052996654 -0.0035148566 -0.008568811 -0.0018024034
-0.015046835 -0.011890551 0.015561689 0.11428118 -0.049077112 -0.08731606 0.02429629 -0.078444205
-0.01250122 0.005765887 0.067415155 0.09219872 0.012942131 -0.008836236 0.00850817 0.004004164
-0.030375715 0.034476656 -0.067626685 0.0019199705 0.022573961 -0.010946587 0.046055414 0.028275821
-0.02385506 0.08801573 0.025995323 0.0066329716 -0.0474094 0.0038510633 -0.00467512 -0.057594717
-0.006761387 0.011015305 0.0030570468 -0.0019682946 -0.01986916 -0.042839557 -0.010762015 -0.012166154
-0.011235537 0.022303391 0.12247228 -0.014150121 -0.0153115 0.00020100306 -0.035534766 0.08544064
