kinova-ros/kinova_scripts/src/best_model_episode_100/critic.pth (torch, 152399 bytes, 5 tensors)

fc1.weight f4 [256, 17]
0	0x3dd6658f	0.104685895
1	0xbda1e604	-0.079052
2	0xbe5333d4	-0.2062524
3	0x3e3eeb79	0.18644513
4	0x3d0024a6	0.03128495
5	0x3cad0108	0.021118656
6	0x3c06fbee	0.008238776
7	0x3e619a37	0.22031485
8	0xbe1385cd	-0.1440651
9	0x3d875f36	0.06609957
10	0xbc2dca65	-0.010607337
11	0xbd30138b	-0.042987388
12	0x3da441b7	0.080203466
13	0x3e01c7e7	0.12673913
14	0xbe749dc3	-0.23888306
15	0xbcf57ab3	-0.029965734
16	0x3abe43e9	0.0014516088
17	0x3dd11814	0.10209671
18	0x3e21c2d3	0.15796976
19	0x3e10f2e9	0.14155163
20	0x3db04872	0.08607568
21	0x3e50c339	0.20386972
22	0xbe3d959d	-0.18514104
23	0x3e5c1aa3	0.21494536
24	0xbe61b6bb	-0.22042362
25	0x3da47e50	0.08031905
26	0xbe6be368	-0.23035967
27	0xbdad91be	-0.08475064
28	0x3ca6b9cd	0.020352269
29	0x3d1b71b5	0.037950236
30	0xbca5f469	-0.020258145
31	0xbe1a6645	-0.15078075
32	0xbe1e25ab	-0.15444057
33	0x3ceaa566	0.028643321
34	0xbe1f0dd0	-0.15532613
35	0xbda81dc7	-0.082088046
36	0x3d3c3234	0.045946315
37	0xbe56643a	-0.20936671
38	0xbe242e52	-0.16033295
39	0x3dc0e2f5	0.094182886
40	0xbe5d1cb1	-0.21592976
41	0xbca1111b	-0.019661477
42	0xbe8a39b7	-0.26997158
43	0xbde7adb3	-0.11312427
44	0xbe05e40e	-0.13075277
45	0xbe0e0147	-0.13867675
46	0xbe585ebc	-0.21129888
47	0x3e292fb0	0.16522098
48	0xbe5eb118	-0.21747243
49	0x3e63187e	0.22177312
50	0xbcbb7ac1	-0.022885682
51	0xbca3070e	-0.019900825
52	0x3e5c4122	0.21509221
53	0x3c4eaf5e	0.012615053
54	0x3e4de1bb	0.2010564
55	0xbe3b284b	-0.1827709
56	0xbdbd0e49	-0.0923124
57	0xbe335677	-0.17513452
58	0xbdb1342e	-0.086525306
59	0xbd76c4a6	-0.060246132
60	0xbdd85b4d	-0.10564289
61	0x3e38aadc	0.18033928
62	0xbe30cbbb	-0.17265217
63	0xbd047c5d	-0.032345165
64	0x3bf384b8	0.007431593
65	0xbe3a9e2b	-0.18224399
66	0xbc9424cd	-0.018083954
67	0x3de46d82	0.111536995
68	0x3e17a4e6	0.14808998
69	0xbd671483	-0.056416046
70	0xbe026225	-0.12732752
71	0xbe44c892	-0.19217137
72	0xbd56ea2a	-0.05246941
73	0xbc32a413	-0.010903376
74	0xbe05f8e1	-0.13083221
75	0x3ddbdcd7	0.10735481
76	0xbd98afc1	-0.074553974
77	0x3e2f8114	0.17139083
78	0xbdcef8b5	-0.10106031
79	0xbd49d64b	-0.04927663
80	0x3e2afdd3	0.16698389
81	0x3d4e967c	0.05043648
82	0xbdb83e53	-0.089962624
83	0xbd61ce14	-0.055128172
84	0xbd9e321f	-0.077244036
85	0x3e149900	0.1451149
86	0x3d1ac4f7	0.037785497
87	0x3daac503	0.08338358
88	0x3c83f9da	0.01611035
89	0xbded1a7d	-0.11577318
90	0xbda7324b	-0.081638895
91	0xbe07d098	-0.13263166
92	0x3ccedb36	0.025251012
93	0xbe0bb28d	-0.1364233
94	0xbe616bad	-0.22013731
95	0x3e2d6236	0.16931996
96	0xbe76223d	-0.24036498
97	0x3e3afc43	0.18260293
98	0x3d8b25a9	0.067942925
99	0x3e47f787	0.19528018
100	0x3e171025	0.14752252
101	0xbdd0faf7	-0.10204118
102	0x3e181c9a	0.1485466
103	0x3e4158be	0.18881509
104	0xbe31ac54	-0.17350894
105	0x3e176765	0.14785536
106	0x3a36f97b	0.00069799245
107	0xbe41b380	-0.1891613
108	0x3e60a59d	0.21938176
109	0xbd7c3e0a	-0.061582603
110	0x3dde2490	0.108468175
111	0x3dadb405	0.084816016
112	0x3d2f5c84	0.04281284
113	0x3d1210be	0.035660498
114	0x3e5931a3	0.21210341
115	0xbdb7a97b	-0.08967873
116	0x3e28b236	0.16474232
117	0xbd80b2ff	-0.06284141
118	0xbe710237	-0.23536001
119	0xbd0ff645	-0.03514697
120	0x3db416a9	0.087933846
121	0x3cf17920	0.029476702
122	0x3cbfa740	0.02339518
123	0x3beb533c	0.007181553
124	0xbde65e75	-0.11248485
125	0xbd6c7e36	-0.05773755
126	0x3e0a5950	0.13510633
127	0xbe206e96	-0.15667185
128	0xbddfb61d	-0.10923407
129	0x3dcb15cf	0.09916269
130	0xbde5c38d	-0.11218939
131	0x3d4eca82	0.050486095
132	0x3b243887	0.0025058107
133	0xbe074a4c	-0.13211936
134	0x3e52452b	0.20534198
135	0xbddd44bb	-0.10804125
136	0xbe0d4727	-0.13796674
137	0xbe8ce96b	-0.27521834
138	0x3c907750	0.017635018
139	0xbcc084d5	-0.02350084
140	0x3d6f636a	0.058444418
141	0xbb98ab9c	-0.0046591293
142	0x3e29dd04	0.16588217
143	0x3e2c173b	0.16805737
144	0xbe131c63	-0.14366297
145	0xbe2c3bb1	-0.16819645
146	0x3c2b00da	0.010437215
147	0x3e013787	0.12618838
148	0xbe3799f9	-0.1792983
149	0xbdcfd8e0	-0.101487875
150	0xbe1a2069	-0.15051426
151	0x3c7fadd3	0.015605408
152	0xbdc6edc2	-0.097133175
153	0xbdd9f699	-0.10642738
154	0x3cc2d72c	0.023784243
155	0x3d4c13fb	0.049823742
156	0x3d8bcbee	0.06826006
157	0x3dd28b9b	0.10280534
158	0x3d865368	0.06558877
159	0x3e611fe4	0.21984822
160	0xbd33b8af	-0.0438773
161	0xbcaad785	-0.02085472
162	0xbe34b680	-0.17647743
163	0x3dec405b	0.11535712
164	0x3d904c7b	0.070458375
165	0xbdb92d06	-0.09041791
166	0xbd029cad	-0.0318877
167	0x3e0dcd69	0.13847889
168	0x3dee3d78	0.11632818
169	0xbdce6c4d	-0.100792505
170	0xbe2e8174	-0.1704157
171	0x3d8ab1fd	0.0677223
172	0x3df8a9dc	0.12141773
173	0xbdc8706a	-0.09787066
174	0x3e14c03c	0.14526457
175	0x3e432c5e	0.19059893
176	0x3e83a782	0.25713736
177	0x3d9101ba	0.070804074
178	0xbe36011a	-0.17773858
179	0xbe5589ba	-0.2085332
180	0xbe3c9e57	-0.18419777
181	0x3dd85233	0.10562553
182	0x3d9904d7	0.07471626
183	0xbd308252	-0.043093033
184	0x3cb1f97e	0.021725412
185	0x3e6e80d9	0.23291339
186	0xbe16aca6	-0.14714298
187	0xbceb451a	-0.028719474
188	0xbcbf4ed3	-0.023353016
189	0xbe5779ab	-0.21042506
190	0xbe6729a8	-0.22574484
191	0xbca88c45	-0.020574698
192	0xbe3cbb0b	-0.18430726
193	0xbd378f56	-0.04481443
194	0xbd8258f0	-0.0636462
195	0x3d79d8f4	0.06099792
196	0x3e4a6891	0.19766451
197	0xbd80ea81	-0.06294728
198	0x3ddf8783	0.10914519
199	0xbe055ddf	-0.1302409
200	0x3c4d9125	0.012546812
201	0x3cf648dd	0.03006404
202	0xbdeff688	-0.11716944
203	0xbe648070	-0.2231462
204	0xbd2f3e30	-0.042783916
205	0xbdd8b269	-0.10580904
206	0x3e5e8b0f	0.21732734
207	0x3df12e68	0.117764294
208	0x3d7ea3f1	0.062168065
209	0x3d0fdfb4	0.03512545
210	0x3dcb0ca1	0.09914518
211	0xbd9d20d4	-0.07672277
212	0x3da75229	0.08169968
213	0xbe84559b	-0.25846562
214	0xbe11d295	-0.14240487
215	0xbcf0cca0	-0.029394448
216	0x3db02685	0.08601097
217	0xbd2f7d84	-0.04284431
218	0xbe665820	-0.22494555
219	0x3df733d1	0.1207043
220	0x3bc2e347	0.0059475037
221	0x3dc8f790	0.09812844
222	0x3e168425	0.14698847
223	0x3ca89c4e	0.020582344
224	0xbe71782d	-0.23581
225	0x3dc88832	0.09791602
226	0xbc88b342	-0.01668704
227	0xbdcf9dba	-0.10137506
228	0x3e2b978b	0.16757028
229	0xbdaf23af	-0.08551728
230	0x3e1f3596	0.15547785
231	0x3bd72473	0.0065656244
232	0x3e457501	0.19282915
233	0xbe49f073	-0.1972063
234	0x3de22bbf	0.110435
235	0xbdd17a16	-0.10228364
236	0x3e37f181	0.1796322
237	0x3d8e6eb8	0.06954712
238	0x3e03b847	0.12863265
239	0xbe04a1d5	-0.12952359
240	0x3d91b092	0.07113756
241	0xbe720498	-0.23634565
242	0x3e191433	0.14949112
243	0x3e169048	0.14703476
244	0x3e3811a6	0.17975482
245	0x3e2ac61c	0.16677135
246	0x3cbda803	0.023151403
247	0x3e77b997	0.2419189
248	0x3e4e4c15	0.2014621
249	0x3c1635f4	0.009168137
250	0x3e3f42c0	0.18677807
251	0x3e410fac	0.18853635
252	0x3e99d345	0.30043998
253	0xbdb3749f	-0.08762478
254	0x3e4ba711	0.1988795
255	0xbd8826d4	-0.06648031

fc1.bias f4 [256]
0	0xbdfeb531	-0.12436903
1	0xbe435d0b	-0.19078462
2	0x3e593915	0.21213181
3	0xbcaa9e2e	-0.02082738
4	0x3dd355be	0.103190884
5	0xbde9859d	-0.11402438
6	0x3d12aff7	0.035812344
7	0x3d7c77c4	0.061637655
8	0x3e39cead	0.18145247
9	0xbe77886b	-0.24173133
10	0xbd7f582c	-0.062339947
11	0xbd1e7ab1	-0.038691226
12	0x3db00457	0.08594578
13	0x3db153a9	0.08658535
14	0x3e243613	0.16036253
15	0x3d4d70b0	0.050156295
16	0x3e32666d	0.17421885
17	0xbe561061	-0.20904686
18	0xbe0b5acf	-0.1360886
19	0x3e8cb749	0.27483585
20	0xbe42c01c	-0.19018596
21	0xbd691d29	-0.056912575
22	0xbe1a1f6a	-0.15051046
23	0xbd0c3a19	-0.034235094
24	0x3e399742	0.18124107
25	0x3e35c0bc	0.17749304
26	0xbd49c71d	-0.049262155
27	0x3dfc7aa1	0.12328077
28	0xbdf7e916	-0.121050045
29	0x3e0ae9d2	0.13565758
30	0xbbc070f5	-0.0058728405
31	0x3d900e4e	0.070339784
32	0x3e0f3d99	0.13988341
33	0x3e42ee15	0.19036134
34	0xbe4221d9	-0.18958224
35	0xbe355518	-0.17708242
36	0x3e4afbc0	0.19822598
37	0xbe1d2564	-0.15346295
38	0xbde698c0	-0.112596035
39	0xbea84f33	-0.32872924
40	0xbd2c55ae	-0.042073898
41	0xbe231e90	-0.15929627
42	0xbe08fbc6	-0.13377294
43	0x3e071ec2	0.13195327
44	0x3e00f04d	0.12591667
45	0xbd4f7f08	-0.050658256
46	0x3dd40893	0.10353198
47	0x3e81cb46	0.25350398
48	0xbd98f257	-0.07468098
49	0xbe75bae9	-0.23997082
50	0xbd6ff86d	-0.058586527
51	0xbe6d01d1	-0.23145224
52	0xbd8ab0d5	-0.06772009
53	0xbe53584d	-0.20639153
54	0xbceffee2	-0.029296342
55	0xbe9d6758	-0.30742908
56	0x3e19d2b2	0.1502178
57	0xbd2012fe	-0.039080612
58	0xbe082d17	-0.1329845
59	0x3db13c74	0.08654109
60	0xbe0581e7	-0.13037835
61	0x3e189634	0.14901048
62	0x3e3062ee	0.17225239
63	0x3e267e7b	0.16259186
64	0x3dbc08b3	0.09181347
65	0xbd54d422	-0.051960118
66	0x3c75cecc	0.0150029175
67	0xbe7e141d	-0.2481236
68	0xbdde1b90	-0.10845101
69	0xbe2d2087	-0.1690694
70	0x3c005ce8	0.007834651
71	0x3e4d6037	0.20056234
72	0xbcaaf85b	-0.020870378
73	0x3c3bc9a8	0.011461653
74	0x3e07069c	0.13186115
75	0x3e752a84	0.23942
76	0xbdf4171c	-0.1191847
77	0xbbdb54d7	-0.0066934633
78	0xbe3aa5d5	-0.18227322
79	0xbce4f18d	-0.027947212
80	0x3ddfcab2	0.10927333
81	0x3da22dec	0.07918915
82	0xbd2a8037	-0.04162618
83	0xbe63ba7c	-0.22239107
84	0xbb998041	-0.0046844785
85	0xbe20adb5	-0.15691264
86	0xbe025111	-0.12726237
87	0x3e5367ba	0.20645037
88	0x3dcfb969	0.10142786
89	0xbe49dd78	-0.1971339
90	0xbe850f89	-0.25988415
91	0xbd016ef9	-0.031599972
92	0xbe9e263b	-0.30888543
93	0xbe3da153	-0.18518572
94	0x3e6d017e	0.231451
95	0x3ce943ce	0.028474715
96	0xbe309ecf	-0.1724808
97	0xbc3cd92f	-0.01152639
98	0xbe5691ae	-0.2095401
99	0x3d666b1b	0.056254487
100	0x3e0db9dc	0.13840431
101	0xbe34a7c4	-0.17642123
102	0xbd1f91b0	-0.038957298
103	0x3dea502f	0.11441075
104	0xbe9097fc	-0.28240955
105	0xbd3973c9	-0.045276437
106	0xbe3cbd10	-0.18431497
107	0x3e162a2a	0.14664522
108	0xbdaaa760	-0.083327055
109	0xbc17f5aa	-0.0092748795
110	0x3e270108	0.16308987
111	0xbe54112e	-0.20709679
112	0x3e1e9f87	0.15490542
113	0xbe7b917f	-0.24567221
114	0x3daab31c	0.08334944
115	0xbdcfbf04	-0.10143855
116	0xbe295498	-0.16536176
117	0x3df55d9d	0.11980746
118	0xbdbef4f1	-0.093240626
119	0x3cae1320	0.021249354
120	0xbc91c540	-0.017794251
121	0xbe3f980b	-0.18710344
122	0xbe902608	-0.28154016
123	0x3d04ecfe	0.032452576
124	0xbe07182f	-0.13192819
125	0xbe31c0e0	-0.17358732
126	0x3cc71b16	0.024304908
127	0x3e235fa2	0.1595445
128	0xbe034fed	-0.12823458
129	0xbe040e4e	-0.12896082
130	0x3d5ae976	0.053445302
131	0xbc8f651c	-0.017504267
132	0xbe481d9f	-0.1954255
133	0xbdbaed17	-0.091272525
134	0x3da2b4bc	0.079446286
135	0x3c211b34	0.009833146
136	0xbe2eb603	-0.1706162
137	0x3cb563e0	0.02214235
138	0x3da65111	0.08120931
139	0x3d8e146b	0.06937488
140	0xbe0f7638	-0.1400994
141	0x3dadad38	0.084803045
142	0xbc3dfdb0	-0.011596128
143	0x3d942e1e	0.07235359
144	0x3e0f3f6a	0.13989034
145	0xbe44950a	-0.19197479
146	0x3e56b1f1	0.20966317
147	0x3b266d02	0.0025394564
148	0xbe552373	-0.20814304
149	0xbc65d24f	-0.014027192
150	0xbe5f3345	-0.21796902
151	0xbe8a65cc	-0.2703079
152	0xbdb41062	-0.08792187
153	0xbd84c59d	-0.06483004
154	0xbd795228	-0.060869366
155	0xbde890df	-0.11355757
156	0x3e30b97f	0.17258261
157	0xbe620205	-0.22071083
158	0xbdd3f018	-0.103485286
159	0x3c636044	0.013877932
160	0xbe759772	-0.23983553
161	0xbe44bd73	-0.19212894
162	0xbdf45f11	-0.11932195
163	0xbe2391cf	-0.1597359
164	0xbe68da3f	-0.22739504
165	0xbe3231b3	-0.17401771
166	0xbe28e0e8	-0.16492045
167	0x3e19b465	0.15010221
168	0xbe894b21	-0.2681513
169	0xbdb022c9	-0.08600385
170	0x3d354308	0.04425338
171	0xbe3075ee	-0.17232487
172	0x3e6dc3a4	0.23219162
173	0x3d8a1261	0.06741787
174	0xbe017b3e	-0.1264467
175	0x3cb6d7ec	0.022319756
176	0xbe1b9b6a	-0.15196005
177	0x3d22bda6	0.039731644
178	0x3bf976bf	0.0076130326
179	0x3e67cffd	0.22637935
180	0xbca191d8	-0.019722864
181	0xbdbdebc9	-0.09273488
182	0x3dd3f1f0	0.1034888
183	0xbe653253	-0.22382478
184	0xbcf8c375	-0.030366639
185	0xbe4d706e	-0.2006242
186	0xbe3a00f9	-0.18164434
187	0xbe1262a1	-0.14295436
188	0x3d9c1112	0.076204434
189	0x3e288d0c	0.16460055
190	0xbd90d5d1	-0.07072032
191	0xbd8e6592	-0.06952967
192	0xbb120c88	-0.0022285301
193	0xbd68627b	-0.056734543
194	0xbdf652b4	-0.12027493
195	0x3dbb11fc	0.091342896
196	0x3d138ed7	0.036024895
197	0x3dbeb088	0.093110144
198	0xbe5a54f6	-0.21321473
199	0x3dc83750	0.09776175
200	0x3e46ad7a	0.19402114
201	0xbe340972	-0.17581728
202	0xbe0b85e4	-0.13625294
203	0xbda86d99	-0.08224029
204	0x3e3622d0	0.17786717
205	0xbe25d859	-0.16195811
206	0xbe3f27b8	-0.18667495
207	0x3d9806ec	0.07423195
208	0xbe5bb4ca	-0.21455684
209	0x3c0ae0f9	0.008476489
210	0xbe2b5444	-0.16731364
211	0xbdf56b3d	-0.11983345
212	0xbd922f1e	-0.07137893
213	0xbd392be3	-0.04520787
214	0xbd92fc10	-0.07176983
215	0x3e514dbf	0.20439814
216	0x3e131eda	0.14367238
217	0xbe7c4949	-0.24637331
218	0xbd081755	-0.033225376
219	0x3d9cfb21	0.076650865
220	0x3e6b17a4	0.22958237
221	0xbe8c991c	-0.27460563
222	0x3cf1f7b4	0.02953706
223	0xbd5f190c	-0.054467246
224	0xbe6337df	-0.22189282
225	0xbd3133fa	-0.04326246
226	0x3dd3ed76	0.103480265
227	0xbdfd7bf7	-0.1237716
228	0x3dabc677	0.083874635
229	0x3e11a60a	0.14223495
230	0x3e5c9dd8	0.21544588
231	0x3e4b30c0	0.19842815
232	0xbe138b90	-0.14408708
233	0xbe4ce069	-0.2000748
234	0xbdbf96b5	-0.09354917
235	0x3e146784	0.14492613
236	0x3dfa2a26	0.122150704
237	0x3db4da50	0.08830702
238	0xbd8d814d	-0.06909428
239	0xbe6ae884	-0.2294026
240	0x3d3315b8	0.043721884
241	0xbd49d360	-0.04927385
242	0x3dd8d346	0.10587172
243	0x3dd1be75	0.10241405
244	0x3e13f180	0.14447594
245	0xbc54bc04	-0.01298428
246	0x3db38a3f	0.08766603
247	0xbdc1e82c	-0.094681114
248	0x3c931bd7	0.017957611
249	0x3cde32e4	0.027123876
250	0x3e24a6de	0.1607928
251	0xbe7cd7cc	-0.24691695
252	0xbdf76f70	-0.12081802
253	0x3d023d48	0.031796724
254	0xbe8210c5	-0.2540342
255	0xbcc59e5c	-0.024123363

fc2.weight f4 [128, 256]
0	0x3ce52aba	0.027974475
1	0x3d5749bc	0.052560553
2	0xbca1f57a	-0.019770373
3	0xbda3c37d	-0.07996271
4	0x3d61c8bd	0.05512308
5	0x3badc3c4	0.005302878
6	0xbd0fb41c	-0.035083875
7	0x3ce599c2	0.028027419
8	0xbca448a0	-0.020054162
9	0x3d2274a3	0.039662015
10	0xbc6e4334	-0.01454239
11	0x3d526e4a	0.05137471
12	0xbd7cee21	-0.061750535
13	0xbbba007b	-0.005676327
14	0xbd62b0b1	-0.055344287
15	0x3d5f5106	0.05452063
16	0xbd57b896	-0.05266627
17	0x3d3772c5	0.044787187
18	0xbc6927c5	-0.014230673
19	0xbcfba405	-0.030717859
20	0xbd2697aa	-0.040671982
21	0xbd445b9c	-0.047938928
22	0xbd45ea0e	-0.048318915
23	0x3ca2aa9b	0.019856742
24	0x3d16085c	0.036629066
25	0x3d662a37	0.056192603
26	0xbd7f5d0e	-0.062344603
27	0xbd0f7927	-0.03502765
28	0xbb2d6273	-0.0026456385
29	0x3be9e762	0.0071381787
30	0x3cc8b72a	0.024501402
31	0xbd8bd000	-0.06826782
32	0xbd259326	-0.040423535
33	0x3d1c5c88	0.038174182
34	0x3d0b4dd2	0.034009762
35	0xbd54cc8b	-0.05195288
36	0x3d0baa22	0.0340978
37	0x3cc534cc	0.024073027
38	0x3d00d251	0.031450573
39	0x3c6bd0e5	0.014393066
40	0x3933ad2a	0.00017135279
41	0xbca8660e	-0.020556476
42	0x3d3ffe66	0.046873473
43	0x3d51bb09	0.05120376
44	0xbca07b83	-0.019590145
45	0xbd621a90	-0.055201113
46	0xbd8e8e14	-0.06960693
47	0x3d3cff14	0.0461417
48	0x3ce3a5a2	0.02778894
49	0x3d16980a	0.03676609
50	0xbc5dd527	-0.013539589
51	0x3d5aceea	0.053419985
52	0xbcd57088	-0.026054636
53	0xbc96b5dc	-0.018397264
54	0xbd87caaf	-0.06630456
55	0xbd3d27ce	-0.04618054
56	0xbc047b63	-0.008086058
57	0xbd188124	-0.037232533
58	0x3d4a8583	0.049443733
59	0xbd329266	-0.043596648
60	0xbd407989	-0.046990905
61	0xbd81d205	-0.06338886
62	0x3d225e0d	0.039640475
63	0x3cc01563	0.023447698
64	0x3ce00d2c	0.02735003
65	0xbc0c2d74	-0.008555759
66	0xbb1362c2	-0.0022489284
67	0xbd6baf23	-0.05754007
68	0xbd627e5a	-0.05529628
69	0x3d360b30	0.044444263
70	0xbc17bf8b	-0.009261976
71	0xbd4d2b86	-0.050090335
72	0xbc919ed8	-0.017775938
73	0x3d5e0e08	0.0542126
74	0xbd4b6ac3	-0.049662363
75	0xbc54c178	-0.01298558
76	0x3d3206d0	0.04346353
77	0xbbfa7ffb	-0.007644651
78	0x3d12687a	0.035744168
79	0x3d41959b	0.047261816
80	0xbd510286	-0.051027797
81	0x3d1fff65	0.039061923
82	0xbc97acce	-0.018515017
83	0x3d36f11b	0.04466353
84	0xbd0b1b18	-0.033961385
85	0xbd585e7a	-0.052824475
86	0x3c6bf905	0.014402633
87	0x3d3fdc7a	0.046841122
88	0xbd6d7688	-0.05797437
89	0x3d6131a8	0.054978997
90	0x3d55f07d	0.0522313
91	0xbcd8cfee	-0.026466336
92	0xbcc24177	-0.023712857
93	0xbc0f8910	-0.008760706
94	0xbd6d6946	-0.057961725
95	0x3b364781	0.0027813616
96	0xbd48ee8b	-0.049055617
97	0xbd015337	-0.0315735
98	0xbb61a740	-0.0034431964
99	0x3c30a8da	0.010782445
100	0xbd07bca2	-0.03313888
101	0xbc2c0e1e	-0.010501413
102	0x3d5bbb20	0.053645253
103	0x3ac7e8b4	0.0015251846
104	0xbd4e6474	-0.05038877
105	0xbd3976c9	-0.045279298
106	0x3d2a2b53	0.041545223
107	0xbd4e04a2	-0.050297387
108	0x3d6e1d1b	0.058133226
109	0xbd23cd75	-0.03999086
110	0xbd39beeb	-0.04534809
111	0xbc2fdb70	-0.01073347
112	0x3bdb963f	0.0067012603
113	0x3ca60638	0.020266637
114	0x3c94aaab	0.018147787
115	0x3d6955a2	0.05696643
116	0xbd2095d0	-0.039205372
117	0xbcf0f2ae	-0.029412594
118	0xbc1ab834	-0.0094433315
119	0x3cba3d30	0.022734255
120	0x3d1754ca	0.036946096
121	0xbc87bc5d	-0.01656931
122	0x3b4034a3	0.002932825
123	0x3d760b33	0.060069274
124	0xbb56ef47	-0.003279643
125	0x3d0abbd7	0.033870544
126	0xbd02a7f9	-0.031898472
127	0x3d6f6c28	0.058452755
128	0x3d7a66eb	0.061133306
129	0x3d2b1820	0.041771054
130	0xbbae1dc9	-0.0053136093
131	0x3d0aba6a	0.033869185
132	0xbab9ac39	-0.0014165706
133	0x3d2b23c8	0.04178217
134	0xbd42ae85	-0.047529716
135	0xbd6427f1	-0.055702154
136	0xbcc115e2	-0.023570005
137	0xbd338e84	-0.043837085
138	0x3d38f615	0.045156557
139	0xbccf8e2b	-0.025336346
140	0x3d69d9f3	0.05709262
141	0xbd2bdf12	-0.041960783
142	0x3c981d76	0.018568736
143	0xbb78c7be	-0.0037960852
144	0xbc398ec8	-0.011325546
145	0x3d352f29	0.04423443
146	0xbcd5f39c	-0.026117139
147	0xbbc4b9e6	-0.006003606
148	0xbd3955a7	-0.0452477
149	0xbd6e24e6	-0.058140658
150	0x3d75e69e	0.060034387
151	0xbc68866c	-0.014192205
152	0x3cccc9e4	0.024998613
153	0xbb442db6	-0.0029934472
154	0xbd4f96ba	-0.050680853
155	0x3d55fc0c	0.052242324
156	0xbc59dc5d	-0.013297168
157	0x3cbebcc7	0.023283375
158	0x3c837e48	0.016051427
159	0xbd5871c6	-0.052842878
160	0xbccf0bd4	-0.025274195
161	0x3d166e0d	0.036726046
162	0xbd08fc41	-0.033443693
163	0xbd03bf4b	-0.032164853
164	0xbd31307a	-0.04325912
165	0xbb3a3740	-0.002841428
166	0x3ca0e8d8	0.019642279
167	0xbd565acf	-0.052332696
168	0x3cf6bde5	0.030119846
169	0xbcc3dae8	-0.023908094
170	0x3c828e10	0.015936881
171	0xbd1da42e	-0.038486652
172	0x3d63791c	0.05553542
173	0xbd2609c8	-0.040536672
174	0x3cc1d18c	0.02365949
175	0xbd2d6db8	-0.042340964
176	0xbc501fa1	-0.012702853
177	0x3d4a83a6	0.049441956
178	0x3cd1876f	0.025577275
179	0xbcd2d1d0	-0.025734812
180	0x3ceb00b8	0.028686866
181	0xbca18568	-0.019716933
182	0xbd025ab6	-0.03182479
183	0xbc4d9b58	-0.012549244
184	0x3d3afdaa	0.04565207
185	0x3cd56128	0.026047304
186	0xbd496968	-0.04917279
187	0x3d3390b3	0.043839168
188	0x3a54cf77	0.0008118073
189	0x3d5d1464	0.053974524
190	0x3b29d8bc	0.0025916537
191	0xbc3643a0	-0.0111245215
192	0xbdbbc2bf	-0.09168004
193	0xbca7609b	-0.020431807
194	0xbc9f779b	-0.019466212
195	0x3ca98a9c	0.020695977
196	0xbd171f61	-0.03689516
197	0xbd74f320	-0.059802175
198	0xbd22b7a0	-0.0397259
199	0x3d2812ce	0.04103356
200	0xbbb7ea87	-0.0056126746
201	0xbc49e32b	-0.0123222275
202	0xbccb7d51	-0.024840029
203	0x3d85e4b5	0.06537763
204	0x3d068cf0	0.032849252
205	0xb7d38e44	-2.5219408e-05
206	0x3d379bfa	0.044826485
207	0x3d679e84	0.056547657
208	0x3d81b65b	0.0633361
209	0x38a2e4b3	7.7673605e-05
210	0x3c313b5e	0.010817377
211	0xbcd6e9e3	-0.026234573
212	0x3c10e80c	0.008844387
213	0x3c8d9e34	0.017287351
214	0xbd6cb30e	-0.057787947
215	0xbcf6b2e7	-0.030114604
216	0x3d4dbe2e	0.050230198
217	0xbd47aaa9	-0.04874674
218	0xbc7e5764	-0.015523765
219	0xbcddc9c7	-0.027073754
220	0x3caf63cd	0.021409893
221	0xbc40ebdc	-0.011774983
222	0xbd85b73e	-0.06529091
223	0xbd402ea4	-0.04691948
224	0x3d03c692	0.032171793
225	0xbbe1588b	-0.00687701
226	0x3cd5827b	0.026063194
227	0x3c0e4260	0.008682817
228	0x3d387558	0.045033783
229	0x3cd0498c	0.025425695
230	0xbd5e04e2	-0.054203875
231	0x3d34620e	0.044038825
232	0x3c189fb1	0.009315417
233	0xbd2a9e73	-0.041655015
234	0x3c90e603	0.017687803
235	0xbdb98793	-0.09059062
236	0xbd2696fa	-0.040671326
237	0xbd012746	-0.031531595
238	0x3d5a6724	0.05332102
239	0xbd741e63	-0.05959929
240	0xbd1c1864	-0.0381092
241	0x3d711ab5	0.05886336
242	0x3d39a8ec	0.045327112
243	0x3d4c5824	0.049888745
244	0xbcb4e800	-0.022083282
245	0xbc6d5e58	-0.014487825
246	0xbd84f6a4	-0.064923555
247	0xbd4e6ce8	-0.05039683
248	0x3b44e8da	0.0030046017
249	0xbbdda902	-0.006764532
250	0xbd0de6cf	-0.034643944
251	0xbc887cde	-0.016661104
252	0xbd2804d6	-0.041020237
253	0x3d2e888a	0.042610683
254	0x3ca7827d	0.020447964
255	0xbd02e608	-0.031957656

fc2.bias f4 [128]
0	0x3c5022e5	0.012703632
1	0xbd6815de	-0.05666148
2	0x3e4e1262	0.201242
3	0xbd99f184	-0.075167686
4	0xbcd958c8	-0.026531592
5	0x3c121023	0.00891498
6	0xbd64b8fa	-0.05584047
7	0xbcb06d78	-0.021536574
8	0xbd1ed3ce	-0.03877621
9	0xbc759300	-0.014988661
10	0xbc7578c1	-0.014982403
11	0xbd8529a0	-0.0650208
12	0x3cd8187a	0.026378859
13	0x3caf885e	0.02142733
14	0xbd0d368e	-0.034475856
15	0xbd07e773	-0.03317971
16	0xbd3ac7d6	-0.045600735
17	0xbd805881	-0.06266881
18	0xbd65382a	-0.055961765
19	0x3c3621d1	0.011116461
20	0x3d669947	0.05629852
21	0xbd5b996b	-0.053613108
22	0x3c9a558d	0.018839622
23	0x3c52e68d	0.01287235
24	0xbb5dab00	-0.0033823848
25	0xbd3c476f	-0.045966562
26	0x3c95d1cb	0.018288514
27	0xbbba2c6d	-0.0056815655
28	0xbb9fafab	-0.004873236
29	0x3d18f9cb	0.037347596
30	0x3e932635	0.28740087
31	0xbd07f03a	-0.033188082
32	0x3d24b02f	0.040207084
33	0xbd093120	-0.033494115
34	0x3c7ed5b0	0.015553877
35	0xbd4bd72e	-0.04976576
36	0xbce39885	-0.027782688
37	0x3c98cae9	0.018651443
38	0xbd1b75a3	-0.037953984
39	0x3ab49e07	0.0013780006
40	0xbd70483f	-0.05866265
41	0xbd82981d	-0.063766696
42	0xbd08e50a	-0.033421554
43	0xbd6a6c58	-0.05723223
44	0xbcf4f4bd	-0.029901857
45	0xbb5c116f	-0.0033579727
46	0xbd7de1b8	-0.06198284
47	0xba21942a	-0.0006163741
48	0xbb307dfd	-0.0026930564
49	0xbd89b238	-0.06723446
50	0xbd8bd2e1	-0.06827331
51	0x3d1b7165	0.03794994
52	0xb976e839	-0.00023546898
53	0xbd24a56c	-0.04019682
54	0xbca30a55	-0.019902388
55	0x3be86c6c	0.007093003
56	0xbca10a50	-0.019658238
57	0x3cab731b	0.02092891
58	0xbb8224fe	-0.003971695
59	0x3c7423a7	0.014901078
60	0x3cf4d5f0	0.02988717
61	0xbd35e9a9	-0.04441229
62	0xbc45fa0b	-0.012083541
63	0x3d1fe8e7	0.039040472
64	0x3ce3080c	0.027713798
65	0x3a071cd0	0.00051541347
66	0xbd34c66f	-0.044134554
67	0xbd33c01e	-0.04388439
68	0xbd96cf47	-0.07363754
69	0x3c64841b	0.013947512
70	0x3c2b669b	0.010461475
71	0xbc0293e2	-0.007969828
72	0x3b34948c	0.002755436
73	0x3ca6ce43	0.020362025
74	0xbd108eba	-0.035292365
75	0x3d13b595	0.036061842
76	0xbd138554	-0.036015823
77	0xbcce2b68	-0.025167182
78	0xbce94c28	-0.028478697
79	0xbd777d27	-0.06042209
80	0x3d075a22	0.03304494
81	0x3ad3aee4	0.0016150144
82	0xbd607741	-0.05480123
83	0xbd1d69c1	-0.038430933
84	0xbcd6fc48	-0.026243344
85	0xba8f14a8	-0.001091619
86	0x3d0e3421	0.034717683
87	0x3ab21f3d	0.0013589632
88	0x3abea067	0.0014543653
89	0xbcbb5d13	-0.02287153
90	0x3cc3aa74	0.02388499
91	0xbd0fcfad	-0.035110164
92	0xbd81fe04	-0.06347278
93	0xbc4bfca4	-0.012450371
94	0xbd63fd53	-0.05566151
95	0xbd654f86	-0.055984043
96	0x3eb0da4b	0.34541544
97	0xbd1bbaf8	-0.038020104
98	0xbd181c59	-0.03713641
99	0xbd36bcd2	-0.044613667
100	0xbb098959	-0.0020986407
101	0x3c8f91ed	0.017525638
102	0xbd4854b6	-0.04890891
103	0x3ce3d5bd	0.02781188
104	0x3d499227	0.049211647
105	0xbd182e31	-0.037153427
106	0x3c13f253	0.009029943
107	0xbc2cdb94	-0.010550398
108	0xbcb231ad	-0.021752203
109	0xbcf05498	-0.029337212
110	0x3c4fee02	0.012691023
111	0xbd350521	-0.044194344
112	0x3c53e968	0.012934066
113	0xbd5fc430	-0.05463046
114	0xbc9af14b	-0.018913886
115	0x3d36a6c2	0.044592626
116	0xbd965d15	-0.07341973
117	0x3c9af04f	0.018913416
118	0x39727b01	0.00023124741
119	0xbd01ec3f	-0.031719442
120	0xbd08c790	-0.033393443
121	0xbbd5a903	-0.006520392
122	0xbd8dbe56	-0.06921069
123	0xbd95fc0d	-0.073234655
124	0xbd0b277d	-0.033973206
125	0xbc3fc7bd	-0.011705336
126	0xbd342348	-0.04397896
127	0x3d4de6ff	0.050269123

value.weight f4 [1, 128]
0	0xbc41d679	-0.011830919
1	0x3cb2aff0	0.02181241
2	0xbe188634	-0.14894944
3	0x3b091ece	0.0020922902
4	0x3c6b8fdc	0.0143775605
5	0xb9257ad4	-0.00015781383
6	0x3acdd092	0.0015702418
7	0xbb9e4430	-0.004829906
8	0x3a98250d	0.0011607722
9	0x3c16b097	0.009197376
10	0x3d6356bb	0.055502634
11	0x3ad05cf5	0.0015896844
12	0xbc049e40	-0.00809437
13	0xbd4d1b1a	-0.050074674
14	0x3adc9558	0.0016829176
15	0xbca0485a	-0.01956575
16	0xbd0c6e8c	-0.034285113
17	0xbd1c8fdb	-0.03822313
18	0x3be3dc5f	0.0069537605
19	0x3b925f6b	0.004466941
20	0xbcf7f7c1	-0.030269505
21	0xbd8bbe6d	-0.0682343
22	0xbb4024b7	-0.0029318759
23	0xbcd4aba7	-0.025960756
24	0xbd3c4304	-0.04596235
25	0x38d42938	0.00010116625
26	0x3b020d43	0.001984433
27	0x3b55591e	0.0032554339
28	0xbd8e44b5	-0.069466986
29	0x3b1c324f	0.0023833697
30	0xbe604eef	-0.21905111
31	0xbd822c1a	-0.06356068
32	0xbc0f5bd1	-0.008749918
33	0xbd854fef	-0.06509387
34	0x3ba5b487	0.005056921
35	0xbb318611	-0.0027087966
36	0x3c87309b	0.01650267
37	0xbd888a71	-0.066670306
38	0x3a876d99	0.0010332345
39	0x3cfa843b	0.03058063
40	0xbd51c7d7	-0.051215973
41	0x3c5adbd1	0.013358072
42	0x3da43317	0.08017557
43	0xbd76c9ea	-0.060251154
44	0xbacb1e2d	-0.0015496664
45	0xbc67bfa8	-0.0141448155
46	0xbd0fc28b	-0.03509764
47	0x3b04f748	0.0020288993
48	0x3d80794f	0.06273138
49	0xb9eae6ae	-0.00044803828
50	0xbce9f015	-0.028556863
51	0xbad71672	-0.0016409887
52	0x3bd9f368	0.0066513307
53	0x3da593c4	0.08084825
54	0xbc13dd2d	-0.0090249
55	0x3bff8e6f	0.007798962
56	0x3d0f3572	0.03496308
57	0x3d619d21	0.05508149
58	0xb9c17541	-0.0003689919
59	0xbb8cb004	-0.0042934436
60	0xba37fd00	-0.0007018596
61	0xbcf3effc	-0.02977752
62	0xbc164d6d	-0.009173733
63	0xbd0dbe23	-0.034605157
64	0x3a3c957f	0.00071939075
65	0x37d9b8f8	2.5954549e-05
66	0xbba18307	-0.0049289498
67	0x3c59655c	0.013268795
68	0xb9b675c9	-0.00034801502
69	0xbd1f1b54	-0.03884442
70	0x3c951db6	0.018202644
71	0xbda3dc0d	-0.08000956
72	0xbc86ac30	-0.016439527
73	0x3c12c149	0.008957216
74	0x3d934d13	0.07192435
75	0xbd4309cc	-0.047616765
76	0xbd2887a2	-0.041144975
77	0xbd90b8ce	-0.07066499
78	0xbcc53f76	-0.024078112
79	0xbd40a9e1	-0.04703701
80	0xbc6c71eb	-0.014431457
81	0xbc137488	-0.008999951
82	0xbd4b5e20	-0.04965031
83	0xbb149529	-0.0022671914
84	0x37932d79	1.754494e-05
85	0x39df99b9	0.00042648407
86	0xb9d21fd0	-0.00040078023
87	0xbc63a585	-0.013894443
88	0xba3354af	-0.0006840927
89	0xbc0f58b0	-0.008749172
90	0x3bfbb06d	0.0076809437
91	0xba9dc30e	-0.001203628
92	0xb99a612a	-0.00029445562
93	0xbd046d99	-0.032331083
94	0x37d3fa69	2.5269766e-05
95	0x3d0a7f94	0.033813074
96	0xbe8532e0	-0.26015377
97	0x3d92fac3	0.07176735
98	0xbc2d31dd	-0.01057097
99	0x3ca43f7a	0.0200498
100	0x39c2e77f	0.00037175042
101	0x3d33ffc8	0.043945104
102	0xbd217174	-0.039414838
103	0xb8a93be1	-8.069701e-05
104	0xbc0d64fc	-0.008630034
105	0xbb80c33d	-0.003929524
106	0xbd595592	-0.05306012
107	0x3d867223	0.065647386
108	0x3c9178f6	0.017757874
109	0xbc8ab4a4	-0.01693184
110	0xbbf3c27c	-0.007438956
111	0x3c66b493	0.014081138
112	0xbc2b46d0	-0.010453895
113	0xbd3bc748	-0.045844346
114	0xbb90b97b	-0.0044166422
115	0xbc35950c	-0.011082899
116	0x396ce6d4	0.00022592704
117	0xbd1c5639	-0.038168166
118	0xbbf2d906	-0.007411125
119	0x3ad41b19	0.0016182392
120	0x3a557f8c	0.0008144311
121	0xbcdee441	-0.02720845
122	0x3bb48f7f	0.00551027
123	0xbd1c9cc1	-0.03823543
124	0xbd477838	-0.048698634
125	0x3b7a714b	0.00382145
126	0xbd3f5c00	-0.046718597
127	0xb7e8a5ed	-2.773382e-05
