kinova-ros/kinova_scripts/src/best_model_episode_100/critic.pth (torch, 152335 bytes, 5 tensors)

fc1.weight f4 [256, 17]
0.092750706 -0.070969775 -0.23010029 0.20210713 0.042022623 0.037241466 0.004175207 0.19555104
-0.120111145 0.079862796 -0.0011354374 -0.014904897 0.065537654 0.11711156 -0.17398284 -0.043273244
0.017718779 0.13465641 0.23367338 0.16817734 0.16880085 0.2894768 -0.10233358 0.13601336
-0.18021412 0.03248338 -0.31105435 -0.1773627 -0.060694806 0.0996617 -0.11375737 -0.1674398
-0.13110858 0.11496045 -0.16554233 -0.09500997 0.016325826 -0.21577749 -0.16407187 0.08760097
-0.22018027 -0.01318232 -0.2312418 -0.10569291 -0.10530507 -0.11179379 -0.2175038 0.16344626
-0.12165613 0.22220519 0.01670308 -0.05286584 0.17707436 -0.045393597 0.19035208 -0.19860342
-0.10251782 -0.16640396 -0.048805762 0.048235115 -0.08799226 0.1695466 -0.16436043 -0.12624829
0.004546584 -0.03203773 0.028746199 0.113092095 0.09824064 -0.06678944 -0.1629815 -0.20953487
-0.06909284 -0.028258746 -0.115553066 0.04535517 -0.063093856 0.14957689 -0.13418508 -0.021417562
0.14619511 0.028907364 -0.11420215 -0.10221904 -0.13256554 0.114417024 0.016136412 0.057259984
-0.0028596362 -0.14709233 -0.0994744 -0.12552889 0.034408703 -0.09479835 -0.22243366 0.12188373
-0.19627473 0.13082033 0.06587942 0.22182773 0.18753965 -0.13298874 0.151732 0.2010341
-0.17147069 0.15733576 0.009369552 -0.1796944 0.22376572 -0.061890468 0.14146426 0.05498329
0.06917872 0.023461467 0.22789146 -0.09527855 0.14396648 -0.017507983 -0.2531565 -0.18575628
0.13672473 -0.13207735 0.081533305 0.05934637 -0.054032702 -0.13725376 0.06910064 0.019276123
0.018960368 0.2190455 0.04424077 0.041968204 -0.0038689708 -0.039001815 0.24667914 -0.12434179
-0.1853608 -0.25290218 -0.017488971 -0.016300151 0.06718595 0.0025023974 0.16501161 0.0166682
-0.11863004 -0.10869914 0.08628235 0.20174244 -0.12176017 -0.11617588 -0.22085784 -0.035238728
-0.06375571 -0.12913227 0.032798342 0.03878621 0.0634123 0.09913394 0.060681634 0.22209895
-0.14792423 -0.04563538 -0.15771472 0.119807474 0.13360971 -0.05047554 -0.03119957 0.059350904
0.09020671 -0.08714349 -0.24637355 0.07771962 0.055277433 -0.09687858 0.14856586 0.19157636
0.266616 -0.07496849 -0.17017607 -0.14441282 -0.11289984 0.17785953 0.09786461 -0.04846607
-0.017378803 0.16037127 -0.109641805 -0.029212058 -0.014887705 -0.23562692 -0.20132692 0.003353238
-0.15987687 -0.061446518 -0.023767427 0.11100179 0.21126413 -0.028247535 0.11830035 -0.15274522
0.009621352 0.12326458 -0.117251664 -0.20311418 -0.1679964 -0.13798968 0.08036952 0.089316614
0.03707167 0.0067819715 0.15803298 -0.2141133 0.19393386 -0.10924456 -0.06388016 0.06981412
0.14690106 -0.027998982 -0.11817572 0.13964963 0.016918257 0.101925015 0.14897211 0.017399298
-0.22973603 0.09996497 -0.010378371 -0.112955704 0.16586812 -0.07060449 0.15509787 0.022733184
0.20483254 -0.2020081 0.10740971 -0.060108934 0.18456678 0.09135977 0.11466629 -0.1211253
0.07194076 -0.2330901 0.15310816 0.1504867 0.1738191 0.15034695 0.012061748 0.23654164
0.15768434 0.004408587 0.17262802 0.18354309 0.23595798 -0.104731105 0.18585604 -0.07548551
00000000: 15f4 bd3d 9a58 91bd 699f 6bbe 2cf5 4e3e
00000010: ea1f 2c3d 828a 183d 2dd0 883b 883e 483e
00000020: d5fc f5bd 1b8f a33d f5d2 94ba ab33 74bc
00000030: 9b38 863d 30d8 ef3d 8f28 32be 493f 31bd
00000040: f926 913c 5fe3 093e 1348 6f3e ae36 2c3e
00000050: 21da 2c3e 4e36 943e 4594 d1bd 1647 0b3e
00000060: 0d8a 38be 4b0d 053d 8442 9fbe 919e 35be
00000070: 1e9b 78bd 6f1b cc3d a0f9 e8bd 5775 2bbe
00000080: 5441 06be 6270 eb3d ee83 29be 9694 c2bd
00000090: bdbd 853c c6f4 5cbe 7502 28be 2368 b33d
000000a0: f076 61be a8fa 57bc a7ca 6cbe 8675 d8bd
000000b0: 2faa d7bd 24f4 e4bd 51b9 5ebe 755e 273e
000000c0: d926 f9bd c289 633e e6d4 883c da89 58bd
000000d0: fb52 353e a3ee 39bd a8eb 423e b25e 4bbe
000000e0: ddf4 d1bd cd65 2abe 8de8 47bd 2f92 453d
000000f0: 4935 b4bd a09d 2d3e 1a4e 28be 3b47 01be
00000100: 83fb 943b ff39 03bd 267d eb3c d49c e73d
00000110: 6332 c93d e7c8 88bd 9fe4 26be 4f90 56be
00000120: 8c80 8dbd e37e e7bc 16a7 ecbd 58c6 393d
00000130: 5a37 81bd af2a 193e d067 09be e273 afbc
00000140: 2cb4 153e 23cf ec3c d1e2 e9bd 3758 d1bd
00000150: 43bf 07be 7953 ea3d 8230 843c 7289 6a3d
00000160: bc68 3bbb 5f9f 16be 3cb9 cbbd a58a 00be
00000170: 24f0 0c3d a325 c2bd a6c5 63be 2d9e f93d
00000180: 3efc 48be c4f5 053e caeb 863d cf26 633e
00000190: 650a 403e 332e 08be a25f 1b3e e2db 4d3e
000001a0: 0396 2fbe a01c 213e c082 193c cf01 38be
000001b0: d722 653e dc80 7dbd 02dc 103e 2936 613d
000001c0: 93ad 8d3d 4332 c03c 615c 693e 6721 c3bd
000001d0: f36b 133e e76c 8fbc bb9d 81be e536 3ebe
000001e0: 9101 0c3e 493f 07be effa a63d 2e15 733d
000001f0: 6551 5dbd 408c 0cbe a384 8d3d f6e8 9d3c
00000200: c652 9b3c 774d 603e cf35 353d dae6 2b3d
00000210: 8f8e 7dbb 5ec0 1fbd 7599 7c3e e9a6 febd
00000220: 39cf 3dbe 657c 81be 0845 8fbc e587 85bc
00000230: ca98 893d 43ff 233b cef8 283e c08b 883c
00000240: 4ef4 f2bd a89d debd cdb4 b03d 9295 4e3e
00000250: 655d f9bd 9fed edbd 8f28 62be 7c56 10bd
00000260: 5b92 82bd 403b 04be 8e57 063d 4ade 1e3d
00000270: 4fde 813d bc06 cb3d 4e8d 783d e86d 633e
00000280: 7379 17be 2aec 3abd f87f 21be 9f5d f53d
00000290: fcd0 083e 71bf 4ebd 3e96 ffbc ef19 733d
000002a0: 4cbe b83d 4978 b2bd 5949 7cbe 772b 9f3d
000002b0: 976a 623d 4768 c6bd a621 183e 982c 443e
000002c0: e481 883e 1489 99bd a342 2ebe f4e0 13be
000002d0: 0838 e7bd cf20 363e 3e6d c83d 5c84 46bd
000002e0: fe5d 8ebc 5e38 243e e28b e0bd 204e efbc
000002f0: 90eb 73bc 2f48 71be a528 4ebe 00c2 5b3b
00000300: c3b6 23be 58af 7bbd e8b3 c2bc e854 e33d
00000310: a055 583e 6067 e7bc 7447 f23d 3e69 1cbe
00000320: e0a2 1d3c 2472 fc3d a421 f0bd 2afd 4fbe
00000330: 4007 2cbe 2b4d 0dbe c698 a43d a1eb b63d
00000340: 77d8 173d 4d3b de3b 66d3 213e 8440 5bbe
00000350: 9996 463e 9dbb dfbd 9ad3 82bd b5fa 8e3d
00000360: 3b6d 163e 1f5e e5bc 1d06 f2bd 5000 0f3e
00000370: 2898 8a3c 10be d03d 258c 183e f988 8e3c
00000380: ec3f 6bbe 6fba cc3d 0b0a 2abc 5255 e7bd
00000390: 55d9 293e 1699 90bd fad1 1e3e f13a ba3c
000003a0: 9fbf 513e 36db 4ebe 9ff9 db3d c934 76bd
000003b0: 13ff 3c3e d51a bb3d 29d6 ea3d 8b10 f8bd
000003c0: ad55 933d 2caf 6ebe 63c8 1c3e 2f19 1a3e
000003d0: a2fd 313e 8df4 193e a39e 453c f937 723e
000003e0: 0178 213e e875 903b 66c5 303e b8f2 3b3e
000003f0: f89e 713e 437d d6bd 0c51 3e3e 2698 9abd

fc1.bias f4 [256]
-0.11097639 -0.10800423 0.20744517 -0.033589102 0.08583292 -0.13790129 0.04529479 0.11827777
0.18864806 -0.24657725 -0.061350487 -0.014276475 0.057494406 0.091241814 0.16309313 0.04118558
0.18812878 -0.13557994 -0.13467303 0.13028288 -0.17408206 0.072471686 -0.15051046 -0.05193252
0.21486756 0.23967251 -0.0445729 0.12914845 -0.066441506 0.13448161 -0.011438732 0.23247111
0.3012077 0.16047017 -0.04741288 -0.16440503 0.19490942 -0.14377104 0.032844625 -0.28457254
-0.015629018 -0.13212492 -0.14697196 0.16980563 0.085025676 -0.043214977 0.08077625 0.20772982
-0.06532502 -0.25477156 -0.023581974 -0.24242553 -0.12798104 -0.20697708 -0.02831549 -0.30010274
0.1480906 -0.041542828 -0.14904344 0.07868446 0.036436073 0.13356736 0.19110642 0.17904553
0.08525794 -0.027855035 0.10959753 -0.19539589 -0.10736112 -0.1690694 0.008757168 0.17592551
-0.05703332 -0.00051013695 0.11119601 0.2413859 -0.11625273 0.03697752 -0.22909707 -0.019020006
0.26951712 0.1037098 -0.0093274545 -0.22677249 -0.0031058653 -0.12442164 -0.104158096 0.20645037
0.105542846 -0.14196588 -0.13884403 -0.06954707 -0.19438277 -0.19766377 0.231451 0.018312126
-0.16871065 -0.040250838 -0.23226213 0.085418984 0.08798606 -0.176163 -0.05058126 0.12228643
-0.09258593 -0.035118453 -0.12221474 0.14506876 -0.00044036747 -0.021398744 0.056296334 -0.20957777
0.21678211 -0.24283843 0.25534073 -0.09238908 -0.15902762 0.30390877 -0.085701734 0.027969655
-0.0144569045 -0.14126438 -0.25614393 -0.016170058 -0.13272227 -0.15729408 0.008620943 0.09674042
-0.1194273 -0.12896082 0.06073537 -0.0070938086 -0.15220462 -0.2700008 0.088658504 -0.0068785986
-0.14596395 -0.0027330788 0.10446526 0.08493143 -0.114556976 0.057005502 0.01592809 0.0657989
0.12815021 -0.20415962 0.20775825 0.0036399178 -0.21989638 -0.022621974 -0.22697073 -0.23520468
-0.08792187 -0.104550414 -0.018545719 -0.044248924 0.19059385 -0.10975281 -0.10411353 0.030660477
-0.22336386 -0.19444986 -0.040751338 -0.1667192 -0.2522178 -0.18890356 -0.19527072 0.09941682
-0.1285882 -0.10806958 0.04425338 -0.19130282 0.24724527 0.085110955 -0.13568236 0.031980176
-0.12038757 0.060345616 -0.019580172 0.21523312 -0.03074462 -0.10211151 0.09543755 -0.24533607
-0.04564542 -0.2045519 -0.17653261 -0.1345045 0.09844696 0.15433897 -0.078704745 -0.071333274
0.013806373 0.0096695665 -0.11895802 0.091342896 0.066645876 0.083544895 -0.23759058 0.09776175
0.20293494 -0.1865162 -0.15614735 -0.04766139 0.15899365 -0.14535937 -0.19394065 0.062482428
-0.2338787 -0.025983095 -0.14282031 -0.12821071 -0.08121096 -0.031668514 0.11184592 0.18374906
0.13331755 -0.24317777 0.014958725 0.068141 0.19684371 -0.23772492 0.03883845 -0.042943627
-0.16078192 -0.041565143 0.15011811 -0.11777349 0.06978303 0.1583983 0.21544588 0.2076362
-0.12272647 -0.21520367 -0.10062324 0.15227729 0.07567608 0.110593796 -0.070574 -0.18019685
0.06611015 -0.027610721 0.22576965 0.2940878 0.14447594 -0.021031883 0.10010429 -0.102068104
0.051848613 0.035443563 -0.01713944 -0.24814679 -0.10949882 0.032005437 -0.22075093 -0.21830975
00000000: 9747 e3bd 5231 ddbd 826c 543e ba94 09bd
00000010: 2cc9 af3d ff35 0dbe 0887 393d 9e3b f23d
00000020: f52c 413e bf7e 7cbe a64a 7bbd e0e7 69bc
00000030: 417f 6b3d fddc ba3d e301 273e 36b2 283d
00000040: d5a4 403e 78d5 0abe bae7 09be e068 053e
00000050: 9142 32be 096c 943d 6a1f 1abe 32b7 54bd
00000060: 3e06 5c3e b66c 753e 1392 36bd 7e3f 043e
00000070: 7c12 88bd 8cb5 093e 8569 3bbc e80c 6e3e
00000080: e537 9a3e 4b52 243e 0234 42bd cb59 28be
00000090: 5696 473e b738 13be 1688 063d 7eb3 91be
000000a0: 6d08 80bc c14b 07be d17f 16be 87e1 2d3e
000000b0: f121 ae3d 3002 31bd 056e a53d 20b7 543e
000000c0: 20c9 85bd 6b71 82be fc2e c1bc 663e 78be
000000d0: 760d 03be cdf1 53be e3f5 e7bc 11a7 99be
000000e0: 10a5 173e d028 2abd d89e 18be 5125 a13d
000000f0: fe3d 153d e2c5 083e 67b1 433e b657 373e
00000100: b79b ae3d 3e30 e4bc ab74 e03d dc15 48be
00000110: 26e0 dbbd 8720 2dbe 3a7a 0f3c d125 343e
00000120: c59b 69bd b6ba 05ba bcba e33d de2d 773e
00000130: e915 eebd bd75 173d 6c98 6abe d8cf 9bbc
00000140: 26fe 893e ce65 d43d 2ed2 18bc 0c37 68be
00000150: c68b 4bbb c6d0 febd d750 d5bd ba67 533e
00000160: d926 d83d 815f 11be 212d 0ebe b26e 8ebd
00000170: 470c 47be 5f68 4abe 7e01 6d3e 5003 963c
00000180: 7cc2 2cbe 10de 24bd 20d6 6dbe 26f0 ae3d
00000190: 0932 b43d 1364 34be 4c2e 4fbd 4f71 fa3d
000001a0: b19d bdbd 5ed8 0fbd b94b fabd e88c 143e
000001b0: 1fe1 e6b9 6b4c afbc fc96 663d 8e9b 56be
000001c0: 21fc 5d3e a3aa 78be 05bc 823e 7c36 bdbd
000001d0: 23d8 22be ee99 9b3e 6484 afbd 9e20 e53c
000001e0: a7dc 6cbc 9ca7 10be 4c25 83be 1277 84bc
000001f0: 59e8 07be b311 21be db3e 0d3c d71f c63d
00000200: 4d96 f4bd 4e0e 04be a7c5 783d 2e73 e8bb
00000210: 87db 1bbe 8b3d 8abe 9792 b53d de65 e1bb
00000220: 9377 15be 741d 33bb e2f1 d53d 88f0 ad3d
00000230: d99c eabd 9a7e 693d a07b 823c 93c1 863d
00000240: cf39 033e 380f 51be 94be 543e b08b 6e3b
00000250: 842c 61be b851 b9bc 046b 68be 7fd9 70be
00000260: 6210 b4bd 871e d6bd 31ed 97bc 5c3e 35bd
00000270: 092b 433e 15c6 e0bd 7939 d5bd ae2b fb3c
00000280: 7fb9 64be dd1d 47be e0ea 26bd 70b8 2abe
00000290: b122 81be ef6f 41be 0cf5 47be 0c9b cb3d
000002a0: a0ac 03be 9553 ddbd 0843 353d e3e4 43be
000002b0: dd2d 7d3e a74e ae3d 51f0 0abe a5fd 023d
000002c0: c28d f6bd f72c 773d 9966 a0bc 1266 5c3e
000002d0: 24dc fbbc d71f d1bd c374 c33d 6139 7bbe
000002e0: b1f6 3abd 0e76 51be f7c4 34be 8cbb 09be
000002f0: 8f9e c93d 090b 1e3e f42f a1bd 2e17 92bd
00000300: 2034 623c 1a6d 1e3c 43a0 f3bd fc11 bb3d
00000310: a27d 883d 9619 ab3d f24a 73be 5037 c83d
00000320: 2dce 4f3e 1afe 3ebe 17e5 1fbe 9738 43bd
00000330: 3bcf 223e 16d9 14be 6198 46be 93ed 7f3d
00000340: e67d 6fbe 80da d4bc 7d3f 12be ab49 03be
00000350: ef51 a6bd d8b6 01bd 790f e53d b728 3c3e
00000360: 6584 083e 9803 79be 7115 753c 828d 8b3d
00000370: 6691 493e 296e 73be 1115 1f3d a8e5 2fbd
00000380: 04a4 24be 3640 2abd 90b8 193e 3a33 f1bd
00000390: 68ea 8e3d 2a33 223e d89d 5c3e 969e 543e
000003a0: 0458 fbbd 5a5e 5cbe 8f13 cebd 94ee 1b3e
000003b0: 10fc 9a3d 007f e23d 1a89 90bd 8685 38be
000003c0: c264 873d e12f e2bc 2930 673e ad92 963e
000003d0: 80f1 133e 0e4b acbc 7a03 cd3d 1509 d1bd
000003e0: 365f 543d 452d 113d 0368 8cbc 311a 7ebe
000003f0: eb40 e0bd 2218 033d 880c 62be 978c 5fbe

fc2.weight f4 [128, 256]
0.028090876 0.056769554 -0.011807474 -0.06324793 0.05502043 0.0064188153 -0.033769503 0.03442694
-0.02099536 0.0385741 -0.003861769 0.048762083 -0.052107688 -0.0076040286 -0.060176145 0.038708467
-0.065624714 0.044564594 -0.016495768 -0.027876057 -0.03799055 -0.046584822 -0.048318915 0.03880764
0.042077407 0.058079507 -0.06366216 -0.040638708 0.0005135238 0.007574744 0.028343093 -0.0825915
-0.038758807 0.06190587 0.026270473 -0.05290675 0.02021049 0.025932549 0.034753595 0.022735845
0.00093707 -0.020094536 0.042529795 0.050748713 -0.016245862 -0.055201113 -0.06237762 0.059903182
0.025712855 0.04269094 -0.015570275 0.054462112 -0.03601957 -0.035518184 -0.06390022 -0.04191324
-0.010752861 -0.03532776 0.04695823 -0.039614346 -0.04804773 -0.05653046 0.04048069 0.021551162
0.025506774 -0.0116543025 -0.005733712 -0.07041666 -0.06501807 0.044444263 -0.0033000512 -0.0538983
-0.012287825 0.047848612 -0.03443923 -0.01298558 0.038988788 -0.0005717352 0.03676374 0.048769742
-0.04949361 0.033598762 -0.013453275 0.049232673 -0.027694618 -0.058794565 0.011025417 0.046841122
-0.060966328 0.058235504 0.045548785 -0.02972714 -0.0469592 -0.013495792 -0.057961725 0.0031687885
-0.043661177 -0.029798329 -0.006573398 0.01650617 -0.030601058 -0.010573212 0.061843686 0.002675239
-0.04877481 -0.056284927 0.04490052 -0.050297387 0.061315782 -0.035969373 -0.024920039 -0.021635376
0.0038635163 0.024939619 0.020217353 0.0454481 -0.039517064 -0.035680536 -0.01916194 0.016513178
0.036946096 -0.008639172 0.0025156834 0.05293801 -0.0047378186 0.032819726 -0.023590662 0.057803042
0.063172325 0.041771054 -0.021182153 0.038833342 -0.016406825 0.056510035 -0.054811988 -0.046712473
-0.013313554 -0.04426131 0.04742246 -0.013368599 0.059547663 -0.046703625 0.012357253 -0.004686743
-0.01323299 0.046548583 -0.013679226 0.0031209462 -0.073524766 -0.060344078 0.0589852 -0.039867267
0.024998613 -0.004551828 -0.05393783 0.057883166 -0.022923075 0.029202372 0.021871548 -0.049775615
-0.033610016 0.04122308 -0.029541878 -0.040104862 -0.04325912 -0.0037677556 0.01890827 -0.056210134
0.027927335 -0.027185181 0.015936881 -0.036186736 0.05000364 -0.07317719 -0.0007721001 -0.038776044
-0.017005857 0.050172724 0.030493198 -0.027458355 0.028686866 -0.019476756 -0.03182479 -0.015088818
0.050133176 0.030827139 -0.06258458 0.046080407 0.002750648 0.05526717 0.0045786914 -0.016549427
-0.032215327 -0.017155869 -0.018889003 0.020695977 -0.03235744 -0.06127513 -0.065073 0.04103356
0.00080849504 -0.007640239 -0.004275456 0.062375158 0.032849252 -0.0028897224 0.045220245 0.050929092
0.061062418 0.0021100563 0.03656569 -0.016814698 0.011025742 0.038906083 -0.054422628 -0.009806752
0.045698307 -0.045151394 -0.011205889 -0.01955442 0.02928426 -0.005980861 -0.06449921 -0.04691948
0.035382345 0.00067165494 0.066062175 -0.021768725 0.04517733 0.025425695 -0.054203875 0.041773338
0.007766773 -0.027216021 0.006233208 -0.022894192 -0.015815813 -0.011487089 0.038636155 -0.061010443
-0.0432879 0.0355621 0.046765868 0.06285733 -0.022083282 -0.0316662 -0.06290169 -0.059998874
0.003888421 -0.004722517 -0.030220253 -0.028771007 -0.03665661 0.039540205 0.012292279 -0.021121375
00000000: d61e e63c 3187 683d 2374 41bc 2188 81bd
00000010: 1a5d 613d ed54 d23b e451 0abd 4303 0d3d
00000020: 76fe abbc e0ff 1d3d bc15 7dbb c0ba 473d
00000030: df6e 55bd 372b f9bb 437b 76bd c58c 1e3d
00000040: 4066 86bd 5d89 363d 2222 87bc 545c e4bc
00000050: fb9b 1bbd bacf 3ebd 0eea 45bd c3f4 1e3d
00000060: 5c59 2c3d c7e4 6d3d 4e61 82bd c674 26bd
00000070: 009e 063a 8f35 f83b c62f e83c bb25 a9bd
00000080: 8ec1 1ebd 0291 7d3d 2d35 d73c c0b4 58bd
00000090: 7890 a53c 7f70 d43c c959 0e3d 8640 ba3c
000000a0: b4a5 753a 4c9d a4bc b933 2e3d e2dd 4f3d
000000b0: 0b16 85bc 901a 62bd ad7f 7fbd 0a5d 753d
000000c0: c4a3 d23c b2dc 2e3d 771a 7fbc aa13 5f3d
000000d0: 4289 13bd 847b 11bd 1ede 82bd 38ad 2bbd
000000e0: c52c 30bc d7b3 10bd 4657 403d a742 22bd
000000f0: b2cd 44bd 7c8c 67bd 14cf 253d 108c b03c
00000100: 95f3 d03c b0f1 3ebc dde1 bbbb 9c36 90bd
00000110: 3228 85bd 300b 363d ac45 58bb 77c4 5cbd
00000120: e052 49bc e8fc 433d 2610 0dbd 78c1 54bc
00000130: b5b2 1f3d 80e0 15ba 9395 163d c8c2 473d
00000140: d0b9 4abd db9e 093d 206b 5cbc 33a8 493d
00000150: d3df e2bc 92d2 70bd f3a3 343c 7adc 3f3d
00000160: d4b7 79bd 5a88 6e3d 5d91 3a3d 5586 f3bc
00000170: 4a58 40bd 741d 5dbc 4669 6dbd 73ab 4f3b
00000180: 10d6 32bd a01b f4bc a965 d7bb f337 873c
00000190: 12af fabc 443b 2dbc ce4f 7d3d 1053 2f3b
000001a0: 18c8 47bd 068b 66bd 9ce9 373d a204 4ebd
000001b0: 4226 7b3d 9f54 13bd 1c25 ccbc ac3c b1bc
000001c0: 0c33 7d3b 2c4e cc3c dd9e a53c c927 3a3d
000001d0: a5dc 21bd c125 12bd 80f9 9cbc a546 873c
000001e0: ca54 173d 508b 0dbc 2ade 243b 87d5 583d
000001f0: b43f 9bbb fa6d 063d 3441 c1bc e2c2 6c3d
00000200: 7e60 813d 2018 2b3d 3286 adbc b60f 1f3d
00000210: 9b67 86bc 1177 673d 8982 60bd 9455 3fbd
00000220: 1821 5abc 594b 35bd 0e3e 423d f807 5bbc
00000230: 40e8 733d 4d4c 3fbd 1376 4a3c 4093 99bb
00000240: 2fcf 58bc baa9 3e3d d51e 60bc ca88 4c3b
00000250: 2794 96bd 5a2b 77bd 779a 713d dc4b 23bd
00000260: e4c9 cc3c 8027 95bb eaed 5cbd e616 6d3d
00000270: 2cc9 bbbc d039 ef3c f62b b33c 84e1 4bbd
00000280: a8aa 09bd 88d9 283d cf01 f2bc ff44 24bd
00000290: 7a30 31bd 73ec 76bb 84e5 9a3c 993c 66bd
000002a0: dec7 e43c 75b3 debc 108e 823c 8b38 14bd
000002b0: 9ed0 4c3d ecdd 95bd c366 4aba a1d3 1ebd
000002c0: de4f 8bbc ea81 4d3d dfcc f93c 58f0 e0bc
000002d0: b800 eb3c b88d 9fbc b65a 02bd 1737 77bc
000002e0: 7258 4d3d 3289 fc3c 582c 80bd cfbe 3c3d
000002f0: 3744 343b d45f 623d d908 963b aa92 87bc
00000300: 38f4 03bd 778a 8cbc 1cbd 9abc 9c8a a93c
00000310: 3c89 04bd a1fb 7abd fe44 85bd ce12 283d
00000320: 2ff1 533a f85a fabb 2019 8cbb 187d 7f3d
00000330: f08c 063d 7f61 3dbb dd38 393d 069b 503d
00000340: 961c 7a3d df48 0a3b e8c5 153d fabe 89bc
00000350: 50a5 343c fc5b 1f3d 43ea 5ebd 80ac 20bc
00000360: 262e 3b3d abf0 38bd e898 37bc 9730 a0bc
00000370: 8be5 ef3c 19fb c3bb 2918 84bd a42e 40bd
00000380: 14ed 103d 0012 303a 9b4b 873d 5354 b2bc
00000390: dd0b 393d 8c49 d03c e204 5ebd 851a 2b3d
000003a0: 6a80 fe3b 22f4 debc f03f cc3b 9a8c bbbc
000003b0: 2a90 81bc 5834 3cbc f240 1e3d 16e6 79bd
000003c0: a74e 31bd 91a9 113d 918d 3f3d 58bb 803d
000003d0: 00e8 b4bc 6bb4 01bd 9ad2 80bd 61c1 75bd
000003e0: e1d4 7e3b 58bf 9abb 7790 f7bc 2db1 ebbc
000003f0: 3e25 16bd e9f4 213d 8e65 493c bc06 adbc

fc2.bias f4 [128]
0.022114174 -0.05951947 -0.007861994 -0.02729929 -0.018436024 -0.0019757254 -0.013321982 -0.030659657
-0.040806163 -0.020957202 -0.022149466 -0.053048056 0.053518094 0.015354104 -0.026748389 -0.021797694
-0.046574187 -0.056171015 -0.028743615 0.0060851467 0.0548361 -0.058689836 0.027233597 0.031934127
-0.01400684 -0.040209126 0.03106241 -0.0024258196 0.00040647984 0.028775923 0.016610654 -0.033901867
0.2809504 -0.048176095 0.01625283 -0.030641558 -0.006260307 0.003990054 -0.027790137 0.02001365
-0.06196512 -0.046812516 -0.033421554 -0.05946029 -0.01619174 -0.014832768 -0.062429596 -0.004143178
-0.0009778864 -0.06300903 -0.06722891 0.041290496 0.029195474 -0.041841656 -0.0076771574 0.01828642
-0.021583028 0.02824174 0.0032958507 0.021897089 0.02988717 -0.038852356 -0.02290622 0.036913298
0.052561063 -0.0106243035 -0.046311714 -0.01067812 -0.073682785 0.012506854 0.030046698 0.2564399
0.016640816 0.04468995 -0.041591246 0.046955008 -0.049373943 -0.027480608 -0.017931243 -0.059364054
0.047496118 0.016510375 -0.045749083 -0.02609036 -0.040441945 0.0001422241 0.03737971 0.011815623
-0.0034898303 -0.00391006 0.031201929 -0.024012562 -0.069571726 -0.002421519 -0.019418824 -0.0488736
0.031539768 -0.0424603 -0.04381649 -0.051515043 -0.011485465 0.031465422 -0.0516757 0.02245951
0.039969545 -0.030992605 0.018307427 -0.019712131 -0.030274728 -0.03181328 0.009878956 -0.034064196
0.0103865545 -0.051588047 -0.033378538 0.04489047 -0.053655773 0.0339625 0.016268957 -0.026617423
-0.029160285 0.0013255819 -0.07120432 -0.06877183 0.21186784 0.013558493 -0.030903636 0.045176513
00000000: c928 b53c b0ca 73bd 98cf 00bc c3a2 dfbc
00000010: 2507 97bc 2c7b 01bb 7144 5abc f629 fbbc
00000020: 5d24 27bd 70ae abbc cc72 b5bc eb48 59bd
00000030: ca35 5b3d c88f 7b3c 701f dbbc 1491 b2bc
00000040: 93c4 3ebd 9413 66bd bb77 ebbc e965 c73b
00000050: d29b 603d c164 70bd fe18 df3c 5ccd 023d
00000060: f27c 65bc 53b2 24bd 9876 fe3c 80fa 1ebb
00000070: cd1c d539 7cbb eb3c 1113 883c afdc 0abd
00000080: bbd8 8f3e 4c54 45bd a824 853c 0104 fbbc
00000090: 4323 cdbb 00bf 823b 24a8 e3bc abf3 a33c
000000a0: 23cf 7dbd 7bbe 3fbd 0ae5 08bd a28c 73bd
000000b0: 8aa4 84bc 2305 73bc 2db6 7fbd 7fc3 87bb
000000c0: 6c2c 80ba e10a 81bd 50af 89bd 3920 293d
000000d0: 592b ef3c 2862 2bbd aa90 fbbb 67cd 953c
000000e0: e4ce b0bc 395b e73c 33ff 573b 8661 b33c
000000f0: f0d5 f43c a623 1fbd d3a5 bbbc 6632 173d
00000100: 454a 573d 8f11 2ebc 5ab1 3dbd 48f3 2ebc
00000110: 00e7 96bd 8ce9 4c3c 7e24 f63c 174c 833e
00000120: 5252 883c cf0c 373d 955b 2abd e553 403d
00000130: 553c 4abd 031f e1bc 8be4 92bc b927 73bd
00000140: 4a8b 423d c440 873c 6463 3bbd 73bb d5bc
00000150: 74a6 25bd fe21 1539 771b 193d 5196 413c
00000160: a3b5 64bb f61f 80bb 309b ff3c feb5 c4bc
00000170: 9f7b 8ebd 59b2 1ebb 3a14 9fbc af2f 48bd
00000180: d82f 013d daea 2dbd eb78 33bd 7001 53bd
00000190: 882d 3cbc e3e1 003d e6a9 53bd 02fd b73c
000001a0: 1bb7 233d 34e4 fdbc 75f9 953c 567b a1bc
000001b0: b502 f8bc a44e 02bd 58db 213c e686 0bbd
000001c0: 5e2c 2a3c fd4d 53bd efb7 08bd 12df 373d
000001d0: 28c6 5bbd 431c 0b3d 7a46 853c c80c dabc
000001e0: 8de1 eebc 26bf ad3a 92d3 91bd 3fd8 8cbd
000001f0: e2f3 583e 7124 5e3c 9f29 fdbc 020b 393d

value.weight f4 [1, 128]
-0.01409384 0.016594745 -0.08046613 0.015073341 0.020196337 0.0148498155 -0.00021218292 0.009111178
0.012548914 -0.011501455 0.048269782 -0.026474426 0.025603294 0.00015948915 0.03255046 -0.03194553
-0.033262026 -0.040134277 0.041548543 -0.0020035948 -0.035334915 -0.069261715 0.00023528936 -0.051389642
-0.026401628 -0.0024382633 -0.005435384 0.0024635163 -0.055901095 0.055192444 -0.076733686 -0.06679341
-0.12449832 -0.005687029 0.0036620412 -0.00096846814 0.011381819 0.001127226 -0.0083487 0.033196796
-0.06357478 0.022689888 0.08017557 -0.058882184 0.054006938 0.0015151021 -0.033156145 0.00046978798
0.064988956 0.00069038995 -0.03558818 0.01664058 -7.332776e-05 0.05905005 0.00051299896 0.028482832
0.032405302 0.0020669291 -8.347462e-05 0.0046756687 -0.0007018596 -0.021303166 0.006232864 -0.058542002
0.012578317 -0.0061672083 -0.0034160581 0.04070004 0.05394672 -0.07635654 0.053568177 -0.18708716
-0.021873916 0.028209304 0.06609156 -0.031840652 -0.0062585995 -0.068509236 -0.015076672 -0.05722735
-0.038644623 -0.011051968 -0.06416346 0.047870796 -0.0064474787 0.001608429 0.04805327 -0.024318095
0.033569 0.0006363287 0.021539494 -0.0018445425 0.0012407908 -0.04501515 0.0010550984 0.042204298
-0.06534849 0.07051934 -0.007656148 0.015419454 0.0038385054 0.06298615 -0.034242425 0.00032392974
0.0021594726 0.0006723016 -9.365547e-05 0.06397896 -8.8343084e-05 -0.006127105 -0.00669274 0.012107495
-0.007381577 -0.056176167 0.037472665 -4.859694e-05 -0.0014926393 -0.07198729 -0.00022886296 -0.010471957
-0.0021178361 -0.036105096 0.029531058 -0.043209124 -0.15471599 0.024354495 0.00042614184 0.003908963
00000000: d9e9 66bc b4f1 873c 6dcb a4bd 2df6 763c
00000010: ca72 a53c a44c 733c 6b7d 5eb9 0d47 153c
00000020: f699 4d3c 9970 3cbc 89b6 453d e5e0 d8bc
00000030: 00be d13c 8b3c 2739 a253 053d 51d9 02bd
00000040: c33d 08bd d763 24bd ce2e 2a3d be4e 03bb
00000050: 58bb 10bd 16d9 8dbd 02b8 7639 f27d 52bd
00000060: 3a48 d8bc 45cb 1fbb 4e1b b2bb f272 213b
00000070: 8cf8 64bd 7911 623d 8d26 9dbd fcca 88bd
00000080: faf8 febd 425a babb dbfe 6f3b cce0 7dba
00000090: cf7a 3a3c 6ebf 933a fcc8 08bc 5df9 073d
000000a0: 7f33 82bd 25e0 b93c 1733 a43d 722e 71bd
000000b0: 6136 5d3d 6496 c63a bdce 07bd e04d f639
000000c0: ee18 853d 49fb 343a e9c4 11bd d351 883c
000000d0: 8bc7 99b8 77de 713d c77a 063a d454 e93c
000000e0: 6cbb 043d 5175 073b 180f afb8 5a36 993b
000000f0: 00fd 37ba fa83 aebc 0e3d cc3b bdc9 6fbd
00000100: 4915 4e3c 4b16 cabb f2df 5fbb 16b5 263d
00000110: 3cf7 5c3d d160 9cbd 4e6a 5b3d c793 3fbe
00000120: ed30 b3bc 3317 e73c 035b 873d 586b 02bd
00000130: f014 cdbb 924e 8cbd 2504 77bc 3a67 6abd
00000140: d349 1ebd 5013 35bc 2268 83bd 2b14 443d
00000150: 5f45 d3bb ecd1 d23a 81d3 443d be36 c7bc
00000160: a67f 093d 4ccf 263a 9873 b03c 93c4 f1ba
00000170: 08a2 a23a ce61 38bd 3a4b 8a3a 6ade 2c3d
00000180: 6ed5 85bd 726c 903d 6de0 fabb e1a1 7c3c
00000190: 6f8f 7b3b e2fe 803d c941 0cbd 1dd5 a939
000001a0: f085 0d3b 663d 303a e668 c4b8 6707 833d
000001b0: d544 b9b8 e2c5 c8bb c64e dbbb 845e 463c
000001c0: 28e1 f1bb fb18 66bd f07c 193d 91d4 4bb8
000001d0: aaa4 c3ba 136e 93bd effa 6fb9 9292 2bbc
000001e0: 65cb 0abb f0e2 13bd 1eeb f13c 0dfc 30bd
000001f0: de6d 1ebe 1483 c73c ca6b df39 c216 803b
